results/params_1.npz (npz, 49918 bytes, 4 tensors)

arr_2 f8 [168, 36]
00000000: d876 2668 b4c7 e8bf 8e5e 5e5e ea3c bd3f
00000010: 413a dff9 e3d5 9bbf 4e84 9dc3 9ead 4dbf
00000020: df40 0b80 51a5 adbf 1cfd 1801 4894 b0bf
00000030: 3bd4 e60c ee5a bbbf 1136 d655 d415 97bf
00000040: dc44 1276 e2e6 a13f da93 aa6e 678d c23f
00000050: f751 d01e 9971 ad3f 859e 1e0e b094 6fbf
00000060: bde9 00eb fe51 97bf d772 dc54 ce5f 6fbf
00000070: 06a9 bfdd 806f 97bf 1d4c e46f c75b aabf
00000080: 72c3 ca1f 81b0 83bf b938 66a6 0ff7 a23f
00000090: 3c53 a65a ee5f c03f de58 6353 afa7 a1bf
000000a0: 2339 ca0b 3f85 a13f faab 16c5 e10d b2bf
000000b0: 4b83 80a1 8844 b3bf 4a9e d915 d9ed abbf
000000c0: 7503 8b93 e37a a5bf b260 3fb6 142d a1bf
000000d0: bfe3 cce8 967c b83f 73cf cdbc 0d34 bd3f
000000e0: 8bb5 76eb d6f2 5cbf 29cc 5f2c 166f a03f
000000f0: 49a9 ff26 7841 62bf f344 c1fb fc1d 99bf
00000100: a2ff 3865 0801 97bf 9510 71b0 135e aabf
00000110: cd1d 840c c6d7 a13f d087 8e37 9950 b23f
00000120: 0cf4 0192 f32f af3f 4c4e f312 25c9 e3bf
00000130: 413b 1bc6 ec4e b83f b9e6 983b e4dd 9f3f
00000140: 7114 b573 b1de a13f 7a90 0d31 2217 b4bf
00000150: f301 1c18 cd17 92bf 5a6d 6fb5 0bde a0bf
00000160: d204 64e0 8936 9b3f dcbe 2d48 b774 b93f
00000170: 8552 cbd0 4f1d 923f 45cb 9d5d c86a 963f
00000180: 1402 9f4b 9fc1 b0bf 3b01 6048 c6e1 bbbf
00000190: 7244 32fe bdff 9e3f e3be cdeb 028a acbf
000001a0: 5971 17db a027 7fbf b634 018c 1940 ae3f
000001b0: 89d5 bc36 526c c53f 7630 a9b3 bead a93f
000001c0: c4b9 3a49 92a7 6cbf bc77 f231 5620 bcbf
000001d0: a618 ba96 9fd7 bdbf 8a10 216c 517a a7bf
000001e0: 86b8 9f0c 442a 813f 5959 2a0e 622b 7c3f
000001f0: e527 2bf2 d98e b13f 6971 987f 3229 b73f
00000200: 9d8a 3b72 b2a5 b43f 7479 1f6e e60b aabf
00000210: 9de2 e6a9 10ae 4c3f 67f0 759b a183 7ebf
00000220: 61ad 97ce efcd 8fbf a243 10c2 42a3 99bf
00000230: 7aea 9b00 0dcc ad3f a213 68c7 b7e6 8d3f
00000240: f898 20be b420 c83f 8191 3e6d 2922 a43f
00000250: 03d3 453f 3fc6 e7bf e9ec a0e0 120d 973f
00000260: a38e 4d65 b049 6f3f 3ff6 6103 ecab 553f
00000270: 99ba cd33 c286 813f 8098 e702 3da6 ad3f
00000280: 9255 0f30 c443 653f 5a65 13fe e590 c03f
00000290: 6538 457f d440 b33f 9925 658f 9ced 853f
000002a0: 2818 48c5 866e c4bf f7b7 9183 36f8 bdbf
000002b0: c20d 693e 12db 9fbf 658a e02f 3f68 813f
000002c0: ac59 cab0 acf7 ab3f b18d d0eb b719 a13f
000002d0: 9c5f 80bb 44e1 94bf fce5 8201 3b21 9a3f
000002e0: 9991 9f0a 8ae3 ba3f 70f0 9f74 5e1a 93bf
000002f0: 7da9 cc81 22ac c3bf 052b 8587 7ca6 a8bf
00000300: 81b8 ae6f 67dc a1bf 94f6 4845 0bba aa3f
00000310: dbbc 4e2f 27e3 8cbf a8f3 065d 57a6 a0bf
00000320: de7f e95a 3c2d b33f 2395 6c76 915f b73f
00000330: c089 b604 de72 9e3f 6d3d 667e 0f47 a0bf
00000340: e5cf 4175 a601 a03f 84dd 110b 5b70 9b3f
00000350: 4da3 8304 743d ab3f 1edd f440 622e 993f
00000360: 7a3f ab89 5864 c1bf 662a 8580 7ab3 c53f
00000370: 6522 aa11 2c7a a63f 52b4 9a0a 4353 ddbf
00000380: 2da8 3fce 5f28 953f 7a41 73bc e3af a33f
00000390: 3f86 d531 1a1e 7a3f 0e75 382b 4336 a43f
000003a0: 067e 7d31 c782 96bf 437b 0d2c cdcf 5fbf
000003b0: ee24 de45 50ec a93f 42a3 5dec a24e 823f
000003c0: 3078 120e 8b2c 8bbf c87f 0623 b1c4 acbf
000003d0: 0bcb 1e92 b81e acbf d176 a628 29cd 78bf
000003e0: efc0 a048 f584 8e3f 95a1 bb02 2a39 84bf
000003f0: 2cd3 e792 0d14 95bf 6dd1 c1d1 bd31 9e3f
00000400: e1c7 bcef 5aad 903f fa5e 3dcb 77b2 7c3f
00000410: 1596 b884 0277 a6bf b37a e6c3 7140 a8bf
00000420: 7cba 4a01 4c3f 97bf e0d5 6845 bdbe 743f
00000430: 2ef3 d8cf d987 9f3f 1e13 7a70 1e77 a93f
00000440: ca9d abc1 f04d 4a3f c241 0400 a9eb a23f
00000450: 4b54 ef7c 6a23 723f 49cb 8704 835f 8dbf
00000460: 6c93 3c5c 7a76 6e3f 6068 e19d ff64 af3f
00000470: e6c0 b8f4 3d37 3b3f 9d7d d075 a90b 783f
00000480: 4f2d 5d89 0a1b 9b3f 7fa9 c33b 6422 c0bf
00000490: c6dd 1a03 1951 cc3f 6f91 5ca5 37c9 b63f
000004a0: f61d fcdd 13c0 e0bf f9ec 4413 d69d b13f
000004b0: b133 8a32 e8a5 b73f 9c93 6ce4 1bc3 ab3f
000004c0: a225 2659 ee8c 7d3f 23a8 0290 6f82 a1bf
000004d0: 9b15 e519 a358 a23f 163c 83b1 7569 89bf
000004e0: edab e17c f7db 623f ef5a 7c21 19f6 773f
000004f0: 524c 6ebd bae2 6d3f 072c e9a6 ea92 aebf
00000500: 2514 12f1 8e41 a43f f484 efce 8b9a 8d3f
00000510: d888 6c8b d7f1 b13f 0cf6 bb1c b68d 913f
00000520: 4bf0 23fd 96a2 903f 97d4 d3f5 7ba8 843f
00000530: aa16 4263 7d3a a8bf f1df 6cd9 1607 743f
00000540: c517 1b84 5d4e a13f d5e4 cb24 dd1e 9dbf
00000550: dba4 6ef7 1191 743f a3fa 5aef 4d02 9a3f
00000560: 992c 51bc 2b59 be3f 6f00 a4da df2f 90bf
00000570: 994f 7d8c b69c a23f 4997 bc37 b6e3 953f
00000580: a2d7 320a 7949 993f 797f c1a7 fbde 9e3f
00000590: 5791 4fbd 07ee b73f e8ea 7542 0647 9cbf
000005a0: 2ad0 55b7 9f2d 743f 40cd 8126 fc02 903f
000005b0: 16bc 7e57 40e8 d1bf ff21 6c31 20b6 cb3f
000005c0: b757 215d b6b2 943f 4759 e449 7807 dfbf
000005d0: 1980 2f02 4dea a83f d856 be22 1ae6 b03f
000005e0: 4ff7 3a32 3d16 a83f 0598 361d 67c7 a43f
000005f0: 6747 f219 fb8e 923f 40a9 c2de cdd6 9abf
00000600: 2344 8884 93f3 b2bf dbdf e01b 58ca b4bf
00000610: 47e5 696a c341 a9bf e60d 2327 b983 993f
00000620: f423 2e58 92b8 93bf d6ba 7069 289b 50bf
00000630: 244d 2a8b e655 453f 8c19 f81a cce2 983f
00000640: d355 c1c8 0132 b03f 0406 b8ec 19af a03f
00000650: cb9c 87a0 9112 a5bf fb56 5ef4 b682 a63f
00000660: 628b 9c08 2942 a9bf a553 55fd d93e ae3f
00000670: 1eef 30b7 566a 9abf 4813 1b84 90c5 a33f
00000680: 358a 57d0 09e7 68bf ee1d 4c32 b84a b43f
00000690: ef6d d435 1133 aabf 90fb 34e7 ac69 9d3f
000006a0: d3b3 30a2 adb5 983f 1cec e93a 14bc a1bf
000006b0: 5846 ec02 00e8 7b3f 3e96 94f8 60ee a53f
000006c0: 03e6 a128 4f07 b0bf aabf da5f a1d1 a13f
000006d0: ddff 537a ac0d 8c3f 2af6 827b 510a d2bf
000006e0: 85d0 a95f d5f2 cc3f c30a 1e48 f150 a43f
000006f0: 6a0f eabb 2661 d0bf b6e6 16bd d793 9f3f
00000700: 15a7 b780 427d b5bf e021 0154 584b a9bf
00000710: 5dcf c955 f45d 883f 6ce1 bcce 6435 943f
00000720: 6d0f f66a b989 8abf af21 0ca5 9502 963f
00000730: ff61 3c36 4820 a7bf 66e0 9edd 6bab 813f
00000740: 4ab4 1fbe 00a6 97bf d14c dc05 0f03 a63f
00000750: d48a 030d b008 8ebf b626 2f13 3174 9c3f
00000760: 3f11 d5b8 6f09 613f 1700 0b06 768c a93f
00000770: 8f58 f691 19c1 96bf dc73 6cec f127 a23f
00000780: 84f3 c5aa 958e 63bf 3eff c8da cc93 9cbf
00000790: 43da 11e4 bd60 7a3f 0a03 8911 5c31 b73f
000007a0: c606 cca9 e425 9fbf 3bda 1847 c418 883f
000007b0: 3698 3d8e 6d96 a53f e325 d2d7 eb01 91bf
000007c0: a6c8 e20b a7c6 9a3f 925c 6206 b7a7 af3f
000007d0: 74bf 34b2 e56c 733f 6718 e536 2bfa af3f
000007e0: 9594 91dd 61da 973f 1b37 1f41 2ee5 80bf
000007f0: 93ff d004 edd1 b13f 3c58 50ed 56a0 a63f
-0.7743780168709362 0.11421074680253637 -0.027183115125632765 -0.0009057069030228378 -0.0579019039920483 -0.06476259257123157 -0.10685622992498704 -0.022544210185108386
0.034964634812362866 0.14494030860546908 0.05750730992454927 -0.0038550795151939842 -0.02277372655246678 -0.003829863539876004 -0.022886289152588744 -0.051481468590417225
-0.009613999159542284 0.03704117685548298 0.1279275839448476 -0.034482459000786156 0.034219713391495675 -0.07052432119114363 -0.07526449149055485 -0.05454901115154749
-0.04195319343626284 -0.033547065016763425 0.09565108474352167 0.11407552585097651 -0.001766881830785524 0.0320975236098991 -0.0022284838414538305 -0.024528458467391222
-0.0224648772984889 -0.051498999870575414 0.03484934714111496 0.07154233557096679 0.06091271550483421 -0.6183038110852492 0.0949542983682763 0.031119886529473038
0.034902139067107714 -0.07847799012739812 -0.01766891917850617 -0.03294407453332822 0.026575235672685 0.09943719398665557 0.017689940565861057 0.02189171859158569
-0.0654544410344971 -0.10891379610985023 0.03027245391837536 -0.055740443501120195 -0.0076061519079895995 0.05908279260675313 0.16736819908843995 0.050153693610440905
-0.0034978730344256987 -0.10986841887867532 -0.11657140188080692 -0.0458550877088167 0.008381396899462833 0.006877310780188794 0.06858598863905703 0.09047237029193912
0.08065333641892854 -0.05087204069399123 0.0008752423635121801 -0.0074497521194381916 -0.01552951192112201 -0.025036852926919935 0.058197408985468393 0.014600215695290523
0.1884981087070583 0.03932313402700328 -0.7429500804706496 0.022510809860460865 0.0038193173626711193 0.0013227276627100352 0.0085578128871167 0.057908922772001326
0.00259579008023065 0.12942194849055505 0.07520797831713961 0.010707114339896505 -0.15962299950496228 -0.1170686789716625 -0.031109128054834796 0.008499616287797449
0.05462398202978433 0.03339934114071797 -0.020390581077748146 0.025517389266246568 0.10503447303159986 -0.018655277126513103 -0.15369063699592891 -0.04814519075678984
-0.03488467443763544 0.05220065327419579 -0.014105135089123191 -0.032519083124021464 0.0749089929536235 0.09130200520720115 0.029735058820401283 -0.03179214876137846
0.031262590230568134 0.026795790243765008 0.05320322566132649 0.024591002668981614 -0.13587481233707505 0.16953974986457182 0.043900849491426176 -0.4582069018895868
0.020661828006190475 0.038451306108643515 0.0063763640622212505 0.0394764890918201 -0.02198325385631785 -0.0019416335710144706 0.050631054428842734 0.008939049566565441
-0.013268553130100086 -0.056188140416679355 -0.05492188247389692 -0.006055031563304517 0.014902035025528863 -0.00987465687599424 -0.02058430871143739 0.02948662369495152
0.01628629768601531 0.007006137795393158 -0.04387672300462612 -0.047366671718227414 -0.02270239599118405 0.005064715710024953 0.03079166728115295 0.04973693011291956
0.0008027482575387265 0.03695419430926307 0.004428306549887638 -0.014342330528028706 0.003718604073485945 0.06131743242504295 0.0004152799853924929 0.005870496705966313
0.026470341333419353 -0.1260495464151283 0.22122490550621715 0.08900783335827155 -0.5234469733849767 0.0688146397632642 0.09237529024012649 0.054222938188366515
0.00721448044567677 -0.03419827111186204 0.03583249751185776 -0.012408179740672803 0.002302153944631061 0.005849931876375377 0.0036481520905425136 -0.059714634775978985
0.0395626706386241 0.014454929592775369 0.07009646562486027 0.01714214849834232 0.01624523086592004 0.010086983146246715 -0.04732124172828141 0.004889573340555829
0.03380100476856244 -0.028438048716428483 0.005021162206426423 0.025399415716260376 0.11854813907227636 -0.01580762645699035 0.03635187592467943 0.021376464034936125
0.024694339034531894 0.030147487749104116 0.09347580310674651 -0.027614686781343517 0.004926322833274136 0.015636386728556717 -0.2798004965251847 0.21649553693011112
0.020212983545512233 -0.484830925140518 0.04866257335356767 0.06601107929449357 0.047044670468933895 0.040583822551795413 0.018123553713457776 -0.02621003791925003
-0.0740291784825478 -0.08121252709031472 -0.049329859485576714 0.024916546834686935 -0.019258772499174584 -0.0010135550162534888 0.0006511092854729933 0.02430266298872534
0.06326304579973589 0.03258591665872859 -0.04115729412642962 0.043966023759976346 -0.04933288793679115 0.05907326905677416 -0.025796275073147183 0.03861667263621499
-0.0030398551632384815 0.07926512935602378 -0.05117086202718812 0.0287234321706325 0.02413054754667938 -0.03463805407678697 0.006813049358940747 0.042834310859956023
-0.06261152975084631 0.03480247778986663 0.013697955592306183 -0.28187977849651935 0.22616069003163744 0.03968004231776014 -0.2559296450710834 0.030837412754158598
-0.08394256250872119 -0.04940296197361582 0.011897953861285943 0.019734931104922124 -0.012958000733085584 0.021494234274571585 -0.04516816770609821 0.008627741528343513
-0.023094188312758036 0.042992085900687045 -0.014665007970000067 0.0277869861563775 0.0020796949453673326 0.04989975761191106 -0.022220992597418884 0.03546100626974866
-0.002387325590630986 -0.027907563069901935 0.006439916383092883 0.09059691837411435 -0.030417988647065262 0.011765988750181857 0.04216329919181343 -0.016608891532575398
0.026148424244362055 0.06182643845493731 0.004742524385889502 0.06245551152328304 0.023293999813536265 -0.008249627458919264 0.06960946433627972 0.04419204375169314

arr_0 f8 [2, 2, 4, 4]
00000000: 72aa 12a3 8597 e73f b639 d67d 15c5 b0bf
00000010: 93bc e993 27bc f0bf 7c8b 2706 7d34 e53f
00000020: a0a5 a026 4479 d0bf e0c6 ac62 6943 aa3f
00000030: f0b5 b264 1ba5 c7bf 5c7b bfb7 fd50 c13f
00000040: 41b1 1048 65a7 c7bf 1d04 3d75 b12a c9bf
00000050: 52a9 3567 85cd b7bf 3f6f 5bb6 6735 81bf
00000060: 7248 33b8 eb67 0040 1d22 332b ac10 edbf
00000070: d615 1c70 5481 87bf d76a 2c56 c520 d9bf
00000080: ec05 28ac 2215 ec3f 9ba2 7892 08f9 b93f
00000090: 0bb8 e000 56a7 f1bf cee8 d81c 7cc9 e73f
000000a0: 3b41 0f97 4288 d1bf 1c3e 5d2b 0099 a73f
000000b0: d84c 0c8f 4554 c0bf 3486 b869 4c59 c03f
000000c0: be38 e58c 19fa ccbf 44d2 309f 96b2 c8bf
000000d0: fb26 8e30 1abe a43f ff7c 2094 997c 9bbf
000000e0: 2411 674f 7511 0140 6a03 56b5 4466 eabf
000000f0: 55bd 0d62 fd8b bc3f ed0c e3fa 6d2f d7bf
00000100: 2cd9 689c b266 fc3f da5b a408 d70a e2bf
00000110: 3e23 4e64 cce3 dbbf 2343 9cda b3a2 52bf
00000120: 1b78 c405 4130 dfbf 89f1 c857 94f7 cfbf
00000130: c032 e0bc bd97 c1bf 02d4 05b0 f36f e53f
00000140: 629e d762 3ef6 cabf eb24 2687 1bb7 b1bf
00000150: 55fe d4e6 d315 cdbf 6f99 c233 ebe1 d3bf
00000160: f6ee ec31 0e11 a0bf 950e e39f dc9d d4bf
00000170: 33c5 5d00 e99e f23f ed44 32c0 7303 d4bf
00000180: b32a 3947 ad1f 0040 302a 27a4 c06d d7bf
00000190: 0e82 e5cb b9fb cdbf 2851 cdfe e851 833f
000001a0: 680a 6acc 233d dfbf 4a76 a3f8 450e cdbf
000001b0: 3bd8 c4c8 d806 b1bf 5f0b 298e 0ddd e33f
000001c0: 2f03 2130 73f9 b2bf 1fe6 6bec 9f99 ba3f
000001d0: 5c3a b61c 57f6 b2bf 54eb 4368 6df2 c7bf
000001e0: 41c0 b5eb 551a c83f f860 a91b 11eb c8bf
000001f0: 7352 550b 5b45 f53f be93 070e 1426 d4bf
0.7372463402765119 -0.06550726244152014 -1.0459361818173292 0.662657272358373 -0.257401502344317 0.051295560164715814 -0.18472616593264446 0.13528415176457542
-0.1847960092430956 -0.19661539291885868 -0.09297975320592869 -0.008402643444632594 2.050742568078072 -0.9082852214569958 -0.011477145835224894 -0.3926251737154138
0.8775800096920512 0.10145619941671173 -1.1033535036363016 0.7433453143524049 -0.27394165756142613 0.04608917741154192 -0.12757176861541697 0.12772517358921365
-0.22638244037302074 -0.19295008442863282 0.040512865473898395 -0.02684249846072095 2.1335245326355494 -0.8249839345663592 0.11151107448471483 -0.3622698736255206
1.7750726804493508 -0.5638232392110425 -0.43577871127540735 -0.0011374241243553094 -0.4873201900790051 -0.2497430256497746 -0.13744327280473634 0.669916003984895
-0.2106397612217164 -0.06920024919067529 -0.2272286297902492 -0.3106639867277385 -0.0313801227516403 -0.3221351205249701 1.1637964262302603 -0.31271070260215944
2.0154672207184716 -0.36607376127782043 -0.23424456077465589 0.009433574939671077 -0.4881066795570974 -0.22699808731606402 -0.06651072408280438 0.6207340027398053
-0.0741188042166072 0.10390662691124718 -0.07407135439846385 -0.1870857962711293 0.18830369958186746 -0.19467367029825033 1.3294325297075857 -0.31482411737516347

arr_3 f8 [36]
00000000: de75 ffd9 cf7c bcbf 85da 57f6 5a4d e8bf
00000010: f525 4b73 3ea9 bcbf d5c8 7609 1e60 cf3f
00000020: 36a5 7187 6551 dc3f 8fd7 196b cf1c cc3f
00000030: be57 5206 e18d c9bf 5ba7 e10c 4f36 eabf
00000040: ec95 e728 e180 c5bf 643b 088c e6a0 f7bf
00000050: 363f ee5b cae6 d4bf 7c5e 248d 9d6e d33f
00000060: 4362 af82 49dd f33f 6b49 5603 60b5 fe3f
00000070: f444 ffd0 64fd f33f 13ab 4003 3abd d43f
00000080: 16f8 3aff 9f96 d8bf 2569 9e2c 8e73 f8bf
00000090: 1c8a 3dee fd4f f7bf 40d6 6c43 b6f6 d5bf
000000a0: 318c 6f7d 4b5c d33f 0826 0d65 286e f33f
000000b0: cb56 aa67 3cbf fe3f 75ac 4ec3 e0af f33f
000000c0: 8d68 8218 1c5c d23f e662 105d 4a94 d8bf
000000d0: dcba 57e8 9bfa f8bf acdd 90df 7909 bcbf
000000e0: 8179 536e da7c e7bf 793f 7145 d11a c1bf
000000f0: d6bc ea4d e257 ce3f aa8e 2f0f d31f dc3f
00000100: de33 1e59 d74f ca3f 2ff5 25a2 c2f4 c5bf
00000110: 440a 117f 428c eabf afa1 ff6c b547 c6bf
-0.11127947876180808 -0.759442788256664 -0.11195745768340955 0.24512076818570586 0.4424680540747262 0.21962921838320112 -0.19964230354952223 -0.8191294910040868
-0.16799559113785223 -1.4767823667532065 -0.32658633210757004 0.3036264303532119 1.2415251831900072 1.919281018290884 1.2493637241316806 0.32404947583806737
-0.38419341969336196 -1.5282117598458822 -1.4570292764916593 -0.34318310341345537 0.30250823258956233 1.2143939921683131 1.9216884660176443 1.2304389599983356
0.28687193292137964 -0.38405093277246605 -1.5611838413130306 -0.10951959331656863 -0.7339908747488125 -0.13363090410939174 0.23705700687921788 0.43944241030679143
0.2055615601679212 -0.17153199117084614 -0.8296215516823584 -0.17406337568469385

arr_1 f8 [2]
00000000: 8335 15e9 07cc bebf bc56 a20d e14c 81bf
-0.1203007644700929 -0.00844741652353364
