results/params_14.npz (npz, 392302 bytes, 4 tensors)

arr_2 f8 [1344, 36]
0	0xbfc97c2506bcf0d3	-0.19910109356886227
1	0x3f88b2965413f7fc	0.012059378090722099
2	0xbf76f4d87b3c89b3	-0.005604596739234346
3	0xbfb0ddc36b38143c	-0.06588384025242616
4	0x3facbf8075cedab4	0.05614854276739348
5	0xbf9c4403a38fe19b	-0.027603203638109624
6	0xbf9adca4cee29b25	-0.026232314231175686
7	0x3f906c16f0d5be26	0.016037329148671862
8	0x3f9d4a6b2b263bbb	0.028604197033526662
9	0x3fa17714e8962b95	0.03411164607231069
10	0xbf84921c67744f13	-0.010044309527564665
11	0xbf7ac4e8af3dee3d	-0.006535443233470381
12	0xbf9bc2cc7f6a2204	-0.027110286022919552
13	0xbf99f8ba1c40e9ac	-0.02536288068243102
14	0xbf56e9ea7f24e66f	-0.001398543358460815
15	0xbf4532ee834387f2	-0.000646940671256367
16	0x3faec4a487a74fb3	0.06009401470114941
17	0x3f976488fa63afb7	0.02284444835906615
18	0x3f9c4d5e77470e4b	0.02763888934147322
19	0x3fa1e59707826f07	0.034954757372558425
20	0xbf7395a1846ee598	-0.00478137104703915
21	0xbfa532c8bf06a2ad	-0.04140307742938396
22	0xbf277f954f11adbb	-0.0001792783510013838
23	0xbfa237360120a6df	-0.035577476155891345
24	0xbf945752beece2bd	-0.019864361670644416
25	0x3f6f86ba2ca08e67	0.003848422643402394
26	0x3f8fc3f41a045311	0.015510470432255315
27	0x3f9f4ac48a2730e7	0.030558653766818458
28	0x3f93e605dd3973e0	0.019432155253856
29	0xbfac8fffc8dcdfc0	-0.055786126393683855
30	0x3f594d2fa5ebc5b7	0.0015442815126188566
31	0xbf45ad1b91e10b3d	-0.0006615051859245391
32	0xbf9ceb2cb505a4f9	-0.028240870045384423
33	0x3fb2b4170f9bf4d6	0.073060456572381
34	0x3f885c7975049294	0.011895131000138982
35	0xbf7b2e919e105cfc	-0.006636208360780712
36	0x3f975d99b346ab90	0.022817994658605623
37	0xbfc9924470a147c4	-0.19977622508537085
38	0x3f8fe7e9bd401d7c	0.015579057777371778
39	0xbf96056383d4df20	-0.02150493137489129
40	0x3fb2402b4b978151	0.07129164309981674
41	0x3fa66895c11a6bc3	0.043766670057457734
42	0x3fa02a52842d76f4	0.031572893748245706
43	0xbfb0b8c1548ea2c9	-0.0653191405714423
44	0xbf589d50f1b1d4bc	-0.0015023508520049375
45	0x3fa427267fdb5c65	0.03936119375946915
46	0x3faa32ca2cca8676	0.05116874501005679
47	0x3fa70be51576fe1f	0.04501262557050389
48	0x3fa8d5187860a8b7	0.04850079030468762
49	0xbf936a9ed42ef810	-0.018961412144328504
50	0xbfba158d10856ae3	-0.10189134267185866
51	0x3fa1bc4165c00ec3	0.03463940016811542
52	0x3fb1268a1b7c3722	0.0669943158247546
53	0xbf8d01f0a7580f04	-0.01416385660832687
54	0x3f95b94ec0e3fbd0	0.02121470501242212
55	0x3fb6960551953f5d	0.08822663537762084
56	0xbf86ceff48b3d245	-0.011137003332330706
57	0xbfad22c14988d856	-0.05690578482283175
58	0x3fa492d1d18493a3	0.040182644678032696
59	0x3fa39abc6ba13085	0.038289917124161334
60	0xbfb2c295f4d99530	-0.07328164317876396
61	0xbfa2e383df18c058	-0.03689205263469891
62	0xbf7f97fe77bc3be8	-0.00771331216289093
63	0xbf8609eae2097edf	-0.0107611036521002
64	0x3f9f4dbbeb871aad	0.030569969416115828
65	0xbf81163d216d7a8e	-0.008343198378210983
66	0xbfa3338486343ac9	-0.037502423651053336
67	0x3fadf835317178ce	0.05853430012278836
68	0x3fa581d884363866	0.042006269587646014
69	0xbfa63a9e981812c5	-0.04341598135582595
70	0x3fafd979f5ad079c	0.06220608829472882
71	0xbfb102f6be53b29f	-0.06645147463468469
72	0xbfc0c76e0bc2f9e6	-0.13108611654565933
73	0x3facc33a4a2c9b5a	0.056176969103310895
74	0xbfcf4b4c51d47b90	-0.24448541637044885
75	0xbf9b8c5e1c42b80b	-0.026902647471324353
76	0xbfae5f5278d1d9b8	-0.0593210003361721
77	0xbf8c6d3532644da1	-0.01388017234834288
78	0x3f89eee113861491	0.012662657173459631
79	0xbf995e8a05a0c507	-0.02477470073080659
80	0x3f96c8122e5f50aa	0.022247585373251035
81	0xbfb015fdd448c1c5	-0.06283556397170915
82	0x3f9f4fabb35101bb	0.03057735712013863
83	0x3fb9a1306f35a9cf	0.10011580195501966
84	0x3fad031805f995ff	0.0566642291349062
85	0xbfb9e71dc735ea19	-0.10118280519046897
86	0x3f9cb9f411ffbefe	0.02805310592515208
87	0x3f8a03465e1b3f41	0.01270155882539792
88	0x3fa6b644a3c56659	0.044359345428074355
89	0x3fb3a00077389dab	0.07666018400833845
90	0xbfa307441d2b48b6	-0.03716481071536874
91	0x3fb617f7c3d41a27	0.08630322009057832
92	0x3fa03013ad5db8fe	0.03161679736409616
93	0x3fb173eed0843db1	0.0681752451966904
94	0xbfaa4154dbaa4a40	-0.05127968961200624
95	0xbfb7618347534caa	-0.0913316773542642
96	0x3f85dbe471d73e80	0.010673317646165303
97	0x3f8b51d91f4a8666	0.0133397066759386
98	0x3fb359ffcdc6cd0b	0.07559202932207058
99	0xbf9a7f6219906f01	-0.025876553354563295
100	0x3fb276f3dae15c1f	0.07212757200009932
101	0x3fb2542a470f7605	0.07159675822136798
102	0x3f99762af74e164d	0.02486483702116109
103	0xbfa9fbb49bf30f4e	-0.05074848560027921
104	0x3fb4b81ac605ae7f	0.08093421301389901
105	0x3f98c05028e28d1b	0.024171116347713722
106	0xbf804b13aa162aab	-0.007955697658663516
107	0x3f931c8a2327af1d	0.018663557429973488
108	0xbfb98b87c04c25a1	-0.09978531307947104
109	0xbfb41d3a946e16d5	-0.07857099651127027
110	0x3fb92a5328b27346	0.0983020758016667
111	0xbfd92dcf7bc96ea2	-0.39342104996260663
112	0xbfa3786eb7839847	-0.03802820196305894
113	0xbf8cbc497bc62984	-0.014031004037651902
114	0x3fad0a7be4fc4750	0.05672061128838257
115	0x3fa190e43151b675	0.03430855848351381
116	0xbfb2d3d091946355	-0.07354453615370223
117	0xbfad42ec06ae7619	-0.05715119916497375
118	0xbf670ae8e8da0044	-0.0028128193869747815
119	0x3fa0b66d96ccfd62	0.03264181581334459
120	0x3f937e86f8b231ae	0.01903735058708527
121	0xbfac7657bcf26614	-0.05559038335304592
122	0x3f8d9d74f071d478	0.014460481250561083
123	0x3fa9c5fa50682265	0.05033857566383374
124	0x3fab07c24bb53e6a	0.05279357122583124
125	0xbf8a0eae5972be50	-0.012723314385168966
126	0xbfb3ceca88c3a1f0	-0.07737413252801395
127	0xbf8cfd912c6c1317	-0.014155515831143313
128	0x3fa97b2b49749b7a	0.04976783057855179
129	0xbf960a0cb8708a2b	-0.021522711522388754
130	0xbfb2b1a85ac3bacc	-0.0730233403771578
131	0x3fa888e614d744fa	0.047919454616598814
132	0xbfa13d6561f2d30c	-0.03367153950367738
133	0x3fb1bc54ff8d6d5b	0.06927996863435253
134	0xbfb87e23c9f18a1a	-0.09567474060308037
135	0x3fc274ff52ce2afc	0.14419547599057825
136	0x3f8a40e23b9474e8	0.01281906837771847
137	0xbfae330af0da920e	-0.05898317518338923
138	0x3fa40cc54bdac863	0.039159932622525394
139	0x3f9437689378f733	0.019742616654404088
140	0xbf8774c5460bc6f0	-0.011453190994390877
141	0x3fc22f0adde2688b	0.14206062158774943
142	0xbf61634ff8e48667	-0.0021225511510614583
143	0xbf92f146cee3e6c2	-0.01849852216489612
144	0xbfae302cfbcfdbde	-0.0589613015544541
145	0x3f9b67eff7fa67af	0.02676367713011246
146	0xbfc062652ac7db91	-0.1280027827158077
147	0x3fb5e52a018bc131	0.08552801645032983
148	0xbfd70449f326a569	-0.35963677163325386
149	0xbfbb8cb4e38dc4ee	-0.10761576228630407
150	0xbfb0b1ffed816a0e	-0.06521606014704437
151	0x3f9b000957507b8d	0.026367326692816873
152	0x3fb6b8a99eebfce4	0.08875522737433844
153	0x3fae6c82c48f601d	0.05942162179388808
154	0xbf8bec79b93279ee	-0.013634634937543102
155	0x3fa027ecdbc95e23	0.031554605321329164
156	0x3f627d2bebf37d0d	0.0022569520802872057
157	0x3fbe7fecc4fce9e6	0.11913947877193429
158	0xbf8ee7681c1bf8b6	-0.015089810712649015
159	0x3f9251060fdb72b1	0.017887205808494403
160	0xbfa81830848b822b	-0.0470595514104882
161	0x3fb38823c5c5a337	0.07629607752245425
162	0x3f91eead4ad3b132	0.01751204270560542
163	0x3fa3c7622c3d109a	0.03863055028935598
164	0x3fb5a2a2412d20f4	0.08451284495561479
165	0x3fa629c4eff90157	0.043287424367465625
166	0x3fba39cfa3575a50	0.10244462716887281
167	0x3f7985434e154c08	0.00623060503979201
168	0xbf67a8a0617359b6	-0.002888024562348347
169	0xbfa62c1d60a25522	-0.043305318876415436
170	0xbfa8b9fdcf57e38a	-0.048294002113784165
171	0xbf9214925b64f62f	-0.017656599834699967
172	0x3fad649e9c2b4510	0.05740829140052928
173	0x3fa720451747904c	0.04516807469534054
174	0x3fa87bb212cc0d36	0.04781872252899648
175	0xbf844ff56b0b62c2	-0.009918134049642705
176	0xbf91387fc3d3f588	-0.016817089393034418
177	0x3f6cc4b7413a4baf	0.0035117701716642284
178	0x3fb389a780a07ee2	0.07631918802553231
179	0xbf9911482d67c4c7	-0.024479987880060585
180	0xbf93b8c68d87ceaf	-0.01925955046495059
181	0xbfaf3143bb971b1c	-0.06092273392601141
182	0xbfb12bca8a9cdf0b	-0.06707445034123453
183	0xbfb8f4445c946641	-0.09747721920248244
184	0x3fc136b8eee2633e	0.1344824949672105
185	0xbfd2a3bcdc670ef0	-0.2912437584275116
186	0xbfac5f65daf127bc	-0.05541532800323476
187	0xbfa5b80ee5f76d95	-0.04241987759788938
188	0x3fab326c3ec05d97	0.053119070682608065
189	0xbf3de8da3fe4915c	-0.00045638397559090937
190	0x3fb385c14f12db90	0.07625969105252595
191	0x3f99714fcd85e4c6	0.024846312445764317
192	0xbf99bb70ba29f330	-0.02512909065488883
193	0xbf448beb713e8e08	-0.0006270312901403572
194	0x3faa29c32ded85ee	0.05109987197534936
195	0x3fa8fcb8663390f4	0.048803102947006766
196	0x3f96ae8d4897825c	0.022150237613347876
197	0x3f9a1581b92ea012	0.02547266667139076
198	0xbfbc45a5b680e4f9	-0.11043773370410638
199	0x3f5959d0acfba476	0.0015472925041939679
200	0x3f901165efbde542	0.01569136882560441
201	0x3fc4d905805925be	0.16287297026637576
202	0x3f99ec36bf9202f7	0.025315146868254392
203	0x3fa19cf3b6617d01	0.03440057374313633
204	0x3fb44a0391edae8d	0.07925436318117303
205	0xbfaa1d588a8538ef	-0.05100514117167331
206	0x3f91cf189b5bc084	0.01739157150490246
207	0xbf974b93b788dc93	-0.022749240948738047
208	0x3f9205b7ab6c2761	0.017599935376927948
209	0x3fc4f385bed4985b	0.16368171518223815
210	0xbf9b2e71ab1b5a8b	-0.02654435736516318
211	0x3faf061b4bb6b273	0.06059346484412211
212	0x3fa734b3740e62c7	0.045323951642051656
213	0xbf82a61b51189ec3	-0.009105885898932247
214	0x3f987decb5e58c5d	0.023917864420024738
215	0x3fbbecd16a3866c4	0.10908230632085308
216	0xbfc1d9eb2cdf9726	-0.1394628495319747
217	0x3faeefc0c9f0fe5a	0.06042292084793806
218	0xbfb22aa09426fd0a	-0.0709629403781841
219	0x3f90afbade1ed7f7	0.01629535656658018
220	0xbfc465ab2fc04ffa	-0.15935268241503292
221	0x3fc5c35af29a0a91	0.17002426954066555
222	0xbfc2b0793ef0a8c2	-0.146010547382792
223	0xbfc6c2af8528ed7d	-0.17781633378931963
224	0xbfc7d2169740ed4e	-0.18609888444357597
225	0x3fbc70c4557cd974	0.11109568678953058
226	0x3fb905f764cd8139	0.09774728976254189
227	0x3fbb69bfba1577ac	0.10708235066473887
228	0x3fb5a572b483431d	0.08455578715371499
229	0xbfb4e23b0a1b542c	-0.08157700535532858
230	0x3fc2c30f4e73bcd6	0.1465777524058242
231	0x3fb8922805256ae0	0.09598016858710023
232	0x3fb779817bc15e7d	0.09169778128977586
233	0x3f78978fafdf9731	0.006003915097584842
234	0xbf910e88d6b63550	-0.01665700731750991
235	0x3fa2a6557f504740	0.03642527751084268
236	0x3faaf0995ed83e12	0.052616875484201256
237	0x3f9f698aea4d7683	0.030676050711341062
238	0x3f84320cd60b22cb	0.009861088068093512
239	0x3fb8f01a94e0951e	0.097413693758956
240	0x3fb72299124660f4	0.0903716725937363
241	0x3fbaa469ea0ae851	0.10407125438624233
242	0xbf7b6f2a904d59cd	-0.006697813286186305
243	0xbfae312224c40ec8	-0.058968607891100755
244	0xbf8732850cc9a3cc	-0.011326827481029776
245	0x3fb2731a8064ad40	0.07206884035683903
246	0x3fbbd68ca9095ff7	0.10874251486654872
247	0x3f641c0b78670c61	0.002454779055570053
248	0x3fc1a23e3865c163	0.13776376489432626
249	0x3fb4eeef4da7e8de	0.0817708553876488
250	0xbf8dc2c877acb7a9	-0.014531675483876532
251	0xbfa6f46065e4d84a	-0.044833195150588326
252	0xbfa106d86571067c	-0.033255350478168716
253	0xbfb12ab5f9b85793	-0.06705796572381777
254	0x3fa4b39f8dede2a0	0.04043291671309146
255	0xbfbcca10534baf9e	-0.11245824845872085

arr_0 f8 [16, 2, 4, 4]
0	0xbfe6cad2140f746f	-0.7122583762935742
1	0xbfc8845f0b2c2811	-0.1915396503976017
2	0xbfae2b883f709c6e	-0.05892587446606333
3	0xbfd2846682378776	-0.2893310805940169
4	0xbfe8ff9232fa5afb	-0.7811976428664303
5	0xbfc478a5998673e0	-0.15993185039852076
6	0x3fa90c819c349dec	0.048923540418680606
7	0xbfa2f30b52648eb0	-0.0370105302884246
8	0xbff88e8466cbf6db	-1.534794236707447
9	0xbfa3f846041c49de	-0.039003551484842566
10	0x3ff77b86582f8da3	1.4676574177509358
11	0xbfc981a6a3311883	-0.1992691323122849
12	0xbfea1e17ced4511a	-0.8161734618793475
13	0xbfd4409a12f256d1	-0.3164429841066126
14	0xbfe862ecc9ad4a28	-0.7620757998468592
15	0xbfda41d790f688ac	-0.4102686801580926
16	0x3fefb2c4a77f6542	0.9905722876966723
17	0xbfe82f4844331e13	-0.7557717639946894
18	0x3fbe02d38fb765d7	0.11723062761975399
19	0xbf9a11cdb04d0291	-0.025458539853618737
20	0x3fe4dbe0a8f348e2	0.6518405246554517
21	0xbfecf26610374036	-0.9045896832194618
22	0xbfc3282e3fb3c91d	-0.14966371641600854
23	0x3fc03659a752932e	0.1266586367611579
24	0x3fb30ece031b36e8	0.07444465232694208
25	0xbfd3ea1afd317d59	-0.3111636612502103
26	0x3ff38340073c3e47	1.219543483984937
27	0x3fa784fa05654178	0.04593640628684431
28	0x3fdbe6aa63252c7d	0.4359537094321196
29	0x3fd9adb3dd1f7953	0.40122696489369963
30	0x3fd337d1257615b4	0.3002817979653074
31	0x3fdaa66b51df8f29	0.4164074229758961
32	0x3fea9e68819a4ac2	0.8318369418432996
33	0x3feb9906159dbdb6	0.8624296590987146
34	0x3fa7ee5de45029a9	0.046740469093566724
35	0xbfb2fb17b1d0fa32	-0.07414386836260503
36	0xbfec29850b91d9be	-0.8800683237048401
37	0xbfd7f5c00ac5f4db	-0.3743743996818247
38	0x3fa8d984a5220723	0.048534531743838615
39	0x3fac6486390e2b64	0.055454439606441835
40	0xbf306509cb79daed	-0.00025016297465844836
41	0x3f9dd2b8eb3db17a	0.029124154432268658
42	0xbf821f7da680e902	-0.00884912647608305
43	0xbfd6de6cbfd9daeb	-0.35732573256920713
44	0x3fecfc64af866ce8	0.905809729406795
45	0xbfc3c9ccaba3b85b	-0.1545959318240787
46	0x3fefdde2a6bd0723	0.9958356148347075
47	0xbf6bd366095401ba	-0.0033967011355573147
48	0x3fed6f24cc81868b	0.9198173517472282
49	0x3ff29215cbb70c2a	1.160665317308267
50	0xbfdd3adbdc959c35	-0.45671745816656834
51	0xbfe6085cc2802c90	-0.6885207938043028
52	0xbff3fb4e058357cd	-1.248853704009423
53	0xbfc53920f8cfd02f	-0.16580593251239992
54	0x3fe224d77baa4cd5	0.5669972815834635
55	0xbfd2b8b6a70ec5ff	-0.29252401651601184
56	0x3fa023801424e028	0.0315208458509349
57	0x3fadaae265b5f71e	0.05794436923586786
58	0xbfd18c7d31669007	-0.27419977020531444
59	0xbfc3061ab0d0433b	-0.14862378724549238
60	0x3ff30263690b5000	1.188083086327424
61	0xbfd817d37306106a	-0.37645422203809764
62	0x3ff3537f4a3f7ae7	1.2078850651084225
63	0x3fa42462d4a4a885	0.03934010358564514
64	0xbfe010bcfef315c3	-0.5020432452662863
65	0x3fdd0764fea52878	0.4535763251084357
66	0xbfa5cbf6ff25dd33	-0.04257175316427677
67	0xbfc540404701e43d	-0.16602328745992337
68	0xbfe2231b8686ce99	-0.5667855861160717
69	0xbf955bd7011df1b9	-0.020858153765844743
70	0xbfdc258d557adb72	-0.4397919974102741
71	0xbfdfcad372569a7b	-0.4967545143685254
72	0x3fe163dc5f921d62	0.5434400431267188
73	0x3fe6600988e90b8a	0.6992232965497902
74	0x3fe9311218d2b602	0.7872400746179553
75	0x3fd6ca0114b8bf40	0.3560793592796365
76	0xbfabcdc0c3ef12d7	-0.05430414573451053
77	0xbfa9991e684f93ed	-0.04999632857633416
78	0x3fd53ec2d8774ded	0.3319556344915487
79	0xbfd9e3f12aa72c77	-0.40453747907003595
80	0xbfd34ba351adb5f1	-0.301491575016228
81	0x3fdef65d8dc50c24	0.4837869533986938
82	0xbfcb79fd98ece105	-0.21466035811477738
83	0x3fd1004d66305204	0.2656434534012819
84	0x3fbbe11b9b32e157	0.1089036229994965
85	0x3facc2e9e545cdbc	0.056174573171030556
86	0x3fa374eb71af061d	0.03800140154590912
87	0x3fc8a0eedec2e9d8	0.19241128804226437
88	0xbffbcae87ca1f307	-1.7370381229840761
89	0xbffe1339b88297fd	-1.8796937186648386
90	0xbffa2a43069827d2	-1.6353178269950956
91	0xbffaabcbc5e88853	-1.6669423800272127
92	0x3fcc78fa3a72aabb	0.22244193891432026
93	0xbfc86749ff9be6fe	-0.19065213185222513
94	0x3fcec255261d1766	0.24030556069390768
95	0xbf4dcbebdf00958d	-0.0009093190874451138
96	0x3fe1eec5dea9b821	0.5603970860372592
97	0xbfd5c125d90d4b4e	-0.3399138087890393
98	0x3fc5a66f579c33b9	0.169141690996552
99	0xbfe03497dfc02e34	-0.506420075429054
100	0xbfa206593a01fdbf	-0.03520468552687416
101	0xbfd481cba1f072a6	-0.3204220849454863
102	0xbf97882fda65f752	-0.022980449395155596
103	0xbfd222bddbf91881	-0.283370461289799
104	0xbfbe55361e300cd3	-0.11848772274975099
105	0xbf960ea194fd30d3	-0.02154018852097368
106	0x3fa117c9e7e287f8	0.03338461833597245
107	0x3fd617c2e7518153	0.34520027723012453
108	0x3ff9b868303ce96d	1.6075212368292242
109	0xbfb71c301b49dd9b	-0.09027386347030701
110	0xbfc2eddfe4910fa2	-0.14788435612183287
111	0xbfe02cba2c2f77ee	-0.505459867763191
112	0x3fee0bf76bd274bf	0.9389607530498764
113	0xbfe956572cd245ce	-0.7917896151940853
114	0x3fd49c7f70441713	0.3220518680903847
115	0xbf822119b424ced8	-0.008852196512271801
116	0xbf9d79e37ef6fed6	-0.028785280823057167
117	0xbff27190a6767253	-1.1527258398483766
118	0x3fd83edfa9d5283f	0.3788375051996162
119	0x3fc53a6c403ef4a0	0.16584542405135938
120	0xbfb8be77a33e33ca	-0.09665630088257085
121	0xbfe6dcb69bb699d1	-0.7144425431513871
122	0x3f9c0f96ac8757b8	0.027403215675654485
123	0x3fdabbe8cb4140da	0.41771907662497443
124	0x3ff7a8b4601078b6	1.478687644244514
125	0xbfd01c216e8d50d0	-0.251716955147697
126	0x3fc58dfefd7d4f45	0.1683958757154135
127	0xbfc8a5ca754288a7	-0.19255953527050915
128	0xbfd453a25365b080	-0.3176046194482822
129	0x3fe7632f3b261983	0.7308574824572108
130	0xbfc8985a729f5831	-0.19214945408629228
131	0xbfd06becb295029b	-0.2565871948209321
132	0xbfd9e0cfd8c299d9	-0.40434642951950434
133	0xbfd2a7dc5afcf4fe	-0.29149540792043627
134	0xbfbaf0b2a80a5259	-0.10523525812670566
135	0x3fc8a85bda9e7ae2	0.19263790297278321
136	0x3ffdb9e4d44528d1	1.8578842441370862
137	0xbfd733b7b99587b8	-0.3625315964073894
138	0xbfc44a23ee1f4481	-0.15851258399064608
139	0xbfd03a07e6fc49a5	-0.2535419231145631
140	0xbfbdd14f1e6056e1	-0.11647505275353921
141	0xbfc790406cad8c28	-0.18408971125163132
142	0xbfbbc843d0594c4e	-0.10852454983368995
143	0x3fc549dd216463e3	0.16631664400554688
144	0xbfd44479ae87019b	-0.3166794018143492
145	0x3fe1707cbf4f761d	0.5449813591509983
146	0xbfd34dc06bab25d7	-0.3016205836725851
147	0x3fc14ef580049f7d	0.1352221369827439
148	0xbfd56b5522b86590	-0.33467605963377256
149	0xbfaa37dec6c04c2d	-0.05120750595246935
150	0x3fa62f9abdac163c	0.04333194318136832
151	0x3fd4204f40f13601	0.31447202054991413
152	0x3ffb528c77907931	1.7076534910662071
153	0xbfce8a53b2efba43	-0.2385964034760538
154	0x3fca28378f9f9608	0.20435232651577473
155	0xbfd750ca0f24b16d	-0.36430598715630574
156	0xbfbe717185d10b66	-0.11891850964552261
157	0xbfd0b95fd03e19eb	-0.26131434761228317
158	0xbfd6b206e3acbe3a	-0.3546159003626347
159	0x3fd9a707f9480512	0.4008197721851313
160	0xbfa98c19f6022c19	-0.04989701393159169
161	0x3ff630c682a21e3f	1.3869080641615168
162	0xbfb337ab6bdde025	-0.07506820090736761
163	0xbfdd78d32dcc6225	-0.4604995677232487
164	0xbfaf3a3993e4fb98	-0.060991095832370223
165	0xbf863bf2f0445c3c	-0.010856531102531368
166	0xbfc60bb6eeaf8cc2	-0.1722325005967829
167	0x3faa6548f7fa3781	0.05155399348323809
168	0x3f837467fde93371	0.009499370990988716
169	0xbfcfeeb67ee80bcb	-0.24947243877985978
170	0xbfb8ff263a51888d	-0.0976432697657705
171	0x3fd00fb9462f8989	0.2509597001464035
172	0x3ff7b442c048248f	1.4815089713104361
173	0xbfe2d10376039b08	-0.5880143456423363
174	0xbfa083660a892ed3	-0.03225249174701408
175	0x3f81379a3bf63279	0.008406834559331987
176	0xbfc6f4f6ba6953da	-0.17935070135231862
177	0x3ff30c17be379955	1.1904523306235053
178	0x3fbf8995404f087e	0.12319310016667548
179	0xbfe2c73dee57950c	-0.5868215232009404
180	0xbfa52096e2b365ed	-0.04126426236480172
181	0x3f7b3ad92eb07f31	0.006647919052767113
182	0xbf5c94e644f571cb	-0.0017444847797697279
183	0x3fb37801e4ec7cd0	0.0760499175926157
184	0xbfb09b1510501f42	-0.06486636780038871
185	0xbfd23b1fe7643dc0	-0.2848586806948923
186	0xbfc60a4b224d1cb4	-0.1721891324507162
187	0x3f7b575a8cb08133	0.006675103863955467
188	0x3ff5c91d5e253a1c	1.3616002728991878
189	0xbfdf95422cd7d3a8	-0.49348501567083725
190	0x3fb8c10dd4b582db	0.09669577067462447
191	0xbfa050bea28e5759	-0.03186603292776508
192	0xbf9d68cf9a737a03	-0.028720134546228248
193	0xbfce06c99f6c6db8	-0.23458214077332484
194	0x3ff9de9670540bb2	1.616842688353
195	0xbfaa5aa498c2f208	-0.05147280087246392
196	0xbfab71260d8ff157	-0.05359763064913874
197	0x3f9a34ba389cb773	0.025591764169056796
198	0x3fb82357c7fb7cba	0.09428928978330733
199	0xbfdcdda11807c4b7	-0.4510271773024885
200	0x3fd1395528747987	0.26912430716210917
201	0xbfbc2431733cf564	-0.1099272638648095
202	0x3fb3baf284db21b6	0.07707134002260471
203	0x3fe636aef4d85113	0.6941752225998549
204	0xbf8369d6ddd8f39e	-0.00947921623730413
205	0xbfd2d7752859316c	-0.2944004911448903
206	0xbf516a4e0c66f4c0	-0.0010629427139144249
207	0xbfc8b2df7eaa2ddf	-0.19295877156069616
208	0xbfe1c0c93e0229de	-0.5547834597685399
209	0x3fc11fafb59ef810	0.1337794911214023
210	0x3ff5d0255bd5be7b	1.3633168780615097
211	0xbfd55399a8cd236d	-0.33322755321983416
212	0xbfe4217f758832c7	-0.6290890975520477
213	0x3fd0b4100b5db3ca	0.26099015340770093
214	0x3f96389b08744e2e	0.021700308218966118
215	0xbfe14b3237b3abf2	-0.5404292190481768
216	0xbff342543cfa0906	-1.2036936170484878
217	0xbfe596a119680daa	-0.6746373649806874
218	0xbfd97ae7190b3f89	-0.3981263870782575
219	0x3fb49666ead82184	0.08041995271208263
220	0xbfe8255383f4a309	-0.7545564248331128
221	0x3fe2f200dddb850b	0.592041428866794
222	0xbfbf59140deba4a3	-0.12245297756057254
223	0xbfdee9689c980f21	-0.482996132777986
224	0xbfe2d8ace1f3e813	-0.5889496243610232
225	0x3f62c6e717b74484	0.002292109825909496
226	0x3ff7e1b56128ec04	1.492604617624921
227	0xbf80a91214f005e6	-0.008134976638760127
228	0xbff102daea45924d	-1.0631970549813048
229	0x3fb51503b3f9a279	0.08235190528797344
230	0x3fadcbe038fe2577	0.058196074444888994
231	0x3fc4e8b2d6ee2fb3	0.16335139746331392
232	0xbfe72c4d8b4bfecd	-0.7241580696717961
233	0x3fddcff3bcd31815	0.46581738891507146
234	0xbfa15d1d9c6f89c6	-0.03391354117026739
235	0xbff858c6b1bb972f	-1.5216738646208332
236	0xbff21e3b1aa100a8	-1.1323805847351114
237	0x3fe5ea0d29df711c	0.6848207300022611
238	0x3fcb12471b857394	0.21149529308140969
239	0xbfe4a76449883bca	-0.6454335628676457
240	0xbfe1d9c7f86cd261	-0.5578346111347622
241	0x3fbc26c400ae4ed5	0.10996651665328312
242	0x3feedcea204b3a11	0.9644671087970115
243	0xbfc5345e1720668c	-0.16566063050486368
244	0xbfa956956362c2fa	-0.049488705045751716
245	0xbfd8e4e452224ccf	-0.38897045155426907
246	0xbfc3efb76551ef91	-0.15575306365269317
247	0xbfb261ef8cb89b14	-0.0718068808133519
248	0x3fd69af775f31aa5	0.3532084133006868
249	0x3fa701df7a6ee7a4	0.044936164565526654
250	0xbfe3bb048c614cee	-0.6165793172644081
251	0xbfec0e0c67236341	-0.8767148985308283
252	0xbf9a00a237f65e22	-0.025393042245552284
253	0x3fadd1b9411a2e7d	0.0582406894655749
254	0x3f9c4fb4aa265eca	0.027647803197026012
255	0xbf94d6cf9e5ccc4e	-0.020350688973121138

arr_3 f8 [36]
0	0xbfb699be1c0dbaf3	-0.08828342614081545
1	0xbfd56494fb4908c0	-0.33426403560237006
2	0xbfd105d86e1da0bb	-0.26598177674760465
3	0x3fc9b7a3fd1145d1	0.20091676575479636
4	0x3fd331d5600ac5d2	0.2999165952597568
5	0x3fc937553404850f	0.19700112380909515
6	0xbfd78e43ffbff79a	-0.3680582044179289
7	0xbfdc831f48daf125	-0.44550306429643377
8	0xbfba62d187f8ab65	-0.10307035035718355
9	0xbfddd79487d3e9f4	-0.4662829710429428
10	0xbfd589c42c238826	-0.33653358755521123
11	0x3fa3d4d440513806	0.03873313222048584
12	0x3fe17e7a99a2ff72	0.5466893196789739
13	0x3ff5c82f65a06a68	1.3613733262815462
14	0x3fe19889ff4e919c	0.54987048973685
15	0xbf649941e7930fcf	-0.0025144850920657334
16	0xbfd7bc0e59521c96	-0.37085303042153706
17	0xbfdb8c888e3d84e8	-0.4304524792733688
18	0xbfdb9502078d0db9	-0.43096972215081625
19	0xbfd8dc606a6bc905	-0.38845072167090705
20	0x3fa0f26c575b0ca6	0.03309954229691785
21	0x3fe204221a904f11	0.5630045431921379
22	0x3ff63789f20dda8f	1.3885592894781984
23	0x3fe1ba7007b19e10	0.5540084982175717
24	0x3fa8cdc995b6283d	0.048445033574424624
25	0xbfd73690099d1a35	-0.3627052396663289
26	0xbfdcb3feec4622e4	-0.44848607133512375
27	0xbfbc47a72c8ea567	-0.11046833837339919
28	0xbfdbc07262023f81	-0.4336210209958083
29	0xbfd5609c9014615e	-0.33402170248293384
30	0x3fc4b26c7655c13c	0.1616950586135405
31	0x3fcde06b8fcaef3a	0.23341125985268169
32	0x3fc33cd4a8e288c8	0.15029390570004453
33	0xbfd00b704f0a32b4	-0.2506981632111931
34	0xbfd445aa98ace1f5	-0.316752099129672
35	0xbfa3fe051de6737c	-0.039047393703390804

arr_1 f8 [16]
0	0xbfdac0bbfc701546	-0.41801356937533674
1	0xbfec099bc57023c5	-0.8761729103290398
2	0xbfa96fbc0c0d6a7c	-0.04968059203266237
3	0xbfc2d5d83733c7d7	-0.14715101905272718
4	0xbfa7df082cdd51c9	-0.046623473621966456
5	0xbf850afc32eeb88e	-0.010274858764969499
6	0xbf65b3a4a1ac3e96	-0.0026491370639474916
7	0xbf5579bf18a3c968	-0.0013107649015720816
8	0x3fd7c3992abdc6aa	0.37131337331730185
9	0xbfee1925b22a81c2	-0.9405697326474682
10	0xbfed1710e0511aef	-0.9090656644046627
11	0xbfe2be02da5648f0	-0.5856947197337643
12	0xbff095698437ce52	-1.0364775814786253
13	0xbfddd524047dbf77	-0.4661340755328562
14	0xbf9ed447559dfcbd	-0.030106653786330585
15	0xbfe4081c673c7be4	-0.6259901062329587
