results/params_17.npz (npz, 783598 bytes, 4 tensors)

arr_2 f8 [2688, 36]
0	0x3fa479f36bb7594e	0.0399929112424383
1	0x3f99f3b750cc9c16	0.025343765551181084
2	0x3f9da9c41a216c28	0.028967918486483196
3	0xbfa8c95b1eb63d93	-0.04841122388745158
4	0x3f81ef927c342818	0.008757728972813836
5	0x3f9d65bb269facca	0.02870838568916837
6	0xbfb13ce645cc08a9	-0.06733550266293044
7	0x3f95bc0efdbf78c8	0.021225198972268072
8	0x3f88d5e2e8b4c3b9	0.012126705862643182
9	0xbf8294718bfb68f1	-0.009072196087278135
10	0x3f660961298eaed8	0.00269001938837286
11	0xbf9212c5dac1fc2d	-0.017649737812913614
12	0xbf78400b25563ff0	-0.0059204516777668775
13	0x3f7dd1784779b0d0	0.007279844132068017
14	0x3fab0e4877b6d62f	0.052843346227217196
15	0xbf44ef6b0f9233f5	-0.0006388924367840542
16	0x3fa10f837ca60f42	0.03332148453321661
17	0x3f9d61cc49068b7a	0.02869338222229654
18	0x3faf44912976072a	0.061069999991572324
19	0xbf8509a32f4de666	-0.010272288209068847
20	0x3fa50fff8976c957	0.04113768151309454
21	0xbf9a504bc7c7b37c	-0.025696929997070836
22	0xbf8df922136e3849	-0.014635339944813934
23	0xbfabe8541c094aec	-0.05450690119018539
24	0x3fa1abaf77d46840	0.03451298082127652
25	0xbfab68eb4261d6f8	-0.0535348433049147
26	0x3fac773042ca7014	0.055596836236162656
27	0x3f83655fd45c8b43	0.00947069994760386
28	0xbf65942e2664a2de	-0.0026341344229375693
29	0xbf6b2a4ef8ddf1e0	-0.003316072695211711
30	0xbf92edd07a0dcb70	-0.018485314797952623
31	0x3f92655686536b3d	0.01796469874248462
32	0x3f8b687b731164d0	0.01338287777814387
33	0xbf8864c9272b6596	-0.011910983569964267
34	0xbf9256795f6342b9	-0.017907997557645248
35	0x3f97e5158614c830	0.023334823902765034
36	0xbf991f96dfad9f19	-0.02453456630919879
37	0x3f9c51699a37b439	0.02765431407708638
38	0x3fb8f0e71eb38aac	0.09742588519615464
39	0x3fab7422939edc88	0.053620415229880314
40	0xbf824e533b704af5	-0.00893845582144113
41	0xbfa94fdd8fa62551	-0.0494374502041618
42	0x3f605ab6872f5560	0.001996380329255018
43	0x3fb01afdb6fd48ce	0.06291185109629113
44	0xbfb7f394c0bdcd8b	-0.09356050210572257
45	0xbfa1bed1f358b268	-0.03465896697557441
46	0x3f86e299c2745c12	0.011174393889218624
47	0xbf9d6fc45b8ef71d	-0.028746669853482055
48	0xbf59fc2c59832007	-0.0015860016920203905
49	0xbf86de2a577db977	-0.011165934367195913
50	0x3fb16d455ddfba93	0.06807359258503203
51	0x3f84eb77e3af11f2	0.010214745174274651
52	0x3f75971bff0c4514	0.005271062241051245
53	0x3f99d18cb3b33db2	0.02521343085100875
54	0x3fa1520e4625b5c3	0.03382916075029698
55	0xbf938ad7ffeee94e	-0.01908433436958861
56	0x3f9929a6ffaf0110	0.024572953563393674
57	0xbfb4c446e7027542	-0.08111994876749853
58	0xbf948764dff69a5c	-0.020047737283358166
59	0xbf91a49135bd6065	-0.017229336648000877
60	0xbfa055692282b02c	-0.031901631796558
61	0x3f5a0be52fa5c1f5	0.0015897501130802659
62	0xbf8e904229f82a9f	-0.014923588662914709
63	0xbf58c77517a64b09	-0.0015123980980191207
64	0xbf757e1141b3d5ff	-0.00524718037489924
65	0xbf782c0512afd3bf	-0.005901355568302457
66	0x3fa13c930aa61ed3	0.033665270852962025
67	0x3f85334bdde0c240	0.010351746281316854
68	0x3f9caff794ad96e5	0.028015011262502738
69	0x3f85011ffec8d585	0.010256051981836442
70	0xbf99ed60a258c300	-0.02531958571325088
71	0xbfa0ad55449a3022	-0.03257242643766768
72	0x3fb99ef477fb8750	0.10008171014081069
73	0x3fc146ff5f80bad4	0.13497917330956588
74	0x3fbb8044f600ed88	0.10742598539302695
75	0x3fb87f519ab50874	0.095692730207732
76	0xbf7013f4099fdc0a	-0.003925278922898743
77	0xbfa186e4528e8a09	-0.03423226840756761
78	0xbf9243e8103d58cd	-0.017837167731465087
79	0xbfaf048d91b9ddf4	-0.06058161167032586
80	0x3f8cdf080fc9456c	0.014097273809201304
81	0xbfb1fc4559bf76ef	-0.07025559846030281
82	0x3f6e6eb3d3c8bad0	0.003714896416816195
83	0x3f9d3b9d58501537	0.028547724261462206
84	0x3fab578885214eac	0.05340220093844769
85	0xbfb4ded707f9e194	-0.08152526802758181
86	0x3faabf6cf6d2f6a4	0.052241711740390856
87	0xbf81a15af748143c	-0.008608542128977097
88	0xbfa5f76d571afdb3	-0.0429033440427661
89	0xbfb23dab3dfe0cf4	-0.07125349296079603
90	0x3f7c701579432977	0.0069428290191332264
91	0x3f943f5007e1141f	0.019772768479260457
92	0x3fabe0c1f8a1e21d	0.05444914016783662
93	0xbfa579466c4be182	-0.04194088050820978
94	0xbfaa62f5b7fd7836	-0.051536253652316
95	0x3f9c3b350aade7e8	0.027569607521833378
96	0x3fa50fcf4e63a075	0.04113624412440312
97	0xbfa15b6fc3340ef2	-0.03390073068478995
98	0x3fa33b25a21e70c8	0.03756063083639699
99	0x3f561af34110d12a	0.0013491988686498793
100	0x3f7ef8a7404e8a3f	0.007561353039735651
101	0xbfa50bfc5f6f842f	-0.041107069635252784
102	0x3fa963a41a4973a7	0.049588325699665696
103	0x3facbba004d5b5a2	0.0561189657117709
104	0xbf6707c8053e6322	-0.002811327614790208
105	0xbf9f3dfd53641e64	-0.030509908880985384
106	0xbfa8358071157f80	-0.04728318577212942
107	0xbfa6bd0c234d62db	-0.044411067304002315
108	0x3fc7019e77e3135e	0.17973690847261542
109	0x3fca8ebcbe8543e0	0.207480996158238
110	0x3fbed29b1a67bf6e	0.12040109057101997
111	0x3fb4ef6f86f19798	0.08177849812054061
112	0x3fb4e7661e15fd82	0.08165586695212393
113	0x3f953d988fb8f415	0.020742782375453645
114	0xbfbc5a41df37952b	-0.1107522172893211
115	0x3fb106c30715017c	0.06650942728902537
116	0xbf6667ad3559163f	-0.0027349837280634943
117	0x3fa1a2b0373b37ae	0.034444338552574436
118	0x3f62d6a2ebc062a9	0.002299612240687605
119	0xbf67ab86cacc7e4a	-0.002889407411558219
120	0xbf708a0b77f8013c	-0.0040378997796327
121	0xbf8d7f70b7fcb4da	-0.014403229346124414
122	0xbfa701e0520aa851	-0.04493618966564895
123	0xbf9268f3e8a20a76	-0.017978488038816264
124	0xbfabab873038d385	-0.05404303039214312
125	0xbf9639fbde915816	-0.021705565890748423
126	0xbf952d4af7b1931d	-0.02068059098054952
127	0xbfa1df44c7765ff3	-0.034906529758870784
128	0x3fa3bc3788efa042	0.038545356241059384
129	0x3f80142cdccd6e3f	0.007850981224399976
130	0xbf8601b0fe0558c5	-0.010745413543798663
131	0xbfa3f6e7cfee6848	-0.038993114597545786
132	0xbfb59b43a0329a35	-0.08440039311481302
133	0x3f86c866e7b4565e	0.011124423929270207
134	0xbfb638e25b1c3559	-0.08680548405046319
135	0xbfadf256d4e96795	-0.0584895262624762
136	0xbf9a0c05fceab2ac	-0.025436490594688152
137	0xbfabd3749a63941a	-0.05434765228873335
138	0xbfa26c9995dad4c8	-0.03598480181009617
139	0x3fa199ea9bfbbbab	0.034377414265569804
140	0xbfb2901c43b1090a	-0.07251145031571951
141	0x3f937b8cfa14bf79	0.019025995982871777
142	0xbf74f4185412b8f7	-0.005115599663595419
143	0xbfab92115dbb0466	-0.05384878415271359
144	0xbf919694e7d9c380	-0.017175985957183837
145	0x3fbc00e4fc138abd	0.10938864855010429
146	0x3fbcbd48f8d66dac	0.11226326060425745
147	0x3fc0677b08669167	0.1281579772013501
148	0x3fbfe3e10889f7af	0.12457090815038784
149	0x3fb30dacd20ba03a	0.07442741516172272
150	0xbfa300991fd1ebb6	-0.0371139384596612
151	0xbf4cb13673c11069	-0.0008756175880155873
152	0x3f9e207b15a83fe6	0.029420779415943253
153	0xbfb174e52327e00f	-0.0681899271802424
154	0xbf873157b67adf8a	-0.011324582344385953
155	0x3f9fa4e1505a8329	0.030902405290024113
156	0xbfa74133160cc70a	-0.045419308129920635
157	0x3f7e9209acc59d2d	0.0074634912419704715
158	0xbf94711b4cd23402	-0.019962717593944752
159	0x3f5880344e2a0496	0.0014954100412583374
160	0xbf9ae5b082e19779	-0.026266820896487773
161	0x3f9931e50770106e	0.024604395464863087
162	0x3f8c3111f2dfead0	0.013765468811461373
163	0xbfb761663a77710d	-0.09132994582563843
164	0xbfa671749bbd95db	-0.04383434678201655
165	0xbfa33639aca5dba1	-0.037523081135922405
166	0xbf960e757d91c526	-0.02153953150668033
167	0x3f981597a722ad98	0.023519868446482656
168	0x3f96ddd5dc0d59d8	0.02233060985175847
169	0xbf902d610d32e751	-0.015798107557862654
170	0xbfa96be39ef6994d	-0.04965125384778677
171	0x3f94c2c1ffcdf63d	0.020274192083425503
172	0xbfb3bd50514d411d	-0.07710744843393909
173	0xbf94123a22f99afe	-0.01960078085394467
174	0x3f79edb1ae81242b	0.006330198353745191
175	0xbf944efbb15a7a3c	-0.019832546901506584
176	0x3f71de448b8ecad5	0.004362361673815503
177	0x3f92eef6ae1e048d	0.018489698769830688
178	0xbf9927bd9aa72064	-0.024565661014804965
179	0xbfb52fef1d884f48	-0.08276266547210043
180	0xbfaf1005c74ea0e5	-0.06066911752651708
181	0x3f8e126f28753076	0.014683597967312983
182	0x3fbd1eb2d2c05e40	0.11374967236803801
183	0x3fc07c68ea720c3a	0.12879668662580618
184	0x3fc2ea8d22306223	0.14778293771156922
185	0x3fbdb68e67a7882e	0.11606683760285882
186	0x3fb5028cd2e6978d	0.08207016133255092
187	0x3f8a2f87f05ade5f	0.01278597070937265
188	0xbfb5e41e76fe53b2	-0.08551206975091821
189	0xbfad39580d348324	-0.057078124629930366
190	0xbf9ebb40b33b58f4	-0.030011187495653638
191	0xbfb217c1c37f0c2c	-0.07067500136240373
192	0xbf8df0e8cce84201	-0.014619654420159557
193	0xbfaec7ec9db2ff1a	-0.06011905121840595
194	0xbfa8b4ef3513b978	-0.048255419949657374
195	0xbf966dddac87f7b7	-0.021903480201210104
196	0x3f943cd653e8324d	0.019763325568464208
197	0xbf9525aee9cc0fa6	-0.020651562709658976
198	0xbf84106efdbf16a0	-0.009796969526984
199	0x3f8a0a3462079b91	0.012714776269559443
200	0xbfa123c39aee3c04	-0.03347598329775539
201	0x3f42e143b910b661	0.0005761700323369639
202	0x3f802825930def01	0.007889073896641731
203	0x3f804df323edad5a	0.007961177381466445
204	0xbfa6a93b6531410c	-0.044259887793147795
205	0xbfa5ddba2eea70bd	-0.04270726988508631
206	0xbf9bbf94f5df12b6	-0.027098014361188937
207	0xbf8c213b900227ad	-0.01373526128033461
208	0x3f71aaf30b8e98e5	0.004313420672508371
209	0xbf851aa1f548e137	-0.01030470399665316
210	0xbf7f405681334dbc	-0.007629716786329007
211	0x3f930d7b0ed24465	0.01860611226999644
212	0x3f6a15fcf1c464bb	0.0031843128509874952
213	0x3f9505eaf0b5bd79	0.020530386869209025
214	0xbf7b1b408d044ca0	-0.006617786552186505
215	0x3f7be9cb1426a744	0.006814759517888739
216	0xbfb274ec54c79746	-0.07209660596671794
217	0x3f92c8e7da76ba49	0.018344519337626406
218	0xbf405d7778b934f5	-0.0004994233472161146
219	0x3fb4c36950d36028	0.0811067411735854
220	0x3fc2b5e9192d832e	0.14617646912940913
221	0x3fc1378bcfb2085d	0.13450763360384857
222	0x3fb886ec32ade3d0	0.09580875623022611
223	0x3fb9b1da661d83a9	0.10037007325219229
224	0xbfa68670b4620b6b	-0.043994447726638373
225	0x3fac6a8351ae83de	0.05550012943354664
226	0xbf9f3a291e130462	-0.030495302639569018
227	0x3f7b084f15759b0e	0.006599720879740157
228	0xbfbc93a668f0a068	-0.11162796079645576
229	0xbf86422f98760bd6	-0.010868427124256213
230	0xbfa87433e3e85fe0	-0.04776155621601652
231	0x3fa2a3061e923d4d	0.036400023681489736
232	0xbfb12e41c3547f7c	-0.06711207407761138
233	0xbf89180abe3adfef	-0.012252887659414539
234	0xbfb0042036f9e2df	-0.06256295530500776
235	0xbf9494856d157e48	-0.02009781339927333
236	0x3fa094677f3ed1b7	0.03238223484314367
237	0x3f7318da551cd085	0.0046623734104295255
238	0x3f961a8dadb887e7	0.021585668304517382
239	0xbf97374d11294616	-0.022671894237936106
240	0x3f844740b872c727	0.009901528958241436
241	0xbfabdf607c96ab34	-0.054438605507434096
242	0xbf8519c196b45e7c	-0.010303032313955678
243	0xbfa7dfc119012395	-0.046628984739590575
244	0x3f583f7b1fcde9d6	0.0014799787888636249
245	0xbfa3e3e4786fb866	-0.03884805650874128
246	0xbfa6c2b8929e5180	-0.04445435323501368
247	0xbfb019ace69d0076	-0.06289177541930421
248	0x3f94d8f76eb31452	0.020358911639750517
249	0xbfac849b90badbbc	-0.05569921628687477
250	0xbfb7bf7bed55704f	-0.09276556534081347
251	0x3f9fcd13b930e895	0.031055744341053588
252	0x3fa8199275944f4b	0.04707009969038597
253	0x3f65e6cc29d01421	0.0026735293927253744
254	0xbfb4e5663750fcab	-0.08162535524842222
255	0x3f78d6407ca356ed	0.006063701536012306

arr_0 f8 [32, 2, 4, 4]
0	0xbff1bb36918809c7	-1.1082063374347955
1	0xbfe938e3dcdd0f84	-0.7881945909252726
2	0xbfe9e62bc4b107fa	-0.8093470422393232
3	0xbfd61a2f09bf5583	-0.3453481288136901
4	0xbfd100b16cc0731c	-0.26566730137146677
5	0x3f8cf5367c50e29a	0.014139581364461851
6	0x3faaf79fb9ec9e0c	0.052670470662914054
7	0xbfc2891928895bdc	-0.1448089073116695
8	0x3fac5570bef17011	0.055339358623968
9	0x3fdf768a2f900c0f	0.49161009449761733
10	0x3fdf5d2f694063a9	0.490062573227585
11	0x3fce197b7bbaaca7	0.23515265981163688
12	0xbfd5e60ef87957db	-0.34216665520704986
13	0xbfd753c068cbac3d	-0.3644867919344426
14	0x3fd97bb2bb409a64	0.3981749371181762
15	0xbfc1f85d517b1934	-0.14039198378140727
16	0x3fe7d70f7423bf1b	0.7450024860718004
17	0x3fe70a994d287b11	0.7200438029284176
18	0x3fe566d0d45ab38f	0.6688007495446174
19	0x3fdceb942bd81497	0.45187858850142376
20	0x3fd65b0a56304f00	0.3493066636740281
21	0xbfe060cef7bdec43	-0.5118174399098127
22	0xbfdf3379cb2f5a30	-0.4875168308475706
23	0x3fc6fd482373c5d5	0.17960454684320717
24	0xbfa078469a9e2093	-0.032167631506184645
25	0xbfe02bed1c42a5a6	-0.5053620864829795
26	0xbfe28e3797d5fb5f	-0.5798604932350421
27	0xbfdc81f3e512da68	-0.4454316842124286
28	0x3fe31d29dd022f78	0.5973100010464654
29	0x3fbc985aec057814	0.11169975530853576
30	0xbfdc7817ec10de1f	-0.44482992223081114
31	0xbfd076aaab899d28	-0.25724283935274395
32	0xbfeb08f69b431232	-0.8448441536389224
33	0xbfa494e2743e88db	-0.04019839924809939
34	0x3fa595b8e9a5bc1e	0.04215791561261305
35	0x3feb26f5ebefebc9	0.8485059364460251
36	0xbfcd5ac3655252b0	-0.22933237502424708
37	0xbfe62c313393fb8f	-0.6928945548423701
38	0x3fc38272c0b00d5a	0.15241846474246296
39	0xbfc8c2fbef849bf0	-0.19345044322218952
40	0xbfd2ff506c193cb3	-0.29683313900472824
41	0x3fb20cde1251b9ac	0.07050884196517043
42	0xbfe333cb02f91895	-0.6000723894183176
43	0xbfcf6849c0618fc2	-0.2453701199875678
44	0x3fe1c5fcd23cc6b5	0.5554184061240536
45	0x3fe16d09210c5b11	0.5445600171541135
46	0x3fbdb9b4f96ce09c	0.11611491288647574
47	0xbfd99b8d266104bb	-0.4001191019816123
48	0x3fe615f30a9038ba	0.690179367667745
49	0xbfd5d4c72659e8f7	-0.3411119341395898
50	0xbfd640f81d7592ac	-0.3477154052436997
51	0xbfd9c8c72f92ffe4	-0.40287952085418355
52	0x3fd463e142a42ecc	0.3185961867136313
53	0x3fe425d5ed164638	0.6296186094861644
54	0xbfe3e0f5c96c9997	-0.6212109502856035
55	0xbfb2421c76e66c80	-0.07132127669176391
56	0x3fc6e734543b8956	0.17893079865377598
57	0xbfe415db1fea017a	-0.6276679633447622
58	0x3fe52d579e9a4a2d	0.6617849443158029
59	0xbfd72d8b3a084993	-0.36215477626060383
60	0xbff03fa178fc1a00	-1.0155348516433378
61	0xbfe2386a036f9da4	-0.5693864886388167
62	0xbfdbe5e731036a6a	-0.4359071711202548
63	0x3fe352acbfc2f809	0.6038421388000198
64	0xbfc206bda1b11976	-0.1408307113180844
65	0xbfe437162804a340	-0.6317244321445301
66	0xbfb6a74ff9866046	-0.08849048463741935
67	0x3fdff0d09d5b71ec	0.49907317511477234
68	0xbfc1cdfe47485e82	-0.13909891586876105
69	0xbfcf40862497c49c	-0.24415661608467054
70	0x3fa365a69cc2ebfb	0.037884909282602984
71	0xbfd08bf0d1f59163	-0.25854130271752335
72	0xbf5b9a04f8231562	-0.0016846703079392501
73	0xbfea3cb49fe6967f	-0.8199103472768029
74	0x3fc18ba7a5e2de99	0.13707442855751564
75	0x3fdc72da17fce4d1	0.4445100054031857
76	0x3fb2c894f34d670a	0.07337313594817033
77	0xbfe6f7c4421cd383	-0.717744950414826
78	0xbfbb46a65173b389	-0.10654677856991958
79	0xbfc2b3dbcc9a3583	-0.14611384859419382
80	0xbfe665496f4e5625	-0.6998641179986335
81	0x3feb29b5b3c6de01	0.8488415251985658
82	0xbfe13861ddf1dc67	-0.5381326041086937
83	0xbfe20655da19c491	-0.5632733592775755
84	0xbfdb4afe96b2cb33	-0.42645230023042585
85	0x3fe77fd42416efe3	0.7343540863871535
86	0xbfe4b3f3d40c7141	-0.6469668523382454
87	0xbfe47f7c46bcc300	-0.6405621892536999
88	0xbfe4e41478b5b1a1	-0.6528417928325788
89	0x3fe6af6055f9354b	0.7089082411927533
90	0xbfd49e9fbc7140a1	-0.3221816387422312
91	0xbfe19ea564332780	-0.5506159741428149
92	0xbfe3b1d5f16040d3	-0.6154584612250126
93	0x3fdee116ebb66a8a	0.4824883748894214
94	0x3fe23e92811ddc88	0.5701382180985926
95	0xbfc3a02a7ec32495	-0.1533253783184462
96	0xbfe30fb7925278fc	-0.5956685884337101
97	0x3fd7c9a0a151cd43	0.371681363619434
98	0xbfccdf3c6e1dabe0	-0.2255626237559616
99	0xbfd7cc153ece420e	-0.3718312371575231
100	0xbfe13d7e102b3aba	-0.5387564006612913
101	0x3f9607f2a4ef543f	0.02151469356234181
102	0x3fcaecbc388f97eb	0.21034958612216256
103	0xbfd4c806b2490f97	-0.3247086278026869
104	0xbfe25686581315f0	-0.573062107105839
105	0x3fd54d1e6b1ad0b3	0.3328319593376918
106	0x3fca3c4558eb67f5	0.20496432153487346
107	0x3fde00a9df7df321	0.4687905008830047
108	0xbfe2c19465926c74	-0.5861303314044464
109	0x3fbcdc9bfb494423	0.11274123082081693
110	0xbfd1e29d61d7dd51	-0.2794564681530192
111	0xbfe4e0b3aaea0686	-0.6524294222037532
112	0x3fe35c0ebb3055b6	0.6049874931365398
113	0xbfe8ddd72136b9b4	-0.7770801209169833
114	0x3fe12abf1b65962b	0.5364680800527756
115	0xbf9009e6af733f73	-0.015662769755010197
116	0x3fddb1e7bf028e3d	0.4639834752399315
117	0xbfe773b09e1e54f7	-0.7328723037959709
118	0xbfc6b80065bac0ac	-0.17749028174649106
119	0x3fda7de4456845ae	0.4139338186078828
120	0x3fe213c34beffefd	0.5649124606279369
121	0xbfec8d22ea9ddf40	-0.8922285635335143
122	0xbfe3a9393c75d165	-0.6144071751464649
123	0xbfed7b71e8b7c390	-0.92131896450711
124	0x3fe3dabd1c266472	0.6204515027813058
125	0xbff0bacee25439fa	-1.0456074563004436
126	0x3fe02fb3d110fac8	0.5058230479551975
127	0x3fcf979d18013949	0.2468143813334314
128	0x3fe4d2fd98bc7fb1	0.6507556899195973
129	0xbfa383e7ef7a614d	-0.03811573789897924
130	0xbfe1418f59e500f0	-0.5392529254677623
131	0xbfd13cd1731f7a22	-0.26933704607464126
132	0x3fda76f0ccd33e01	0.41350955965478425
133	0xbfd6ad135584e72a	-0.35431369163017
134	0xbfc77a8d26cee49d	-0.1834274711125418
135	0xbfbe484447fc7015	-0.11829020268891129
136	0xbfbcafff7fd9a83f	-0.11206051703780505
137	0xbfab3dc9d8d4299f	-0.053205783575396064
138	0xbfd4d8f7441212b0	-0.32574254653472234
139	0xbfb6b13425c8a013	-0.08864141390279227
140	0xbfc245d1d4a9bfde	-0.14275572666110653
141	0x3f9045eaa72712c7	0.01589171071261111
142	0xbfe6a07dbc27910c	-0.7070912051099483
143	0x3fba5f473f9de533	0.10301633170265205
144	0x3fd54d46adb53f0f	0.3328415581099628
145	0xbfe92610d43b8ea2	-0.7858966965836383
146	0x3fd5ba6c697affbc	0.3395033865053809
147	0xbfb47bbe6214c4e0	-0.08001317877348724
148	0x3fc773f5a32c8700	0.18322630374409954
149	0x3fb5fb6a1ebe8936	0.08586753130524447
150	0x3fc784a8704770cf	0.1837358997571585
151	0xbfee1426ccf9abcd	-0.9399599078582185
152	0xbfe70e1bd84d75b4	-0.7204722618732178
153	0x3fbc1029b276a01f	0.1096216259671796
154	0x3fc7731bd4ae339c	0.18320033917225664
155	0xbfbb65bf6e25356c	-0.1070212978276765
156	0xbfe32ba063e909eb	-0.5990755034802623
157	0x3fe76aa8ee366a39	0.7317700054730444
158	0x3faf99d9d938ae44	0.061720664755139626
159	0x3fc2250b8504533b	0.14175552363362862
160	0xbfe5ec3bd6827e80	-0.6850871266978658
161	0xbff0c904a958c274	-1.049076711187948
162	0xbfebc4e1c6b82f73	-0.86778343975446
163	0xbfe2bb89ebf98ed4	-0.5853929146655568
164	0x3fb90ac505babbe4	0.0978205813396325
165	0xbfa1d5ebd71592ad	-0.034835214620021794
166	0xbfab9fc5bd3f72e0	-0.05395334181932809
167	0x3f9f947449b2b5a0	0.030839745519804063
168	0x3fb09808e8e738a1	0.064819867001662
169	0x3fc425c95c1100bc	0.15740315432959118
170	0xbfb6bbd96fb3ec98	-0.0888038537704453
171	0x3fd968d81e32f5d8	0.39702418278815577
172	0x3f954244825d3b83	0.02076060338668696
173	0x3fcad323e871786b	0.20956848954932936
174	0x3ff3fd952cc6a95d	1.249409842401824
175	0xbfd27e903465e893	-0.28897481076240544
176	0x3feebd1189001b0d	0.9605796504773437
177	0x3feb85c66902739e	0.8600799609154028
178	0x3fed3c381727ab71	0.9136009647603328
179	0x3feb3228d99a110e	0.8498729944263077
180	0xbfd6e1d00dae7e87	-0.35753251396270297
181	0x3faaddc1e50ee21d	0.052473124705503894
182	0xbfd5415f91304e5c	-0.3321150701387745
183	0xbfd038d002f98735	-0.2534675625848764
184	0xbfd82eb648a744eb	-0.3778510770326437
185	0xbfe26e7c00cba78b	-0.5759868636643984
186	0xbfbd5b1fd136c72a	-0.11467169626010035
187	0xbfe55e5dc4256996	-0.6677693205813735
188	0xbfe736904e592171	-0.7254106073606136
189	0xbfd911fe6dc74dee	-0.39172325821456766
190	0xbfd7531d996b7877	-0.3644479749908735
191	0x3fe1a0b05da59036	0.5508653477704744
192	0xbfde35cac484cfec	-0.4720332068566211
193	0xbfddb5cba0f67fd1	-0.4642209121611787
194	0xbfddb9926094d4e5	-0.46445140296721227
195	0xbfdbb9a30aac9529	-0.43320537607572135
196	0xbfc7c392d1d5f68f	-0.1856559300030551
197	0xbfd74b58d6ab9cd7	-0.3639738174810651
198	0xbfd7f2b1c640442f	-0.37418789253667034
199	0xbfd67b3163e26c62	-0.3512690997537843
200	0xbfdd2397ef517359	-0.45529745455660514
201	0xbfdb8448c043de90	-0.429948985823537
202	0xbfdbdad19b88cb16	-0.43523063839818243
203	0xbfd275c52fbb6819	-0.28843812619527537
204	0xbfd687add496acd8	-0.35203119049647347
205	0xbfd9fb84c0eae821	-0.4059764751397115
206	0xbfde1b92de4d2b00	-0.4704329653656458
207	0x3fb2564fa5f5299f	0.07162950326634253
208	0xbfdd9785974a26e9	-0.46237315916424265
209	0xbfa7eb78fd0ba285	-0.04671838845189761
210	0xbfd2e9318bc64f82	-0.2954830040919135
211	0xbfd40cdd5af55f03	-0.31328519709266817
212	0x3fa609434f016930	0.04303942050383325
213	0x3fc05d35e433cd6b	0.12784455912297274
214	0x3fc0ec93f4f06906	0.13221978626172176
215	0xbfdbbb18a5493621	-0.4332944501992149
216	0xbfd9b0c72cbed6ae	-0.40141467446970125
217	0x3f9560ae6360117c	0.020876622023949562
218	0x3fcfaf20bf1bb890	0.2475319798608706
219	0xbfe327d0d5497b51	-0.5986103215944728
220	0xbfd91ad87c6f464c	-0.3922635283643998
221	0xbfd9354e6fe746a9	-0.39387856414860295
222	0xbfe04eed23fd4992	-0.5096345618169826
223	0x3fd49ee2799c9a6a	0.32219755054612753
224	0x3fa9c794a3a04f63	0.05035080430403018
225	0xbfb3cc0791bb8eff	-0.07733199413229029
226	0x3fbb2151feebd8ee	0.10597717736877474
227	0xbfc63ed5b9c2db4d	-0.17379256792420464
228	0xbfe294ed6f0d1e80	-0.58067962350556
229	0xbfef8619efbb56a5	-0.9851197893392124
230	0xbfeb89af2f1f2d77	-0.8605571670863544
231	0xbfe030ddb3fbb220	-0.5059650912567726
232	0x3faeda976928d944	0.06026147040067767
233	0xbfb1d4c85a3255ea	-0.06965305521074297
234	0x3fa13498db9d382b	0.03360440903507852
235	0xbfb99d156bf82ae1	-0.10005315671893868
236	0xbf8921248b6b3823	-0.012270246033406157
237	0xbfd1a240937b1a66	-0.2755280914538275
238	0xbfc0951229c6be0b	-0.12954928436145993
239	0xbfd0a7b9739ffb82	-0.26023708621499264
240	0xbfc503f059c70dd1	-0.16418270476979882
241	0xbfdacb60477f313b	-0.41866309148896946
242	0xbfe3b150b12ddb4d	-0.6153949223069987
243	0xbfdcb2ccb7fc7c82	-0.4484130665532079
244	0x3fee7f0db90dfe37	0.9530094732617219
245	0x3ff24dda7c4f5029	1.1440071922161315
246	0x3ff24bc7cf17d0da	1.1435010995456225
247	0x3ff119033ca43315	1.068606602554785
248	0xbfcd067144bf18cd	-0.22675910813103997
249	0xbfd03918be6cf2e0	-0.2534849032997908
250	0x3fa35ac4e67ddb27	0.03780188859575722
251	0xbfc664006dd0a51d	-0.1749268089491033
252	0xbfcb639bbdccbf0b	-0.21397730605666995
253	0xbfbe52a95c47d813	-0.11844881537385303
254	0xbfcf949f243686dd	-0.2467230727025286
255	0xbfaf9498bca0c5b3	-0.061680577302819194

arr_3 f8 [36]
0	0xbfc77e466a4177c2	-0.18354110897320025
1	0xbfca7fd162b7596e	-0.20702569313170777
2	0xbf9b2b2485d00456	-0.02653176371314133
3	0x3fbae7e46ee75b90	0.10510089595423566
4	0x3fafb9020f3eacd6	0.06195837436765721
5	0x3fb6ee22c2befa5c	0.08957116369763568
6	0xbf944e75dabbebf2	-0.019830552554576948
7	0xbfc5bf534945ad03	-0.16990128591292128
8	0xbfc576c2dd7bbb23	-0.16768680395713273
9	0xbfcc630f4bf7471a	-0.2217730637481104
10	0xbfb25eb0a273b388	-0.07175735441314945
11	0x3f9c32f7773a84ac	0.02753817239011329
12	0x3fca036b78be4f1d	0.20322936435388153
13	0x3fdf63796d72be6c	0.49044643104841756
14	0x3fcd3320c7d9ab00	0.22812280424417253
15	0x3fa65dff9a5526c4	0.04368590125029706
16	0xbfa83cd2ea9e8bda	-0.04733904947286023
17	0xbfcea7b43c4ba083	-0.2394929212962361
18	0xbfc75496055623a6	-0.18226886044092544
19	0xbf9e98871c5cced6	-0.02987872229205276
20	0x3fa8c981f815fd5a	0.04841238168136881
21	0x3fd0c1c058341d39	0.26182564366941424
22	0x3fdd8abeca77f56e	0.4615933396560966
23	0x3fccce91acef8fc8	0.22505398697023637
24	0x3fa0a1162e28141d	0.032478993543954206
25	0xbfb37eecfc1fcc09	-0.07615548282028341
26	0xbfc95d1c652fcc5e	-0.19815401974446706
27	0xbfc54be2184da84b	-0.16637827097594235
28	0xbfc6aebf67969723	-0.1772078758050891
29	0xbf81815ca718f8e4	-0.00854751954022643
30	0x3fbdb6f4078ea535	0.11607289490224988
31	0x3fb56a1e024f996a	0.08365047031802467
32	0x3fbbf7bb8516c9ae	0.1092488479542115
33	0xbf9bb0280dd24c79	-0.02703917106971374
34	0xbfc633417f8ffc09	-0.1734392044890856
35	0xbfc8d655653d03e3	-0.1940409416511378

arr_1 f8 [32]
0	0xbfe46a4591eba828	-0.637972626687092
1	0xbfe0bd8d4a1b045d	-0.5231386611341226
2	0xbfd481415e7ff8bd	-0.3203891203737717
3	0xbfdf081183328249	-0.4848674565528524
4	0xbfb19fe8990a6902	-0.06884626137108188
5	0xbff10fb6ccc07131	-1.0663364408602087
6	0x3fd2a5f415b07e7c	0.29137899511440657
7	0xbff395bf9e4465a5	-1.2240596945106088
8	0x3fd535ab7bb3a3c6	0.3314007480644786
9	0x3fd3868198138c7f	0.3050846085663536
10	0xbfdd1d0afb32cee4	-0.4548976376638463
11	0xbfed2a13f78f4f81	-0.9113864741470793
12	0x3f928b0efb2af6b8	0.018108591156070303
13	0xbfeafb8d2d19411d	-0.8432069664795879
14	0x3facf1eb74ee1032	0.05653320124022833
15	0xbfd89765fc14514e	-0.38424062363744305
16	0xbfe397566940ab2a	-0.6122238212313722
17	0xbfd168fb2b36bc96	-0.272032539559356
18	0xbfde5f2ed90b56e0	-0.4745595092366397
19	0x3f7888185bb31b50	0.0059891654484037354
20	0xbfba48d33469c767	-0.10267372159594644
21	0xbfe47cd0becbd6ed	-0.6402362562646126
22	0x3fb0bac94233b55e	0.06535013071307591
23	0xbfaf152d4a6ed9c8	-0.06070844205480658
24	0xbfc994221cab6127	-0.19983316802859827
25	0xbfa6563dd9c1dcdb	-0.04362672122163654
26	0xbfabcb95a2d06315	-0.05428760158992511
27	0xbfe227454b400211	-0.5672937841155222
28	0xbfd61728bceea21c	-0.34516352129370076
29	0xbfe76a56f1e99345	-0.7317309117175702
30	0xbfddf0b35e95b23c	-0.4678162025145729
31	0xbfeb9dbd85eb0b5b	-0.863005410727378
