results/params_18.npz (npz, 783598 bytes, 4 tensors)

arr_2 f8 [2688, 36]
00000000: c31d e108 1281 983f 901c 19e4 7b30 8b3f
00000010: ce16 0a64 ea96 743f b834 a3a6 d2be 9ebf
00000020: c62a 829c abcc 983f b89b e15b 40a4 97bf
00000030: a3bc 3a65 53bc a3bf 621f 0672 17ec 99bf
00000040: d270 ee48 1e00 90bf 289e b4a8 15b4 77bf
00000050: 3b4e 3dc8 e40d 9a3f 671a 2010 9c0d a1bf
00000060: a27f d9ca e3ac 803f c58c 04e0 dc23 a6bf
00000070: 3fb7 a05f e4cd 87bf 16bc 1670 bc9b 933f
00000080: b1c9 dcc7 225e a63f 5d40 6505 825b 79bf
00000090: f2db 9995 92e4 b03f 2941 e837 c1e1 783f
000000a0: a9ea cb07 b634 7f3f 0caf 34a1 2f04 a3bf
000000b0: 1971 445e cd85 853f d0f1 8763 a9e2 a2bf
000000c0: 096d c299 2275 b03f 9062 835f 3bd2 a43f
000000d0: 3d92 3ebb c650 8abf e4b1 861d ed1d 6a3f
000000e0: 7ec6 9199 412e a43f b07d 84ae 9f8b a9bf
000000f0: a353 67a2 bb06 9bbf 93b4 de91 74b8 7a3f
00000100: 13cf 56e9 bdd4 98bf d8d3 f3e2 bc70 a63f
00000110: 5de5 e17e fa04 a4bf 7476 7db3 fb51 9c3f
00000120: db58 7f99 6ee0 7dbf f179 4883 fa31 a13f
00000130: 7e44 712c 0436 99bf a54c c9d3 3550 86bf
00000140: efd5 48f5 9d81 92bf 86e9 d1da 5bc4 8b3f
00000150: 2893 8a69 3df2 a03f 3baf 285f 5648 adbf
00000160: b02d 7318 73c6 85bf f6a2 bf7b c2ba b13f
00000170: 531b a01f 7a43 90bf f208 82c8 d132 b33f
00000180: 1053 ec35 963c 7fbf 4bd9 99dc e167 91bf
00000190: 436c b68c e3b6 b6bf a50c 24b3 2e57 94bf
000001a0: d0f8 4deb 5ba1 523f e265 94f0 7ca6 b4bf
000001b0: bef1 9219 cc38 95bf bc7f 22d1 eb00 ab3f
000001c0: 759e 8045 f60e 623f 83f4 6c78 f0c5 a63f
000001d0: 0b88 e9a3 c6dd ab3f 8be0 9654 196c a23f
000001e0: 27c1 78bb 53a1 aabf 0864 c62a fb55 a9bf
000001f0: 1d76 b1bd 793b b2bf 0f65 de02 f44c 9f3f
00000200: 2c89 a3c3 8018 4d3f 6bf7 b683 1371 993f
00000210: 401a 3c2c 188f 973f d2f2 985c 3d39 b83f
00000220: 4bda b487 bd5a 913f 869c 934b 5daa 993f
00000230: 8671 3772 aa7c 95bf 259f ab60 e462 89bf
00000240: b853 fe33 fcd6 b2bf 5491 e4f2 085e b5bf
00000250: 209f ade1 afce 983f 0261 7ea0 cf00 953f
00000260: a25e e084 18dc 82bf 3d1a a983 e6d3 6abf
00000270: 5849 0245 6261 99bf a670 989b 6cb0 94bf
00000280: 30ce 91a3 91cb 8ebf 3380 2dda 9de6 afbf
00000290: 5f16 faee 8633 893f 2b1f bfc6 59fa a33f
000002a0: 80e5 cdc2 995c a63f 017e 526d 82ff adbf
000002b0: bc82 9598 c3a3 943f 120e 9626 ec2f adbf
000002c0: 0033 9642 801a a23f 6986 54a2 84d8 a83f
000002d0: 2eff 400c 43aa 93bf c258 6c42 cf4a 9c3f
000002e0: c587 7ff5 0e33 a7bf d05e 694f df77 833f
000002f0: 1bb7 f6a2 5651 9a3f 2429 57e9 0ddf babf
00000300: 3a12 5066 dd5c 913f 691c 8fdd df6b 80bf
00000310: c0a2 5306 8c99 9cbf 1cd1 1bca db4c 953f
00000320: baa2 4df1 0c47 ba3f e181 1aa0 f950 8f3f
00000330: 5773 dd72 5f48 a53f abf3 72ea 8395 51bf
00000340: d684 fce4 4621 a63f 10d1 d079 8da7 b0bf
00000350: 1a72 195f 1188 a63f fa5b dc6e 361f a13f
00000360: cd6b fdad 3bc5 a0bf 116f 393d 71dd c1bf
00000370: 0a18 24cf d7b5 8f3f 16dd 40d5 3c94 a33f
00000380: c8c4 c177 874e 973f b2b2 0cc9 8459 a03f
00000390: 63ac dbf7 6579 b53f 57c0 32ee ce40 a9bf
000003a0: 45e9 9a9b 8c2a a2bf 9c50 18e5 d82b 823f
000003b0: 1315 3140 a431 7c3f cfc3 f47b 9218 9e3f
000003c0: 948a 13db 625b b43f 19c3 3462 d69c ab3f
000003d0: 544c cfc9 7aaf 843f 788c cdb4 5621 72bf
000003e0: 3403 e0de bc84 a7bf c08b e1cc e3f9 88bf
000003f0: 316e 3bef 2dcb 993f c2be 9d68 b207 9a3f
00000400: f564 c2f2 63e3 b33f 3a19 c9dd 25d3 a8bf
00000410: 7e01 b27e acb7 aebf a895 cbec d1c3 a93f
00000420: eb56 87b1 d59a aebf f63b b7f5 a9f5 a63f
00000430: 3897 432c 66df 90bf d405 a150 0d81 ae3f
00000440: 4e19 fa9a 37d4 92bf 616c 0667 ded8 a33f
00000450: 270c e2c1 d164 9d3f 29ea 1e95 4e87 96bf
00000460: 9c89 0134 91e2 aabf cbf0 3726 2b70 bb3f
00000470: 0a6a 337a f5bc 96bf 141b 4e05 5171 75bf
00000480: 6246 36cb 5830 84bf a85f 7595 62ea 9b3f
00000490: e6c3 569c 849e bcbf 19b1 69e8 739f b9bf
000004a0: 3afd b1b0 378b a83f 11be 4dbe 8dce a8bf
000004b0: c491 0826 74ca 81bf 1c57 9665 35e7 c23f
000004c0: 0d79 ba1a abf8 af3f e5bf e5df eafa b13f
000004d0: a578 8d84 5825 babf 56aa c591 7e7e a0bf
000004e0: 71b4 eaf0 15f1 943f 1a28 32bb 8aca b03f
000004f0: 6bdb 6db1 53f9 65bf 9e59 32f2 7f2f 853f
00000500: f1ef 8493 29b7 92bf 6f89 0845 3455 3f3f
00000510: de32 d01e ac83 863f acf9 0732 b71b b4bf
00000520: cae9 bd01 2b47 9d3f 810b 658c fd85 973f
00000530: 0ab4 ccfc 66b8 b73f e057 60d4 8d06 923f
00000540: e2eb 311f 49c7 a23f 86e8 f4e9 bf3c 8d3f
00000550: d167 691f d720 923f 550b f852 3c20 8dbf
00000560: 281f 0935 9f19 9cbf bebf 7a34 e23e ac3f
00000570: a64d b403 2d47 8d3f b547 5b54 a419 a2bf
00000580: e16c db84 5cd7 6abf 5ace e3c8 fcdd a73f
00000590: 2d5c 674f b49f b23f 3146 3a1d 97fe 9d3f
000005a0: 0b30 eac0 6a8a 9dbf 57d2 0fe1 20df 9fbf
000005b0: 58ca 2277 1a94 a3bf 035e 96d0 2e1b 91bf
000005c0: bbbe 3641 62f9 bcbf f49d c6ae e5f8 7d3f
000005d0: a818 beac ef16 7c3f 0758 1835 6fad 83bf
000005e0: 6e49 9957 3857 a2bf 606c fea3 2ee7 a6bf
000005f0: d619 dede 7f0e ac3f 48a6 2e43 5501 b13f
00000600: 11b0 ff96 0e95 7bbf 656d 8130 a728 aa3f
00000610: e938 9d80 c953 bc3f 75e3 3b56 372d b83f
00000620: 9bcf 7c43 a2f3 adbf ac05 eade 5bc5 80bf
00000630: a1db 6a3c e9d6 77bf 291a fc4a 7696 77bf
00000640: 2997 379c 83a4 883f a993 55ad 23f1 b83f
00000650: 318b b65d 993c adbf 5225 12d8 9329 9a3f
00000660: a5ff c66b 9436 b3bf 9213 c219 8c0c 93bf
00000670: 7fb2 b763 5601 a1bf 7330 7882 14cb 603f
00000680: f571 3919 69ed ae3f 2841 fd4a f4fe b93f
00000690: 7438 1c68 c455 9cbf 101a 92a8 b968 943f
000006a0: 0d76 568b 1c15 a0bf 2a5d f968 e13c 963f
000006b0: 1aa6 b261 4e04 a13f a532 fd5c 3ca0 92bf
000006c0: e20f c00c a27f 9a3f af1b 07df dbdb b2bf
000006d0: f939 49ea 0bfa 6a3f 56d4 6990 02a9 86bf
000006e0: afe3 12f6 bd2c b4bf bd5a 238e 3fb6 a2bf
000006f0: a77b 41b2 7e5a a4bf 26cf 218d f6de 91bf
00000700: 66b8 e150 3dae b1bf ec9d fa32 72ed ab3f
00000710: 0953 6c42 f6c0 82bf e5a3 07ae 43dc 823f
00000720: 6e23 557e eef2 b63f 13cd b784 9a98 91bf
00000730: 844a 07a9 3473 b73f 09fc 01a1 5c8e b23f
00000740: c87d decb b671 b23f f1fa 520c d32c a13f
00000750: e0fa 027e 50f0 80bf 31b1 f330 e658 a63f
00000760: 0382 5893 68e5 a2bf fa5c e232 ac3b a7bf
00000770: 105b a58f 6dce 583f 91a2 d2ac d615 a93f
00000780: fbcc 00aa 937a 903f 903e 77fa 1d9b 733f
00000790: 424f c2ad d9e0 743f 2562 be09 253f a2bf
000007a0: d011 c60b a24e b4bf f00f f6c5 0fc5 533f
000007b0: 056b 94e0 7773 9abf cd96 1006 6381 813f
000007c0: 2559 ab4b 7d4b 6ebf db2e 79ee 7b1b 7a3f
000007d0: 1864 132c 487f 9d3f e0d7 68cf 0aa2 8cbf
000007e0: b3e3 1b20 e48b 9dbf 6a85 e132 c450 873f
000007f0: 6f33 8144 f42e a2bf 2354 852f c691 b5bf
0.023929864685013912 0.013276069544316621 0.005026736821155798 -0.030024806423899902 0.02421825545074332 -0.023087506874073432 -0.038546186549291116 -0.025314680418460418
-0.01562545128000254 -0.005786976438038084 0.025443625184676782 -0.033306958168442695 0.008142261150339728 -0.04324236139862018 -0.011623176735237826 0.019148773518903615
0.04368694963195042 -0.006190784354046822 0.0659877410160872 0.006074671515776489 0.007618628555742171 -0.037141312054101844 0.010509113730727425 -0.03688554134348332
0.06428734067815269 0.04066644230778593 -0.012849381055113013 0.003188098064319288 0.0394154071772279 -0.04989336972561931 -0.02639287165387184 0.006523566580580414
-0.024249045721901185 0.043828871444851536 -0.03910048292977806 0.0276564911176735 -0.007294113187489705 0.033584431195993754 -0.024620118343879664 -0.010895176435189955
-0.0180725747070109 0.013558118453364864 0.03309814370485348 -0.05719251548393208 -0.010632418807651728 0.06925597687917304 -0.01588240449930407 0.07499419350827788
-0.007626139412214142 -0.01699784192029456 -0.08872816262594178 -0.01986382454289228 0.001137103810122709 -0.0806654059746488 -0.020724476872361335 0.05274140289225168
0.002204400061618201 0.04447890729941497 0.054426391133134265 0.0359809795149327 -0.0520120779368674 -0.049484108897736745 -0.07122002488309716 0.030566990542500835
0.0008879307490839198 0.024845414079883648 0.023006799411655843 0.09462340841941888 0.016947709472527255 0.025063951242284797 -0.02098337480662018 -0.012395652961870571
-0.07359291333553031 -0.08346610956193007 0.024225948476128356 0.020510906382328116 -0.009208861880366574 -0.003274870131721812 -0.024785552465411115 -0.020204255101007228
-0.015036714367148013 -0.062306340106033885 0.012305311363216718 0.039019399176650836 0.04367523673040363 -0.05859000763416234 0.020155960262288927 -0.05700624438307157
0.03535843670679206 0.04852690202302485 -0.01920418512622673 0.027629126004364186 -0.045311419933355114 0.00950598202795963 0.02570090646411592 -0.10496603915013175
0.016955813760448836 -0.008018254231400417 -0.027929485212470295 0.020801004610761273 0.10264664546196914 0.015291166494820043 0.04156778599892757 -0.001073244880714012
0.04322263283962406 -0.06505665039077635 0.04400686536675753 0.03344125846177089 -0.03275476931477037 -0.13957038392515433 0.015483556755963707 0.03824033835592837
0.022760502514249464 0.03193297342509051 0.08388364125464558 -0.04932257325833749 -0.03548087501026712 0.00887269448416133 0.0068832794232254356 0.029390610519104684
0.07951944206755918 0.05393094967656093 0.010100325855012006 -0.004426325508435906 -0.04593458386080443 -0.012195377054188827 0.025189130522319473 0.02541998637701571
0.07768845249883667 -0.04848593075125725 -0.05999506994794766 0.050322113185568285 -0.05977504531953833 0.044843016857718895 -0.016477199985181573 0.05957833871117271
-0.018387669405023836 0.03876395232801922 0.028704907854727815 -0.022000530101403157 -0.05250982055510464 0.10718030627316748 -0.022205195983454863 -0.005235020148467457
-0.009857839299715457 0.027261295673582403 -0.11179379288547828 -0.10008930610792212 0.04793714553761182 -0.048450879555158484 -0.008686931048097153 0.14768092594447857
0.0624440641524747 0.07023494688269201 -0.10213235126636507 -0.03221507577366782 0.02045091898860502 0.06559054441655157 -0.0026823649054067886 0.010344504908329107
-0.018276834133970913 0.0004781010257223416 0.010993332567545474 -0.07854790660346705 0.028591796857179642 0.022972070402157655 0.09265750572076584 0.017603126609252118
0.03667667871282966 0.014276027037898108 0.01770340089056061 -0.014221640855799281 -0.02744148980335051 0.055167263895213633 0.014295913386866154 -0.03535188226454925
-0.0032765204440302485 0.04661550476330652 0.07274939478462335 0.029291497382081203 -0.028848331474861804 -0.031124604927713708 -0.03823931412025122 -0.016705256920969812
-0.11318029491553265 0.007317444990270417 0.0068578111930774135 -0.009608143623193411 -0.03582168645211224 -0.04473253013494438 0.05479812236358199 0.06642659082594904
-0.00673394869953016 0.051091408415880925 0.1106534899711026 0.09443994384117878 -0.05849940370390457 -0.008188932171153983 -0.005820189550539563 -0.005758726197888233
0.012032535748356903 0.09742949468416263 -0.05710295933683652 0.02554923063556675 -0.07505157119066881 -0.018602551529074036 -0.03321332900290929 0.002049961145308693
0.06040504868426303 0.10154654341500147 -0.027670925955185458 0.0199307450425526 -0.03141106797123081 0.021716615707501642 0.03323597853279754 -0.018189376044846956
0.025877506283009562 -0.07366728014959166 0.0032930596083027256 -0.011064548523089506 -0.07880770929013069 -0.036546693898050965 -0.03975292135213886 -0.01745209919358994
-0.06906493401194921 0.0545459449033919 -0.009157108213494707 0.009209183453053835 0.08964434227267556 -0.017183698988401618 0.0916016495387258 0.07248476916173287
0.07204763867638697 0.03354510808411771 -0.008270863385744176 0.04364699695165298 -0.03690649794248559 -0.045377141200498586 0.0015140600140363704 0.04899474010136829
0.01609259343258616 0.00478660307221869 0.005097246463396323 -0.03563800567571133 -0.07932484424060893 0.001206651118850207 -0.025831101495991344 0.008547567007620849
-0.0036981055430757187 0.006373867137493962 0.028805854501886413 -0.013980946020733798 -0.02885395475366055 0.011384518435252306 -0.035514481890095755 -0.08425558719802999

arr_0 f8 [32, 2, 4, 4]
00000000: 4739 8a1b f36f e7bf e83c 61f8 119a c4bf
00000010: 28e3 fdbf e70d c03f b923 f0f7 36fe d0bf
00000020: 478f 263f 8258 d4bf e3d3 dbbb 0027 e1bf
00000030: f829 eb33 c29d b6bf 9a79 b419 fd82 bfbf
00000040: 06c1 1a4d 8400 d5bf 6f45 0e7f 06d3 c1bf
00000050: 2b66 a499 cd69 eebf dfff 6c42 a4b0 d2bf
00000060: 0a14 d760 d688 c2bf 2128 44d8 ebab d43f
00000070: 767f 819f c17f cd3f 496f 90b6 5d70 e2bf
00000080: 1157 d81a cd0a f13f 0865 e2ab ca76 e2bf
00000090: 5362 8b39 baf4 c2bf 5d18 b20a e554 c5bf
000000a0: daa3 72e6 b98c d5bf 80ea d431 ee42 ed3f
000000b0: 526a aa05 2a09 dabf b134 f57c 3b53 d3bf
000000c0: bf8e 6a1b 5416 d53f ee06 154f 308e d83f
000000d0: 8f38 2767 eec5 f03f 2c05 0a7f 934d c43f
000000e0: e403 c2ca 0230 ddbf 8f25 bf66 89b2 e2bf
000000f0: 7050 5f9f 9ae2 e1bf 208a 11c9 1496 ea3f
00000100: caba a6a2 1197 d4bf 811f e752 1bed d2bf
00000110: fa2e 21b8 8376 dfbf b117 8764 05b4 d3bf
00000120: d790 43a9 dbfe d9bf 3f86 624b 8143 ddbf
00000130: 67dc 4b5c b087 e0bf c2fd 9938 eecb d53f
00000140: 1f8b dd94 334e d4bf c085 d3d7 850d d6bf
00000150: 4b96 5043 7ec0 ddbf a49e c971 0d94 d4bf
00000160: 5d9f 4bbc a1ed ddbf fbfd 932d 7bd7 d3bf
00000170: 1232 be8e 96ca ddbf f9e4 cdc7 793d e0bf
00000180: b76a d008 3028 d6bf 3d57 0081 85d7 cbbf
00000190: 1faa 2eb0 8b1b dcbf 956c 4c90 efdd c8bf
000001a0: 13c9 fe5c af68 d3bf 14c2 4986 d707 d2bf
000001b0: 7446 fa9b df7b cc3f 2338 6023 8f20 dcbf
000001c0: 8163 8600 8f5a cfbf 7cbd 5576 bbd3 a8bf
000001d0: 3137 7b90 7a09 c9bf e47f 52ba 5487 dabf
000001e0: 605f 7f9a 0abb e1bf ba26 2a10 068a c23f
000001f0: 9a19 7942 faa2 c03f e0ec ae1a 17fd e0bf
00000200: 0c66 1748 7752 e13f 1ff4 2e8a 2cc1 bbbf
00000210: b3f1 1470 1a4e ddbf baf9 b48f 0826 aabf
00000220: d6dd 2e7c 8592 d1bf 3a5c 6f59 2840 e33f
00000230: f0f4 13c5 7e1a d3bf 4351 a27e 5734 e1bf
00000240: 2c06 0213 dd2b d8bf becb 91ce dc9e d9bf
00000250: d8e1 be1d 2849 e23f c5af 87b0 5dd1 cebf
00000260: d066 337a 7259 d43f a860 2035 8a15 cdbf
00000270: 188f 1230 c11e d83f e1d4 b83e 1ab5 e93f
00000280: 524e e699 5faa f0bf b0a9 3746 5c82 c63f
00000290: 91c3 429c 2558 df3f 6f9f 8720 11ed cdbf
000002a0: 58ba 7859 9160 c4bf ea7f 2757 1b06 f3bf
000002b0: d6b6 e5d2 8c19 bbbf fb16 c6a4 6285 d73f
000002c0: 54b8 ca15 7b95 dc3f 1b0f c8c3 d362 be3f
000002d0: f42e 4f29 c3f3 f1bf bcb1 0618 96ae b3bf
000002e0: 35e0 5e26 220f dbbf 7378 2a20 4e7d a33f
000002f0: 258b b09a d843 d4bf d1da 5b03 c8d3 f1bf
00000300: d80e 023b 692e c2bf c86f 7fe7 488c e5bf
00000310: 4aa5 2305 87b1 e4bf a57b 067d 5d55 e5bf
00000320: 4dea 9672 3d8b c73f 86fd a2b9 fad0 d53f
00000330: 5f4c 4a93 a77d c8bf 99bd 6427 05be e8bf
00000340: fef1 833a 16ff c33f 1cc3 c482 62fb 973f
00000350: d069 088d ffc7 e9bf 2683 e2e7 427a cdbf
00000360: a62b 7380 b496 57bf 7845 e928 57db e2bf
00000370: 281a 95ac 507b d9bf ddb8 9e35 3db2 763f
00000380: d53f 2a85 bc1d e53f d835 793e ca82 cd3f
00000390: bacd fe4f 6c4e ec3f 25df f2e1 eb6b db3f
000003a0: 8949 e13b f65a e2bf ad4c 9bb3 b138 ebbf
000003b0: d4d9 418e 2daf e0bf aff9 4a9e ec7b e53f
000003c0: 2c97 ca5c d0c4 d3bf abf2 db80 a497 e2bf
000003d0: d115 f2fe aa4a eb3f 6d12 346b a02e e5bf
000003e0: 8a21 0562 09d2 d1bf 7052 9c7f 2d5b ee3f
000003f0: 3395 59e8 49d9 dd3f 08a3 3b0b 9f53 dbbf
00000400: b693 7dd4 316d e43f 494d 076a 0010 dcbf
00000410: fab7 1851 7eae c33f bca8 52a3 bcea cbbf
00000420: 47b4 a8eb 1578 d4bf c59c afba c24c b53f
00000430: 3d67 e97e eaf2 d53f 9ca4 1fc9 8f44 d0bf
00000440: 2941 e9a7 34f9 d3bf dd4b 9d24 16df dabf
00000450: ddf2 1451 7213 c83f 671c e2f2 6508 bdbf
00000460: 9348 e8f1 6f21 f0bf b3f7 224e d4d2 eebf
00000470: 2005 d215 a8e0 ecbf 75fa 7e90 f104 d3bf
00000480: d126 b7d6 f1a2 f13f d9d1 625f e678 e3bf
00000490: 6d74 ccea e38c a8bf 44e0 0917 8820 d9bf
000004a0: 199d 531b b992 e43f dc63 9691 7807 cabf
000004b0: a070 3165 c7c6 e0bf dcc0 fb27 0a27 e7bf
000004c0: 16e0 2bfc 60eb d13f 1e53 c277 efb4 c1bf
000004d0: 1e87 ce2d 9317 c1bf e106 40ff 1a9e debf
000004e0: 30d5 3ed5 e4f0 e53f ca99 ab28 c53d e93f
000004f0: c603 dd2a d7a9 ea3f 718d 8358 c5b9 e93f
00000500: 7a20 c2bb c2fe d43f d29c 4d05 01c8 e03f
00000510: 7354 89c4 fa68 c9bf 8fa9 292f 8e15 a9bf
00000520: 32ca cf53 420b b9bf 51db 8a67 72ba be3f
00000530: b913 5fe7 b90f bbbf f7f9 cb33 27d3 d1bf
00000540: ce7f f422 2fa5 913f 47e5 31e1 785a b23f
00000550: ac53 35bc 4dbe b8bf e5a2 f28f 831b 99bf
00000560: d2b4 bbe3 5648 e0bf c61f 1144 6eeb edbf
00000570: c11f ac0f f0c9 f4bf 8152 c43e 610b efbf
00000580: 7a5f daa3 9242 e2bf 0233 bc30 657f e2bf
00000590: 3fca d0cb 4766 f53f d8c2 b753 a553 e3bf
000005a0: 8bfa 5e6f 9643 d6bf 039c 83a0 2635 e7bf
000005b0: 420c 6177 1ce5 cabf c867 b6cf 1f75 e23f
000005c0: 5fda 85c7 6113 c8bf c76b 604b 80f6 d1bf
000005d0: bf35 0b7e 807f c43f da3d 296b 4764 d7bf
000005e0: 1fae 709f 3382 ed3f 007c ee58 3773 ee3f
000005f0: 1473 9a40 c674 ee3f 0aef 7f93 aeee ee3f
00000600: 4bc5 7c1d 99a9 dbbf ea4f 6cd6 6674 e23f
00000610: f854 e528 0e3e d83f 9ea3 69e8 77a3 e63f
00000620: 8cf4 3e30 5252 d4bf 5e01 972e 9581 c3bf
00000630: 72c6 8152 a74d ac3f 1fcd 1382 a2dc ccbf
00000640: 4bd7 036e ec46 dbbf 6fa4 be56 bcdc d6bf
00000650: dbed 38b0 b013 d0bf d326 3c15 a4fa a7bf
00000660: a871 80de f045 b1bf 652d 1f4f 984b 6f3f
00000670: 3308 fbd0 96d4 e8bf e8a8 bc48 35de d73f
00000680: d6ce 47be fb92 eabf 1a83 afcc 45cc ba3f
00000690: e404 229b d97a c83f f084 eb76 036f d2bf
000006a0: 04d9 8c09 6478 ed3f 532a e8bc 102e ebbf
000006b0: c909 9463 a4bf dbbf 039c 8e22 9bd6 e6bf
000006c0: 624d 06a1 9df1 d7bf b58a 2fbf 9673 ea3f
000006d0: 681a 5465 2618 bdbf 9828 7d40 1c6d e0bf
000006e0: 1240 e326 c686 e2bf 3990 9ab7 ee07 e9bf
000006f0: b4d4 6b3b a007 ed3f 062f 6390 ceef ddbf
00000700: bb4f afca 48c4 df3f b079 87cc 1ae7 a73f
00000710: 6f83 2de0 dd1c da3f d8a3 f1b2 a452 e7bf
00000720: b596 39e8 2b3e d5bf e803 55a8 f797 c4bf
00000730: f478 ea11 2d47 e3bf 6b5c ec7e 95f2 d6bf
00000740: 2b88 f0f1 7c5d d8bf b1d8 772c 6568 d4bf
00000750: e354 8b20 527d b23f 9414 3956 cdc3 b6bf
00000760: bb2f 7a0a 614a e53f bda7 ae52 c55b e93f
00000770: 9177 c40d 43d2 e33f a75d ac43 30a7 ec3f
00000780: 18eb 4150 cf41 c2bf 0658 a85f 605c d0bf
00000790: 439f 11bd 86c0 d63f 225f 937d cd3f dc3f
000007a0: 1f1c 5ba8 94ee dc3f 8d58 b11c 45a8 e8bf
000007b0: 23fb c5db 478f dc3f 6146 52bf a4d4 a5bf
000007c0: b30c 5b88 6236 c2bf 61b0 0a41 6bfc d53f
000007d0: 30c6 f539 8459 cdbf 31c9 180e f60a c9bf
000007e0: fb39 162b c380 f2bf 7bcd 706f 666f f0bf
000007f0: b3c4 fdbd b8ac f2bf 452f 9139 82d0 e4bf
-0.7324157274140725 -0.16095184925004635 0.12542435526463547 -0.26551603520107 -0.3179021469788847 -0.5360110921015998 -0.08834470527214211 -0.12309247853816033
-0.32815654306161013 -0.139252483405055 -0.9504154206108003 -0.29203135001080044 -0.14480094650767256 0.3229932414984678 0.23046131409045828 -0.5762165609080309
1.0651370094905739 -0.5770009381405155 -0.14809348878658798 -0.16665328047037323 -0.336714243933384 0.9144202206874326 -0.40680933526315244 -0.30195510104096984
0.32948782613150834 0.3836785099302763 1.048323061887945 0.1586174364383991 -0.45605535317014145 -0.5842940336962544 -0.5589116204014442 0.8308204581374561
-0.32172051319041073 -0.29572184654215766 -0.4916085527554369 -0.3078626138416168 -0.40618030099564123 -0.4572451816730769 -0.5165635874426585 0.3405719330548572
-0.31727304017674557 -0.3445753677061383 -0.4648738534327534 -0.3215364085394674 -0.4676288927862425 -0.3100269265268875 -0.46548999728909835 -0.5075043585231064
-0.3462028585505936 -0.21751469420331118 -0.43918125348378284 -0.19427294298006773 -0.3032644661099237 -0.2817286311538123 0.2225303184136923 -0.43948725180314535
-0.24495112920410736 -0.04849038905637834 -0.19560176901580342 -0.4145099467805251 -0.5540822045831924 0.14483714856424063 0.12997368093256229 -0.5308948060186616
0.5413166435275243 -0.10841635106676549 -0.4578920454548793 -0.05107142214045575 -0.27456795813801926 0.6015817400719989 -0.29849213834661636 -0.5376393769570672
-0.37767721992722403 -0.400321199157755 0.5714302617043883 -0.24076434249525228 0.31795942243261965 -0.22721984476152568 0.3768771142442673 0.8033572411574391
-1.0415950786308668 0.1758532851084289 0.48975506076663416 -0.23379720772140497 -0.15919701451044221 -1.1889909176315947 -0.10585861348019007 0.36751619425955057
0.44662358406174474 0.11869548349210073 -1.1220122922558717 -0.07688272558761516 -0.42279866931085347 0.03806537764215614 -0.31664099794777406 -1.1142044192508147
-0.14204135304691223 -0.6733746072236437 -0.6466708279014395 -0.6666705552960265 0.18393676848593757 0.34088009003240705 -0.19133467380433708 -0.7731958169369363
0.15622213227460685 0.023419894439203323 -0.8056638483570229 -0.2302936203241412 -0.0014397394859766237 -0.5892749594733422 -0.3981515584349915 0.005541075801302334
0.6598799324874515 0.23055389452421937 0.8845731317909931 0.4284620005159801 -0.5736037416011622 -0.8506706722204364 -0.5213840273343586 0.6713774768502868
-0.30888756810815 -0.5810110585003562 0.8528647403151642 -0.661941728002217 -0.27844461986799074 0.9486300938029455 0.4663872498552621 -0.42697883698433303
0.6383294248777165 -0.43847666124675705 0.15376261672776065 -0.21810110068083144 -0.3198294450147085 0.08320252473605468 0.34295141595577033 -0.2541846717927656
-0.3120853080518083 -0.4198661191523437 0.1880934616000535 -0.11340939693228479 -1.0081633996492527 -0.9632360006432833 -0.902423899286223 -0.29717673407495876
1.1022814166375847 -0.608508287716684 -0.04794990769571759 -0.39261057138310584 0.6429105313990561 -0.2033529959560657 -0.5242650009563654 -0.7235155850339896
0.2799913847552501 -0.13833421084987035 -0.13353194939286878 -0.47839999129074157 0.6856559910726556 0.7887903017370317 0.8332324826407038 0.8039271096026096
0.32804935775539656 0.5244145492150898 -0.1985162219668016 -0.04899257970540127 -0.09782805010016984 0.12003245380297513 -0.1057087125655717 -0.2785127645328482
0.017231689938057397 0.07169299600527267 -0.0966538033001842 -0.02451901975715289 -0.5088304946817976 -0.9349891023093668 -1.2993012058450264 -0.9701391435542775
-0.5706265640501293 -0.5780511810167754 1.3374708138986902 -0.6039606700051889 -0.34787522197795145 -0.7252381453553202 -0.21011691884095468 0.5767973954091241
-0.1880914901955348 -0.28067023621559567 0.16014104990465047 -0.3654955431456678 0.9221437563005032 0.9515644776291765 0.951754690340382 0.9666359787802048
-0.4322264469111203 0.5767091930342734 0.37878755563481503 0.7074546374616266 -0.3175244780684998 -0.1523920514573644 0.0552799499718163 -0.22548323966439285
-0.4262038301816246 -0.3572226378551652 -0.25120179375855195 -0.04683411368575965 -0.0674734633652806 0.003820226172114682 -0.7759508210804199 0.3729375086137581
-0.830442306176759 0.10467945334631815 0.19124908518646244 -0.2880257283523653 0.9209461390044287 -0.8493732156360444 -0.43357190823021746 -0.7136970210020767
-0.374122054339031 0.8266099676223663 -0.11364974950638784 -0.5133191356228677 -0.5789519080663033 -0.7822183214198112 0.9071808968134492 -0.4677616510423238
0.4963552455276347 0.046685063807433536 0.408011883662815 -0.7288383002279444 -0.33191964796274515 -0.16088767737713217 -0.6024384832305985 -0.35855615038730687
-0.38070605875884905 -0.3188717779406814 0.07222474379098602 -0.08892520289471612 0.6653294758448206 0.7924524893653523 0.6194167393584725 0.8954087564224452
-0.14263335627386975 -0.25563821164666967 0.3555008741736751 0.44139420760392245 0.45206180993085526 -0.7705407677083415 0.44624515974276074 -0.04263796649423735
-0.14228469522467932 0.3435314307378175 -0.2292943270690997 -0.1956470078308228 -1.15643612700262 -1.0271972993039913 -1.1671683713469008 -0.6504527210576972

arr_3 f8 [36]
00000000: 8ee2 1f10 d970 cebf 5d8e 9a01 18bd c7bf
00000010: ce78 4e04 e2c8 bfbf fbdb b0b8 602e c83f
00000020: 150b 47cc cf04 b43f de70 2126 8987 c63f
00000030: 1e7f 1d6e 571e b9bf 59ac e662 c351 bfbf
00000040: 4d0d 37c5 0fd0 cabf eb81 ac8b 0ddc d1bf
00000050: 57b1 5170 4b08 c6bf bdfb 2a8d 6268 9c3f
00000060: 2639 5a9f a5b2 d43f 3f09 15ca 26a9 e13f
00000070: 0c2a ee61 a6d6 d13f 2c46 c275 2264 a73f
00000080: 641e be18 fbf9 bbbf 34b3 2948 1861 cdbf
00000090: 752a 1dc8 f303 d0bf 7125 f1ef 2c61 b1bf
000000a0: 681f 8bc8 2159 b33f ff55 268b 2a83 d43f
000000b0: b458 ce81 aa2f e13f e11b fb5b e5bf d33f
000000c0: 264b d1b4 272d 963f c8ac 0c4f 11bc c2bf
000000d0: ec37 0e71 be9d d0bf 7ab3 79e1 bb12 c7bf
000000e0: 816b 4a4d ddd8 c0bf 4d39 6b12 5448 b4bf
000000f0: 9826 8a5b 4afd c53f a312 add6 89db bd3f
00000100: 85da 494b e995 c63f ea34 a7ab 5593 c0bf
00000110: e0d7 adee a02a c7bf 4123 fe77 d056 cabf
-0.23781884467441156 -0.18545818403537143 -0.12415897946491158 0.18891533868892893 0.0781984208797833 0.176011222475501 -0.09811922491416822 -0.12234135784699286
-0.2094745362247558 -0.2790559638979448 -0.1721281336243787 0.02774194704647547 0.32340374528657134 0.5518983790318898 0.2787261921263571 0.04568584144102447
-0.10928315500324853 -0.22952559970453879 -0.25024122755409134 -0.06788903100927769 0.07557879587250016 0.3205057486423754 0.5370686087869871 0.3085873983622474
0.021656628047206493 -0.14636436805571962 -0.25962792435245663 -0.18025921353855862 -0.13161817811927892 -0.07922864389113222 0.17179231137952367 0.11663114062418826
0.17644992996402578 -0.12949629670621415 -0.18098842291118356 -0.20577436312694355

arr_1 f8 [32]
00000000: d886 ac09 d9cd edbf b7d8 bbf2 d3cb d23f
00000010: e9ae 5053 e078 dbbf 90e4 0a6f 0a6a e5bf
00000020: b772 357b b9c7 e8bf 5532 5660 8f28 f3bf
00000030: 40f7 5e02 a816 dfbf 202f f353 1aa5 dfbf
00000040: 7177 ecf9 7264 b7bf fd7d 385d 682b d33f
00000050: 6357 2b7e dd32 e2bf fb09 15a7 f548 dbbf
00000060: 67ff 961b ef46 eebf fc66 509f e434 e8bf
00000070: 4e25 8268 83dc dfbf efe8 723f 52d8 f1bf
00000080: 1859 3025 38d8 babf 71cc 7abd d5d1 efbf
00000090: d0be d006 fbb9 b5bf 7e03 bc05 4297 ebbf
000000a0: db14 660e e74c ca3f a64c 22d7 6237 d03f
000000b0: 247b d099 3d4c bebf f413 7324 f351 81bf
000000c0: f142 af29 9aa6 d9bf 206f 4606 84a6 a2bf
000000d0: 5121 85cb b136 ecbf 4d58 3f40 7aee b1bf
000000e0: b0cd d1ba b504 e8bf 3180 a425 7fec d8bf
000000f0: e2e3 27d5 dd97 e2bf 9ff9 c5a5 d056 bebf
-0.9313779057449336 0.2936906691023852 -0.42925270210501637 -0.6691944283294493 -0.7743804365560071 -1.1974023593094405 -0.48575782996691785 -0.49445207784877887
-0.09137648202564976 0.2995243940694932 -0.5687091316456016 -0.42632809940928923 -0.9461589373458822 -0.7564566718676526 -0.49783406453987744 -1.1153128126593932
-0.10486174495631351 -0.9943646145606079 -0.08486908832923779 -0.8622140991211464 0.20547187998832936 0.253380498973636 -0.11835083966478216 -0.008457088041163609
-0.4007935912205048 -0.03642666412926432 -0.8816765761376165 -0.07004512852231067 -0.7505749367541537 -0.3894346110919314 -0.5810383952331188 -0.11851219222260177
