results/params_7.npz (npz, 98830 bytes, 4 tensors)

arr_2 f8 [336, 36]
0	0x3fbee1a20df7f656	0.12063038674383483
1	0x3fbbb44f7968548e	0.10822006906558299
2	0x3faea0d73e281e74	0.0598208678603073
3	0x3fb91d3b8a15a2c0	0.09810230370716067
4	0xbfaad06a303a53ec	-0.052371328723132965
5	0xbf52c90138746180	-0.0011465560836026734
6	0xbfba32a51e57d9c6	-0.10233528128433197
7	0xbf92bcad62861d78	-0.01829787172166905
8	0x3fb8e33b64d70740	0.09721728526986073
9	0xbf80f90803f11e88	-0.008287489528938666
10	0xbfb749ce9ac54eb6	-0.09096995619375545
11	0xbfa30187f729a0de	-0.03712105648156848
12	0xbf787c56b18ab540	-0.0059779535737736755
13	0x3fb141288fb88874	0.06740048893746736
14	0x3f9479891dfa30f8	0.01999487157313326
15	0x3fb8df82bf64a192	0.09716050312693472
16	0x3fbebe720a6cc47c	0.12009346727860931
17	0xbfba2f7474af235e	-0.10228660439237333
18	0xbfa410481a430cd4	-0.03918671913700114
19	0x3f762f0645cc06e0	0.005415939810292619
20	0xbfa638d4201eb2aa	-0.04340231792534628
21	0xbf80030a20df4e60	-0.007818297508413952
22	0xbfa411825faf52fa	-0.039196085148125406
23	0xbfbad01fb609233e	-0.10473821825247584
24	0xbfb844cef2454c46	-0.0947999326211156
25	0x3fb7936949f8f336	0.09209306770294465
26	0x3fbad726134f4e52	0.10484540912084953
27	0xbfadb60b694bd770	-0.0580295148883313
28	0xbfc03bb8829aca43	-0.12682253243618122
29	0x3fab924c51d3bd88	0.0538505411039934
30	0xbfb1bf0484f7bc52	-0.0693209480884758
31	0x3f9ab6ddde4fcfd8	0.026088205999215436
32	0xbfa6eb5a4dc23432	-0.04476434897615213
33	0x3fba90f13cbe2116	0.10377414448715103
34	0xbfaa2aba1f7136bc	-0.051107231462635266
35	0xbfa5fff741097944	-0.04296848935040257
36	0xbf579a52e203ec00	-0.0014406022456217027
37	0xbfbeeefcd43693d3	-0.12083416157709274
38	0x3f8f10f5af792ef0	0.015169066827318528
39	0xbf948a5427d4e3b8	-0.020058932238700783
40	0x3fb945cba57af4f0	0.09872124471708665
41	0xbf6fccb63dce5ba0	-0.0038817939188890566
42	0x3fa729ceb2c22500	0.04524084026440711
43	0x3fbb96a3516b2882	0.10776730287321537
44	0x3fb92edc81b6cec4	0.09837129752014123
45	0xbfb7a124fd62f560	-0.09230261980242949
46	0xbfa9a4a77facbda8	-0.05008433755426306
47	0xbf73a24102e97780	-0.004793409300502094
48	0xbfbe107eae8e8f0a	-0.11743919145243012
49	0x3f9efa8f7339e7d8	0.030252686889504193
50	0x3fb417ea2c2d314e	0.07848990992096569
51	0x3fb82f86ee293266	0.09447520555949893
52	0xbf8e019bb99856c8	-0.014651505090152908
53	0xbfb0e90510662fcc	-0.06605559969301494
54	0x3fbafd8807d57c20	0.10543108168847981
55	0xbfae2364e6c5836e	-0.058863785906175234
56	0x3f81e46cd8c3e140	0.008736467709682061
57	0x3fbfab6971248436	0.12370928776046317
58	0x3fa0e211579aea8c	0.03297476000212382
59	0xbf97f32d2cff18e4	-0.023388582106940073
60	0x3fbffc3c6504f89a	0.12494256464285272
61	0x3fb428cd9f6685ba	0.07874760762799485
62	0x3fb7a34bccf21bf4	0.09233545068319399
63	0x3fbef329516252ac	0.12089784848132962
64	0x3fb82fbb5102eff8	0.09447832801646416
65	0x3fbc30dc11979018	0.11012053899281715
66	0xbf9696dc6dcfbaa8	-0.02205986423717357
67	0x3f949e80afbb34b0	0.020135889745507896
68	0xbfb47fcb1c27d676	-0.08007497250931714
69	0x3faeb398994be0ec	0.05996395942014651
70	0xbfb07c0253d0433d	-0.06439222856739675
71	0x3fbf6122ec840a54	0.12257593416510676
72	0x3fb7782a9715b90c	0.09167734325976457
73	0xbf9816215fdf8db7	-0.02352192065872113
74	0x3fa5ec64172ef9d2	0.04281914504052832
75	0x3fb889275963c55d	0.09584279949537718
76	0x3fa885322eab18e7	0.04789120502168647
77	0xbfbecaf0dcd7b2d2	-0.12028413192428936
78	0xbfbdfeed5e029bbe	-0.11717113061113957
79	0xbfb6cf204b145313	-0.08909799416535362
80	0x3fbb17699bcdff32	0.10582599691224173
81	0x3fad4548c7fe13f1	0.05716922227205846
82	0x3fa56a2e4408e848	0.04182571964743481
83	0xbfaab9ca2d682773	-0.05219871334345685
84	0xbf61ef3e59f9cae0	-0.002189275531969556
85	0x3fb1b0d6fb8eb48d	0.06910461083926318
86	0x3f8be01cad534e38	0.013611053504440127
87	0xbfa00f3653ca2c73	-0.03136605999778732
88	0xbf93afb4d9aa458e	-0.019224954400276988
89	0xbfbfb867d126ed48	-0.12390755516292018
90	0x3fa0bda996639142	0.03269700966646606
91	0xbfb6248ccebe69fd	-0.08649520919281169
92	0x3fb353c48719ae5c	0.07549694345805719
93	0xbfb3cae11387d692	-0.07731444098302578
94	0x3f7edd9ffecac604	0.007535576802796044
95	0xbfb1d182b825c169	-0.06960312839306017
96	0xbf5f3a7af7a6bef4	-0.001906032643642361
97	0x3f7fd6e2cb7ff617	0.007773290555630938
98	0xbf9fa0c522f2c478	-0.030886726625514588
99	0xbfac2b6a3bf31c75	-0.05501872999007499
100	0x3fb80661168f8f40	0.09384733963775904
101	0x3f71b73ac7ad2e35	0.0043251319974149565
102	0xbfbd21f432a1aa21	-0.11379934536095294
103	0x3f407297848b1d69	0.0005019416649582445
104	0xbf96deb21f0ba00c	-0.022333892006742004
105	0xbfbf4bc9a49d9802	-0.12225017804084362
106	0x3fa9aed1630f8e0b	0.05016187986600692
107	0x3f9d52f3cfaddb24	0.028636750746467446
108	0xbfb9c630c394c280	-0.10068039679459595
109	0x3fbf626d01b098d4	0.12259560862785018
110	0xbfae4d32454e11c6	-0.059182711563184706
111	0x3fbf19fe5fed3f49	0.12149038164102167
112	0xbfbec0fa958a1597	-0.12013212347854672
113	0x3fa475a4cf8d8637	0.03996005090335724
114	0xbfb27efc22adeb2b	-0.07225013586677835
115	0xbf9caec5c8d8e51f	-0.028010454543822335
116	0x3fa2307a7a115338	0.03552611103137909
117	0x3fbc8fbc637894ca	0.11156823566905696
118	0x3fbfc4eef76ff320	0.12409871617269319
119	0xbfaf1f904b405956	-0.06078768652530424
120	0x3f7f8692be34ff32	0.007696698393658429
121	0x3fba3a610f919579	0.10245329504103563
122	0xbfa14a1e5a794a02	-0.03376860479751899
123	0x3fb1cd616af6cd69	0.0695401083128694
124	0x3f945510d776ab26	0.019855750227786427
125	0xbf749c95dee26a12	-0.0050321440050091915
126	0xbfb63799cc1a5d20	-0.08678590043051715
127	0xbfa4ad5746c797ed	-0.040384986295791105
128	0xbfb615c7328072fc	-0.08626980765297881
129	0x3fb3984fe4418e40	0.07654284784944654
130	0xbfaad502ebeb2a9d	-0.05240639810434298
131	0xbfb1d626b19b8c2e	-0.06967393718837009
132	0x3fb0879af5b64e64	0.06456917284804714
133	0xbf9421ccd3167724	-0.01966018713357366
134	0x3f9f29b8d8dda8c7	0.030432594524804537
135	0xbfa64d0f0efdba58	-0.043556662158938664
136	0x3fa60ae6ce8a0aab	0.04305192252379205
137	0x3f8e32c194dbda8a	0.014745247226057207
138	0xbf94880da06d9d4d	-0.020050251881369708
139	0x3f771620050d35f0	0.005636334492761005
140	0x3fa120cc68aeec47	0.03345335748550631
141	0x3fbc7047d6c8dc85	0.11108826631321918
142	0xbfba2c9655d45b2c	-0.1022428473992078
143	0x3f797b37d55cd1a3	0.006221025561718471
144	0x3fbff391635b17f0	0.12481030154876271
145	0xbfa80bd8e17b556d	-0.046965386891012574
146	0xbf928b12ccc2a9f4	-0.018108648059447632
147	0xbfa987f520afda9e	-0.04986539863596316
148	0x3fa79196bd6efe4f	0.04603262960835918
149	0x3f9ae69ac1e66964	0.02627031143638571
150	0xbfb2fa7107368aee	-0.07413393426990542
151	0xbf86812536a24599	-0.010988512735169919
152	0x3f69cf3598c2bc35	0.0031505629359212203
153	0xbf92a824c79d8000	-0.018219542201563854
154	0xbf8ad877657d3a72	-0.01310818937750222
155	0x3f524ba93ee102f9	0.0011166718282000206
156	0xbf89913f77f84974	-0.012484069679918199
157	0xbfabe08d2595fbb3	-0.054447565878028036
158	0xbf91385269f026ac	-0.01681641360850132
159	0x3fb56d0af36ff9bc	0.08369511073394781
160	0xbfb7c6a582bd3dc5	-0.09287485544086056
161	0x3fc01d7e4cb93485	0.12590006586325245
162	0x3fba2b0b0e9e0a55	0.10221928698414591
163	0x3fae0c03871069d0	0.05868540786487453
164	0x3fb4ed09ddb7a7ee	0.08174192107222186
165	0xbfb0a3305d0bf1e0	-0.06499006530425033
166	0x3fbc40dd333c0bca	0.11036474705546975
167	0xbfbada3b7a048bc1	-0.10489246109913976
168	0x3fbc13e43539a944	0.10967851924366295
169	0x3fbb828b365b9ad1	0.10746069027991757
170	0x3fb96ed4e9403b55	0.0993474072895258
171	0xbfa6536c58669bbd	-0.04360521868812082
172	0xbfb72b8c156a8df9	-0.0905082275663104
173	0xbfb84d6c223e067f	-0.09493137203210188
174	0x3fa0642f873fb4ab	0.03201435590731568
175	0x3fbb7c64975a045d	0.10736683554752476
176	0xbfb1086a9f95207d	-0.06653467556054866
177	0x3faa2a16c4b84c38	0.05110236312261701
178	0x3fb8214b192196cd	0.09425801623873582
179	0x3faa5a9516905e75	0.051472338680636755
180	0x3fb647c7cac8c010	0.0870327825621191
181	0x3fa1e95cec358760	0.03498354323779895
182	0xbf9d66d5b55f73c1	-0.028712596125717974
183	0x3fb300892afbeed3	0.0742269258443529
184	0xbf91009c2dd8c48f	-0.016603889749778274
185	0xbfb1023f162cb13a	-0.06644052783366741
186	0xbfa8241539c604d8	-0.047150290777617065
187	0x3fbe446f4d27206b	0.1182317317353651
188	0xbfb7e59541d3a05d	-0.09334690911384898
189	0x3fafa012087661e5	0.061768115551959636
190	0xbf913c573657e0b7	-0.01683174390015615
191	0xbfb928e4f699fa96	-0.09828024883789008
192	0xbf99376b47fecf9d	-0.024625469464538353
193	0xbfa0f963e39ae701	-0.033152696164917124
194	0xbfbfa91cb8fbca8e	-0.12367419735145743
195	0x3fb26a4f4522f4c5	0.07193465650466908
196	0x3fbbee2b3f1def1f	0.10910291949215577
197	0xbfa0b9bc3d99cc0a	-0.03266704799616356
198	0xbfa9e6bdafec96c4	-0.05058853886138828
199	0xbfa2ce7ee555d7c8	-0.03673168706420388
200	0xbfab5c258b1f9c6d	-0.053437398178908115
201	0x3f8d54ce51fd1b37	0.014321910740944339
202	0xbf9ccb434a4cf4b4	-0.02811913624758651
203	0xbf6c2976ee62a28d	-0.003437740600095224
204	0xbfb4b88744e5aa70	-0.08094067985590825
205	0xbfb84a16ded4b010	-0.09488051357465133
206	0x3f3f98cacefb08d1	0.0004821295869811395
207	0x3fb2c69fbbfc097f	0.07334326114145105
208	0x3f867b9ee73c56d5	0.010977975303414858
209	0xbfc01c620e1568a1	-0.1258661812560762
210	0xbfb09992a890bdd2	-0.06484333625188946
211	0x3fb70b319942fc75	0.09001455299129353
212	0x3f74c74489d0b64f	0.005072849014181437
213	0xbfb42240d7e04053	-0.07864766378793435
214	0x3fb0c3664cf1be95	0.06548156145594881
215	0xbfb5b325e219e74c	-0.08476483125732875
216	0xbfa24de8e9c45908	-0.03575065473175881
217	0xbf831d1f818a49d4	-0.009332891598465766
218	0x3fb648c33be101ae	0.08704776965988145
219	0x3fb1ec8f7981cc1b	0.07001587597351071
220	0xbf81d7863477fcf1	-0.008711861110894921
221	0xbf9f2627247d7591	-0.030418979265382232
222	0xbf51fa9cb796f84f	-0.0010973482552425644
223	0xbfa4f73d1ec18f5e	-0.040948781971364964
224	0xbf67b7d2b44acb17	-0.002895270854730635
225	0xbfb1eef58db95334	-0.07005247793251784
226	0xbfb193f3be1c735f	-0.06866382018456595
227	0xbfb82e0cef274a76	-0.09445267523487097
228	0x3fb36a93a77a5cf9	0.07584498251741313
229	0xbfb54581fcc9906a	-0.08309185430113222
230	0xbfbfaf7db3247444	-0.1237715303763745
231	0xbfae925c9ae86f51	-0.05971040144888085
232	0xbf978aab98393182	-0.022989922681789128
233	0x3fbe223db11e434c	0.11770997595000415
234	0x3fbafc6d2e866cf3	0.10541422258249948
235	0x3f9bc46f1cd7a76d	0.027116523871803567
236	0x3f96c0fbdd824164	0.022220549959969374
237	0xbf9b21685a4e08d5	-0.02649462748696226
238	0x3fbb0a5564a84aed	0.10562642772155657
239	0xbf960aea9c35ca7c	-0.02152601793700136
240	0x3fa096746c10c63f	0.03239787882956734
241	0xbf50e24e2ebb4387	-0.0010305179120459766
242	0xbfb54721ba19096c	-0.08311663430598565
243	0xbf8bfc88a4957c1c	-0.013665263674452581
244	0x3f94018d8341eaea	0.01953717340118547
245	0x3fa158a2ac214848	0.03387935973354722
246	0x3fba6c9d607669ce	0.1032198296074178
247	0xbfb935f38538f02d	-0.0984794807672535
248	0xbfb2eac57ed8b37a	-0.07389482828939534
249	0x3fa52dd38fc217e6	0.04136525277958451
250	0x3fa9d21e8229daad	0.050431207074259056
251	0x3fb9199f281b10ac	0.09804720620292312
252	0x3f987dd3453858ce	0.02391748533235543
253	0xbfab7cd793a94816	-0.053686844611221016
254	0xbf99b7b273356524	-0.02511481121232352
255	0x3fb33db802d05b00	0.07516050404261065

arr_0 f8 [4, 2, 4, 4]
0	0xbfbba3fdc96f1fac	-0.10797105949234148
1	0xbfc29078b27fe93b	-0.1450339194851241
2	0xbfc3a677864ede49	-0.15351766641627965
3	0xbfac1fcca20e2b8f	-0.054930109769961814
4	0x3f9235921b38f7c6	0.017782481109172264
5	0xbf9ff3ed386a6654	-0.031203943794571323
6	0x3f924a181a67f1aa	0.017860771762558215
7	0x3fba500f70811e3b	0.10278412338913594
8	0xbff080a4ab0571c4	-1.031407039691758
9	0xbff80e7f91e59ece	-1.5035396288966925
10	0xbff5ceafc055dfa9	-1.3629605782607348
11	0xbff003a31e840c15	-1.0008879844688228
12	0xbfbb76c9bf19b35b	-0.10728131213700236
13	0xbfc1dbe193c7fd11	-0.1395227405155102
14	0xbfc0a92d732f1e02	-0.13016288875790855
15	0xbfb27683d9c62755	-0.07212089602230994
16	0xbfd1270d75719ed4	-0.26800857991336824
17	0xbfd26e20dd958963	-0.28797170294833146
18	0xbfd602f45cdfe420	-0.34393033094198877
19	0xbfd176f701d1b2d7	-0.2728860395207397
20	0xbfd32d4c98b010f9	-0.2996398440448185
21	0xbfcc479b095560b6	-0.22093522983300823
22	0xbfd041bfe8140aed	-0.25401303924461055
23	0xbfd32b2e9c06d669	-0.29951062428458514
24	0x3ff351b07a133cf6	1.2074436920700555
25	0x3ffd20676898b67f	1.8204111181070457
26	0x3ffdf1334b292439	1.8713868080105966
27	0x3ff30ad0af0c8c21	1.1901404226162031
28	0xbfd844ebf610502e	-0.3792066481557893
29	0xbfd7519374475b8d	-0.3643540034803941
30	0xbfd7468cb5b99b52	-0.36368100878319354
31	0xbfd704225279526b	-0.35962732366650724
32	0xbfde704df3b1ea50	-0.4756045226892285
33	0xbfdcb0e63076dfff	-0.4482970689091416
34	0xbfe09237903bd374	-0.517848760324894
35	0xbfe929a7189cbda6	-0.786334560461843
36	0xbfe73440af93d795	-0.7251285008667191
37	0xbfcc77e2cec97d6d	-0.22240862938904674
38	0xbfcbc5540abd41fa	-0.21695948147181793
39	0xbfc0024b3f51bf4a	-0.12507000533832474
40	0xbfe63595cfb234f4	-0.6940411621632436
41	0xbfb8b346ace1639b	-0.09648553581918266
42	0x3fe3cb28832ccc1c	0.618549591256286
43	0x3fe9050f9fe61b69	0.7818678019547011
44	0xbfeff547a1e053fb	-0.9986913835188028
45	0xbfe46e32e69ed73a	-0.6384520057970129
46	0x3fdb28962febe0fa	0.42435221366714837
47	0x3fe24055cd50c52b	0.5703534135883833
48	0xbfd9663766f15b3c	-0.3968637948323026
49	0x3fd960498ff2b1eb	0.3965019136183218
50	0x3fdf9c354680e786	0.49390918622122404
51	0xbfdefe7dfb46a615	-0.4842829660288726
52	0xbfe11d372a70586d	-0.5348163441547179
53	0xbfb2a6f327776ddc	-0.07285995210207069
54	0x3f73b7e467e739d7	0.004814045153081334
55	0x3fc4d421f1df930f	0.16272377310010497
56	0xbfe8b824cac97762	-0.772478481357876
57	0xbfd3346959d047ee	-0.3000739457212366
58	0x3fd0af4518bf0d76	0.26069762627249504
59	0x3fd9d0f89b398cdd	0.40337958487198283
60	0xbff0fef2bf6d05ed	-1.062243221051513
61	0xbfe75661c2ea6eff	-0.7292946631382334
62	0x3fd1e8d437dd0f3c	0.27983575301572094
63	0x3fd8f842d3a612cb	0.3901526514894555
64	0xbf59567728b0d6f3	-0.0015464938794713084
65	0xbfbd017278dbf5b9	-0.11330333185829645
66	0xbfd562d66bcd51cb	-0.3341575672868912
67	0xbfc4c2e148b69e44	-0.16219726610619223
68	0x3fe84669ec14185c	0.758595429507078
69	0x3fd1458ef2ef924a	0.2698705074711013
70	0xbfc70ec5fcfefd28	-0.180138348134258
71	0xbfeb0a9e70d846cf	-0.8450462535858722
72	0xbfc347c306cfabfc	-0.15062749703005796
73	0xbfce1a26a52bef01	-0.2351730638982801
74	0xbfd3d70537768695	-0.30999880234058114
75	0xbfd2bcc9036a5f2a	-0.29277253469034525
76	0xbfe8e4e5e79835d5	-0.7779416583377335
77	0xbfec900168c3e238	-0.892578796977495
78	0xbfe106e7b1e59b13	-0.5320929026173381
79	0xbfb5723ca6d7d8d8	-0.08377436707801011
80	0xbfd26979780989d8	-0.28768765184773093
81	0xbfe00b48bd333a97	-0.5013774581255629
82	0x3fe49d45d7f386cd	0.6441983430670121
83	0xbff113675d744967	-1.0672372484737822
84	0xbfc3fdb04a7aae71	-0.1561794627826774
85	0xbff16379aa6ac287	-1.0867859513201965
86	0xbfe66fdaf3e88980	-0.7011542095026897
87	0x3fead60bdecddb6b	0.8386287070887709
88	0x3fc48ba084b7d993	0.16051107864741407
89	0xbfe8e7255a9ddaa1	-0.7782160539489561
90	0x3fe2d696f0bc8ff4	0.5886950208555377
91	0xbfe5dc056fe85804	-0.6831080613799263
92	0x3fdd4ac2b8dc10ad	0.45768802693079175
93	0x3ff05c07a4fc3dae	1.0224682278384125
94	0x3fc512381a6016af	0.16461850440844247
95	0xbfc150463fb1fc34	-0.1352622805606828
96	0xbfbe084a5366da3e	-0.11731400047470061
97	0x3fa7ae022f51f165	0.04624945476186574
98	0x3fd546d73e6670b4	0.3324487790466819
99	0x3fd1a6076e26fc8f	0.2757586074548692
100	0xbfc6f74a2f76e087	-0.17942168538661837
101	0xbfe6df7441b88e54	-0.7147771152126077
102	0xbfca4393b55b2401	-0.20518728595041583
103	0xbfc4511d2a5bfc00	-0.15872540062261464
104	0xbfbc9385a8640099	-0.11162600861644235
105	0xbfd01ce55ef7f1bf	-0.25176367067595246
106	0xbfb111358e53d22c	-0.06666884159842174
107	0xbfd5a4863b8b23b1	-0.33816676916881777
108	0x3ff26097c88b5537	1.1485822519073972
109	0xbfde146f2feddc7b	-0.4699972122247755
110	0xbfda2730e9851484	-0.4086420326678495
111	0xbfe1bd7c948b3bc7	-0.5543806935546564
112	0xbff07fd21ce5a895	-1.031206238631545
113	0x3fec6e5d5b151e6a	0.888472249885081
114	0xbfdbe529116777bf	-0.43586184215189044
115	0xbfd71b35d935ffad	-0.3610357876968873
116	0x3f8a8b6fe0c7305f	0.01296126751631038
117	0x3fe3f7a2b343c203	0.6239789487136139
118	0xbfef79aeed6e8b9d	-0.9836039197292511
119	0xbfd53197a2fb521d	-0.331151875650251
120	0xbfcb1b2839d452a2	-0.2117662699098633
121	0x3fda8fe1b39df2be	0.41503183880540095
122	0xbfe663f773425e53	-0.6997029544026624
123	0xbfd8bdc80ecc4fdf	-0.38658334202886907
124	0x3fec506b4b332d03	0.8848167866466671
125	0xbfc7424cc41878d4	-0.18171081137638245
126	0xbfe06285f322fb22	-0.5120267628443325
127	0xbfed411c0f3d374f	-0.9141979501380123

arr_3 f8 [36]
0	0xbfd115d86b42cd03	-0.2669583365888714
1	0xbfec600cc1c21c5c	-0.886724832948754
2	0xbfd48ae04c29dc28	-0.32097632825702016
3	0x3fbdff099d6442bc	0.11717281429833809
4	0x3fddfee8a7d27961	0.46868339909442197
5	0x3fc630e4196d8639	0.17336703530877332
6	0xbfd7ba2c615ab10d	-0.37073812014820434
7	0xbfec96a5bddf08a0	-0.8933895786688204
8	0xbfd1c0346404ca6b	-0.2773562409157992
9	0xbff4a9d089b0e2c8	-1.2914586428216115
10	0xbfd23f1c5b01855f	-0.28510197531985243
11	0x3fd8da23861d4ae8	0.3883141336165594
12	0x3ff3417d823905b9	1.203488835032074
13	0x4000c3a43f2050af	2.095528119252854
14	0x3ff2ee570bcab635	1.1831884823435648
15	0x3fd9c071d995b48d	0.4023708939410618
16	0xbfd014cca8346e82	-0.25126949716807456
17	0xbff308955b2f90b7	-1.1895955621667278
18	0xbff4c7feac9065ac	-1.2988268605025537
19	0xbfd3185ec3e82af8	-0.2983624375489593
20	0x3fd7b7f64da8c8fd	0.3706031568900839
21	0x3ff2db58ae6ef6dc	1.1785513700300987
22	0x4000c49d0c458516	2.096002670165613
23	0x3ff32b6e695cfb86	1.1981033435583597
24	0x3fdb45e90e56c10f	0.4261419906643064
25	0xbfd0372ebe34fa0e	-0.25336807799240624
26	0xbff3b514de0451bc	-1.231709353688628
27	0xbfd1988e7a429965	-0.274936313051873
28	0xbfebec72c2441d30	-0.8726133150347888
29	0xbfd7511c11d60c51	-0.3643255399876511
30	0x3fb168e2ddb34282	0.06800668633082732
31	0x3fdbc45381ba469b	0.433857800185345
32	0x3fc9688b4bdcce4d	0.19850293354248763
33	0xbfd24e3995d434af	-0.2860244715855726
34	0xbfeb2ef763f2b2f5	-0.849483199320814
35	0xbfce8c92f70e1dd1	-0.2386649805377901

arr_1 f8 [4]
0	0xbffe6baaa1c3473b	-1.9012857741221996
1	0xbf848d6570e78b4a	-0.01003531695181938
2	0xbfc5302938a83c84	-0.16553225771392388
3	0xbf74e31700e8dc2f	-0.005099382264737647
