results/params_15.npz (npz, 783598 bytes, 4 tensors)

arr_2 f8 [2688, 36]
-0.022730183558047377 0.04555263595299872 -0.01376759717864407 -0.025812103614756304 0.005262447562351637 -0.021113742294849625 -0.028201892760246414 -0.014998462820690313
-0.006798128128849207 0.02986221366251832 0.053544689490047176 0.007341351811821882 -0.02737645782216173 -0.011357998513632528 0.02450018865322563 -0.0002972335050776971
0.024600763568454115 -0.027666163759009058 0.026272171782312705 0.023737584640805384 0.01156149772413126 -0.02284995584058652 0.0434578715295621 -0.009798814522489433
-0.034357244825950664 -0.01174625475004917 -0.05573331580335498 -0.011113113759207883 -0.0022767623132165767 -0.015139978895134612 0.00787538114317844 -0.02439211983699471
0.004702302417507527 0.01600218012103257 -0.031285026604542174 -0.047529325494378626 0.024919121474669674 -0.06124802984050623 0.024519282754044216 0.03422162202216941
0.01755365337481868 0.029753502557297962 0.009378511313516918 -0.034620150260045016 -0.09046438427975018 -0.054480765830444686 0.00950299820957289 0.10088730360181546
0.034932924932620096 0.010084152000182239 0.049418247898891786 -0.04862860969228831 0.003782129360954214 -0.041292904871254345 -0.050877571200473586 0.07941459351675843
0.08791287401516198 0.01427708865621099 0.009964335582056527 0.029635118444343623 0.010300705450670343 0.03534519619473514 -0.03242375876893403 -0.03327553698057407
0.0041767963529056075 -0.06030366292673625 -0.07256521060994997 0.0038625929255992042 -0.013963605028140234 0.04767278148914882 0.03661204814808673 0.0012023953710510707
-0.065603385313677 -0.05172896071610507 0.0007305758144107716 -0.10302335119732008 0.009683926822209537 0.06971860578472824 -0.0793162611659606 0.011125002188383158
0.106876546288693 -0.05185587371983972 0.01046881412463402 0.006221013123472553 0.03826586126482711 0.02573922104759995 0.07023456901738806 -0.026711357593606162
0.006085391558766583 0.002897114822809883 0.0067761470183023715 0.11375782922958799 -0.006047033664206504 -0.002857426051913699 0.04130228414068095 -0.030382013876788398
0.012904702379542872 0.01870655051930387 0.0899658576410351 0.003959772215656967 0.03067076722951592 0.0949438932789618 -0.032945634974567956 -0.10368967214280926
0.02749316357988523 -0.05167536900236604 0.010702407655132746 -0.0024044620714785483 -0.0772234245999317 -0.1863671041995533 -0.020400289573716108 0.07527674917394664
-0.008151233757787778 0.013278911479565706 0.1226924571983366 0.09389263212210502 -0.03591426699691781 0.03053819180151296 0.1510082976187483 0.13208101922820226
-0.014383936830395632 -0.09717799529010097 0.12634185856335783 -0.007709209033143356 0.04025686591854218 0.013154066030784076 -0.009078034292366945 -0.05258850114938262
-0.13010221481946577 -0.04070498321266159 -0.0029658449822410242 0.05929893949051195 0.02256389933904154 -0.07807053641849297 -0.0934660852558767 0.09686578462242709
-0.09277209294589503 0.03219098875172652 -0.06594539694473721 0.03601673557936546 0.0843766556551324 0.096833356386648 0.04858521287098992 0.009877622701103771
0.1623632591403362 0.007122859429355333 -0.1337082458780735 -0.06560874190649217 0.002391336297870455 -0.10017574578982431 0.07705702022533067 0.051926567210831526
0.040216539877404 -0.04394409143874072 0.01937741449897891 0.12697132544714684 -0.0031021251723387768 0.05816290654449093 -0.024841244821487873 -0.014791742834466312
-0.097643499926671 0.046825589216105475 -0.0044389054515924335 0.012176947552809519 0.1389621686135535 -0.019311194907177573 0.08533756901705589 -0.046564837709840025
-0.04007502751776858 0.048399064143958184 -0.06893807117724518 -0.030119024995197405 0.03149495361550156 -0.03798282230717609 -0.07191681540031514 -0.0403249703234036
0.08900397307003055 -0.04316810001157195 -0.022481349239913892 -0.03608735634602297 -0.043073711556430166 0.12319473459387514 0.023377967687469615 -0.044293156111947674
-0.061012106706192976 0.06030786443456817 0.009099174895427171 -0.01753022970550581 -0.04636346527550809 -0.05051245536927704 -0.00910705211106299 0.08002159140826
-0.1741160077417629 0.1255317007424107 0.04825319196938184 0.0540827770216374 0.029231713293173603 -0.06051671814155911 -0.04297653790498686 0.11309972174631462
0.06718529235188349 0.0788975325936896 -0.016568300376264233 0.016466232994349836 0.0028402234968086864 -0.06674966768751323 -0.06540094063795729 0.07422022045097022
-0.05758817765179935 0.07820711566464757 -0.08760303696137786 0.04389310757067898 -0.01792767283514739 0.004300662307026608 -0.030957668636688473 0.1318907205505859
0.02506977120353242 0.004065892954737302 0.18376462323793838 -0.03665064508774775 -0.023771157525881614 -0.05660579730360375 0.048671244174101506 -0.16830062526135192
-0.033520454271675416 -0.14174363092688372 0.09495742146796876 -0.024638571186311464 -0.05312599630112948 0.04268076024508476 0.09968995778505345 -0.03421839663341287
0.019254029300457987 0.031175600309280647 -0.006612949748637984 0.04343698273942204 -0.009509657311383623 -0.05808077630185933 -0.036555189394613184 0.03641516527355815
0.0393137194571845 0.06121439843326858 0.03065450009530414 -0.024369812107612947 0.018415887632722835 -0.03664050452270749 0.053333498835870324 -0.04379494870134716
-0.028006001717239822 0.027530519980477015 -0.012138732090636399 0.0009657096512394725 -0.11449549627242876 0.03320179805061348 -0.1079496705209618 0.11492478641389986
00000000: 4939 0ecc 9446 97bf 9d56 54d3 ac52 a73f
00000010: 43a4 039d 2f32 8cbf 4822 77f3 7c6e 9abf
00000020: 9bdf d582 138e 753f 5d36 9c42 d79e 95bf
00000030: 1cbb 5cfc f4e0 9cbf 91eb 709a 83b7 8ebf
00000040: 2d7e cc9f 5ad8 7bbf e947 443c 3394 9e3f
00000050: acec 77a4 356a ab3f be14 0b1f f711 7e3f
00000060: eb24 1bfc 9208 9cbf 0d03 50c1 dc42 87bf
00000070: 73b5 0bd4 9316 993f 175f ff2e c07a 33bf
00000080: e8bb ee4b f130 993f 14f1 33d2 8454 9cbf
00000090: 4a53 669a 17e7 9a3f af87 df56 aa4e 983f
000000a0: 3181 f1f4 8dad 873f 6f92 3394 fa65 97bf
000000b0: 584c f231 1c40 a63f 022e 4f9f 6611 84bf
000000c0: 8af5 d0d5 4597 a1bf 2efc 03a0 6b0e 88bf
000000d0: f599 58c1 1389 acbf 475f 38e1 78c2 86bf
000000e0: ba0a a275 b7a6 62bf b5de bb91 b501 8fbf
000000f0: 87bd a0c3 f720 803f 7786 eb73 3ffa 98bf
00000100: 48e6 95b1 b842 733f 765d 2321 e062 903f
00000110: 86f3 3d4c 9704 a0bf d3d6 3285 c355 a8bf
00000120: 9e72 1def 6584 993f 1c04 38da e65b afbf
00000130: 5732 3336 951b 993f 0476 cd16 7f85 a13f
00000140: 1040 aebc 95f9 913f 8d3f b3c1 b377 9e3f
00000150: 6386 037b 0a35 833f 2a8b 4c7a bbb9 a1bf
00000160: 842e ef83 ac28 b7bf 3e6e 0127 e7e4 abbf
00000170: 7b47 31d4 4e76 833f e329 8d15 c0d3 b93f
00000180: ac48 4774 bae2 a13f 16b0 63f8 ffa6 843f
00000190: fb4b 1a3d 594d a93f de80 8e60 d9e5 a8bf
000001a0: d2e8 433d b3fb 6e3f 4d2f f5f7 5724 a5bf
000001b0: 17d8 cf00 a00c aabf cbc7 fac9 8354 b43f
000001c0: 8ee0 ca46 7581 b63f ad57 e266 4e3d 8d3f
000001d0: 2d44 9c7b 2e68 843f 9d4c 2022 ab58 9e3f
000001e0: 1976 4a48 8918 853f 4845 74fb c318 a23f
000001f0: 454b 0dcf d899 a0bf 5143 2dbe 7d09 a1bf
00000200: 24f4 cd3b b01b 713f acdc 3228 1fe0 aebf
00000210: 84a7 6536 a293 b2bf fbf8 61c9 71a4 6f3f
00000220: 92e4 7057 f398 8cbf b77c cf1a 9168 a83f
00000230: 4208 df7a d0be a23f 72e6 e932 36b3 533f
00000240: 6ddb 6d2a 62cb b0bf 3a40 10e5 377c aabf
00000250: fb51 759d 83f0 473f 67e7 1d04 bd5f babf
00000260: 0369 fca7 2ad5 833f caa3 c41b 14d9 b13f
00000270: 12b1 bf0b 124e b4bf 2c49 8984 b4c8 863f
00000280: 36f5 04e7 425c bb3f 35e5 7663 da8c aabf
00000290: 617c 5872 ac70 853f f5e1 9c7e 347b 793f
000002a0: cf14 5f3d 9597 a33f 7eee 7ee2 615b 9a3f
000002b0: 4474 fa88 e4fa b13f 3269 2fdd 385a 9bbf
000002c0: bff0 a6db feec 783f 42d0 55ad b0bb 673f
000002d0: 424a 621d 4ec1 7b3f 107d 34ac 3b1f bd3f
000002e0: 4291 353d c6c4 78bf 91da 32ee 7468 67bf
000002f0: 22c6 44af 9225 a53f 5e1f f36f 761c 9fbf
00000300: 375e 7ad5 c76d 8a3f 1137 ce5a cf27 933f
00000310: 8c28 53a0 0008 b73f c358 a742 1f38 703f
00000320: c8a7 c658 2868 9f3f c88a 9634 3e4e b83f
00000330: 9400 8611 40de a0bf cb4c c906 688b babf
00000340: ceb9 c1f9 2a27 9c3f 126f bfa7 3175 aabf
00000350: 7d23 f0d6 24eb 853f 9062 c4be 85b2 63bf
00000360: e04e 2413 eac4 b3bf d52c cb94 e0da c7bf
00000370: 8531 3142 d0e3 94bf 86ee d947 5645 b33f
00000380: 6c43 4b13 98b1 80bf f5ec 3f54 f931 8b3f
00000390: f4fa 21db c568 bf3f b4bf 4cf8 5809 b83f
000003a0: 7253 6cd4 5a63 a2bf a011 445c 6745 9f3f
000003b0: 7e3c d969 3d54 c33f f8f4 00e5 07e8 c03f
000003c0: 43b9 3152 5375 8dbf 696d a937 a8e0 b8bf
000003d0: 129f 5253 f82b c03f ae59 ce0a b193 7fbf
000003e0: 5383 1e45 8c9c a43f 080b 4bdb 84f0 8a3f
000003f0: 2e74 2e23 8197 82bf 8f1d 2a49 e1ec aabf
00000400: f2b4 e47a 30a7 c0bf 217f 5d97 48d7 a4bf
00000410: aaf6 84e6 d34b 68bf e734 993b 6e5c ae3f
00000420: 37f9 eca6 fd1a 973f bbd7 b240 6efc b3bf
00000430: 158a 75b3 64ed b7bf 1601 0e31 32cc b83f
00000440: 9e20 2f71 e9bf b7bf 6c42 d457 567b a03f
00000450: df0a 332b cce1 b0bf 7f17 d81a c970 a23f
00000460: 6fab 9560 b599 b53f 66b2 d722 12ca b83f
00000470: 4e40 b338 29e0 a83f a62e b513 b83a 843f
00000480: 2b34 0abc 51c8 c43f 1a71 d904 dc2c 7d3f
00000490: b43c a00f 5a1d c1bf 53f1 d108 bccb b0bf
000004a0: d8cd 2de6 fe96 633f 650b 0520 1ea5 b9bf
000004b0: 8085 cb45 02ba b33f 3c9a ed77 1e96 aa3f
000004c0: eb3e 1027 4397 a43f f7e4 2907 d77f a6bf
000004d0: 4473 3746 acd7 933f 64a2 29ad 9840 c03f
000004e0: 1ab3 39c5 a069 69bf 4bd5 e54a 87c7 ad3f
000004f0: 03a0 66b8 fb6f 99bf 588b cc1d 224b 8ebf
00000500: a91e da16 2aff b8bf 1124 990c 86f9 a73f
00000510: 8cfc e99b 872e 72bf 830f 093c 3af0 883f
00000520: 1dc9 c928 83c9 c13f fcc2 4a5a 50c6 93bf
00000530: ce63 0cd4 aed8 b53f 65f1 36ae 58d7 a7bf
00000540: 9e75 26c9 b684 a4bf 5a84 4f1b c3c7 a83f
00000550: a2d4 27e9 eca5 b1bf 6cfb 5d8d 85d7 9ebf
00000560: fc04 8947 1b20 a03f c0fa 3c07 7c72 a3bf
00000570: 4044 2df2 2369 b2bf d89b 8079 79a5 a4bf
00000580: b4c2 8ce1 f6c8 b63f f870 8f13 211a a6bf
00000590: 8c83 05cf 5905 97bf eb4b 9cbe 0a7a a2bf
000005a0: 6487 e7ec c10d a6bf 74be 1eac b089 bf3f
000005b0: ea93 a8da 64f0 973f d8f7 dfb1 97ad a6bf
000005c0: 7423 ed95 fa3c afbf f34a e022 ace0 ae3f
000005d0: 6484 c594 96a2 823f cb26 1bcd 71f3 91bf
000005e0: e5d1 2cbe f3bc a7bf 9c12 b4bf c4dc a9bf
000005f0: 7c01 d7d7 b7a6 82bf 9d85 1286 4b7c b43f
00000600: 8e00 7bef 6e49 c6bf 8c63 a63a 6c11 c03f
00000610: 2249 df72 a4b4 a83f fa69 2bdd bcb0 ab3f
00000620: 74a2 6612 ebee 9d3f 5ef9 8e1a 0cfc aebf
00000630: 9a2d 9851 0501 a6bf 954d 1676 1af4 bc3f
00000640: 056d 6c29 0e33 b13f 0199 39f2 a032 b43f
00000650: 83c0 10d1 47f7 90bf 6cd3 cb30 86dc 903f
00000660: 0e29 0761 6144 673f d09a bc97 8116 b1bf
00000670: 06ec 2ab5 1dbe b0bf 99f0 89ab 1800 b33f
00000680: af2a 4d97 327c adbf 411a 18ac 6105 b43f
00000690: 9286 c712 276d b6bf 5e5e 124b 2879 a63f
000006a0: 7dd5 14c2 a15b 92bf 5f6b 5b3f 929d 713f
000006b0: 6080 6bf9 5db3 9fbf e78f b48d cbe1 c03f
000006c0: 0ddf bfdd e3ab 993f 3d6b 50d4 65a7 703f
000006d0: 97fe 7b63 9985 c73f a2f0 0e94 dfc3 a2bf
000006e0: 739b a560 7757 98bf f6af 5d60 6ffb acbf
000006f0: bf7f f7f3 6feb a83f f069 b2f8 df8a c5bf
00000700: e514 b0cd 9729 a1bf 35a6 9fc1 a724 c2bf
00000710: 74a8 b72b 214f b83f 708b dc85 da3a 99bf
00000720: a28d 5ca1 5433 abbf a794 d7aa 40da a53f
00000730: 332a 6df4 4785 b93f c193 ecdc 1285 a1bf
00000740: cd92 a508 54b7 933f f6cd 0b1f 7fec 9f3f
00000750: d769 682e 2e16 7bbf f9ff 9a48 5f3d a63f
00000760: 3340 3099 cc79 83bf 5a4d 7c75 c3bc adbf
00000770: bbdc e59d 5cb7 a2bf f052 db2f 02a5 a23f
00000780: 8b98 b486 ed20 a43f 2e62 a15e 7e57 af3f
00000790: 24ca 89ad e463 9f3f ab25 0c68 66f4 98bf
000007a0: dffa 6f4c 9ddb 923f 8e97 4451 8bc2 a2bf
000007b0: cc08 9042 874e ab3f 22f8 cda0 4a6c a6bf
000007c0: af7a def5 9aad 9cbf 1204 d5eb f530 9c3f
000007d0: 2fe6 c00a 31dc 88bf 71f1 4baf f5a4 4f3f
000007e0: e384 07ac 934f bdbf ab70 9779 d3ff a03f
000007f0: b662 80f0 96a2 bbbf 94c1 25f7 b56b bd3f

arr_0 f8 [32, 2, 4, 4]
-0.7256083356370199 -0.25590584789910253 0.5277543906987886 0.6065675989988443 -0.08171935741400374 -0.60295875725613 -0.08219543023135031 0.08911269066130695
0.10078985007423844 0.0911835550406757 -0.5641073600360826 -0.36653296243128175 -0.2544354948181418 -0.03394559903723751 0.12201462895123688 -0.8211938584541775
0.9693200866217693 -0.9592772636691629 -0.6117803823892227 -0.17938592777877357 -0.41676772883323543 0.7650198384179842 -0.3614090832625332 0.2032705775563037
-0.5566605788921256 -0.4398901138572374 0.8716672480369372 -0.3087640865886582 -0.28101903230234493 -0.27601488471719765 -0.7648957198148575 1.0052926765346635
-0.03431699490626421 0.3418103171378044 -0.7356241384879467 0.09335752059779918 0.1040589342580808 0.07970297767062842 -0.8037696657569847 -0.048489676801989526
0.06395350644973599 0.09165583563484603 -0.9519920743293913 -0.09997181781272818 0.13260732712460055 0.3962680336237812 -0.7534651115109764 0.10466299945957801
-0.45466409109978506 -0.4850553038873743 1.231930422458536 -0.5606763832432659 -0.6281164032979004 -0.47902084535758305 0.9731630166630385 -0.7499853146275764
-0.4926484713526841 -0.1727453823093941 1.0569949919052997 -0.6388744273775542 -0.749397140396879 -0.1938520810431222 1.163416245400411 -0.43815472571394987
-0.7103576498401667 0.9125416211604227 -0.2636225004339508 -0.5506042735784101 0.46643042839048576 0.6570945409435374 0.802670076583423 0.19489396157552163
-0.3737293205403343 -0.3646121618805111 0.019336300482500693 0.01897003567009039 -0.25494151701640944 -1.057523097353776 -0.973874449657032 -0.6914664465619568
-0.36426004123058464 0.30705282415661833 -0.35823510193910757 0.3508154258323968 -0.38901376058505954 -0.6154987322988992 -1.0818518966560957 -0.6281258160781416
-0.4799056874869478 0.16585378537231787 -0.1040877184679778 -0.7231892410271267 0.3944126834123797 0.3861376760717323 0.6099716013477291 0.5995079781722729
-0.43779633763623843 -0.6397594482527489 -0.04120688024934558 -0.41694758637569035 -0.4740450843098098 -0.10481223322413198 -0.21900316382241986 0.3407694656650994
-0.08659663075783253 0.07859107346141242 -0.4141657609610429 -0.2157595998264465 0.1050498435282223 -0.4158860004674701 -0.06056896303360479 -0.626771047530856
-1.0358514703304111 0.5320028979214473 0.4861275509862508 0.29307213085877476 0.4283515377182239 -0.026321447461505557 -1.0755121837528618 0.3473908343686275
0.5029482381385106 -0.9303275408420547 0.10720671723061653 0.3203498442824115 -0.6781211670111721 -0.5606812831512759 0.5419787962160909 0.19131561368228397
0.42281444130582674 0.6735751741759965 0.4558490447626516 0.7565274052493094 -0.23476236825648153 -0.3246527017087793 0.5113919419485694 0.19422280661567273
-0.6135312424878777 0.04722835479793659 0.27202078016756354 -0.39448397155820497 -0.36968366083608667 0.17305662869773716 -0.05937755054510002 -0.6116035692682104
-0.9368492459546481 -0.9685186526277385 -1.0919129375413674 -0.8349347484077401 -0.3932345626210903 0.4361036290197144 -0.5766806290498405 -0.4631812928906544
0.33788470156432854 -0.7333364419046544 -0.7029778969948657 0.3350586260281602 0.6936603062283945 0.025130474555169646 -0.554480716868402 -0.13452606812340384
0.18178269379109405 0.7029759093063356 0.3946915920547016 -0.7918645716944944 0.26436256570490163 -0.03806767911331137 0.1896563711458871 -0.6784320324871879
-0.4644558037310363 -0.0012341617690363015 0.0925336467310782 -0.7677523711531198 0.09282789151036137 -0.4998556931110918 0.46702576590197276 -0.7133721796733902
-0.44016289822518884 -0.43569264899422117 -0.8362229365807318 0.6954247423434423 -0.5189054640749009 -0.05177474892068613 -1.0295646683547435 0.6015305303725457
0.29406208964510355 -0.6082268009581796 -0.8273227986830485 0.652774500492253 0.47248172294521046 0.6502595660592838 -1.0233624466969062 0.6266186255264796
-0.26318266548127056 -0.32320826677998493 0.17170619636408405 0.066387969887968 -0.11612195715873998 -0.6326858430072925 -0.03074530542668055 0.37944913568951555
-0.11318610990415157 -0.462438702941962 0.02599313821342678 -0.26760158609162416 0.025983055212777658 -0.6786622536688361 0.550570383267168 -0.38871399254494177
-0.4370936407683416 0.16559892495729348 -0.5089877202483074 -0.71299754817502 -0.7009721019958395 0.6868708904203076 0.43922943509902934 0.6161609263028514
-1.0484330015211651 0.6003891255728879 0.40107854036619484 -0.4308959640076842 -0.9236822995493457 0.6833781527053737 0.16451428096678175 -0.863994132911761
-0.1923812228427584 0.17741708724080366 -0.031678356952661045 -0.036280076336911514 0.022013930751701737 -0.00023304575944925167 0.0332103198915472 -0.06219626196987465
-0.4652479146913924 -1.0225940998707255 -1.0978443471750154 -0.44476192087234795 -0.172177903282511 -0.04863321682001297 -0.01303289888070581 -0.09465596656197386
-0.25406281419672483 -0.2085342838853813 -0.2541426643375346 -0.21013545360805172 -0.17460582727495663 -0.2849751336330802 -0.37235308027677516 -0.06367215080311907
1.278104662021381 1.4715387434078988 1.4935775091584664 1.2642902117009025 -0.24000747891073815 -0.4321655688887056 -0.24011876098429338 -0.222029158361357
00000000: 0183 e8f8 2e38 e7bf 243c e5eb c260 d0bf
00000010: ffe4 0b2d 5de3 e03f c76c 1074 0069 e33f
00000020: 7a14 8b4f 8feb b4bf 690f e829 704b e3bf
00000030: ae6b b97c c20a b5bf 4483 0cdc 16d0 b63f
00000040: c66c d615 5dcd b93f 032d d532 ce57 b73f
00000050: 4036 d9e0 2a0d e2bf 3218 a3ab 4675 d7bf
00000060: 2ddf 4bd0 ab48 d0bf 6487 6a4b 5161 a1bf
00000070: bca8 fac8 593c bf3f 6b93 b757 3847 eabf
00000080: 32af ec8e ab04 ef3f 6e2c 683b 66b2 eebf
00000090: 5646 d673 b493 e3bf db12 963a 1ef6 c6bf
000000a0: fc7b 578d 52ac dabf 7d7c 59e2 0a7b e83f
000000b0: 44c1 4590 5321 d7bf 17f3 6b31 c504 ca3f
000000c0: 2b0d aad8 29d0 e1bf 6e6f 36dd 2827 dcbf
000000d0: d003 6ab6 b2e4 eb3f 63f7 8471 cac2 d3bf
000000e0: 68b2 5240 37fc d1bf e773 c455 3aaa d1bf
000000f0: ef90 ae96 067a e8bf b7fe 09c6 ad15 f03f
00000100: d788 a345 ff91 a1bf 5cb4 6261 38e0 d53f
00000110: 6686 1ea2 3b8a e7bf 1d9e cd49 47e6 b73f
00000120: fabc 7e37 9ba3 ba3f 123a 7d12 6a67 b43f
00000130: e12d 7e29 7bb8 e9bf 7ac6 1d90 a3d3 a8bf
00000140: 3a88 aaca 415f b03f 000a 8ac0 c176 b73f
00000150: 5078 2915 b876 eebf 9cff 06c8 c097 b9bf
00000160: a4e5 9ae2 46f9 c03f d151 3799 745c d93f
00000170: 7dbb 93dd 621c e8bf 1fb8 c7bf 31cb ba3f
00000180: e51a 7c6a 3719 ddbf b6a5 bc66 250b dfbf
00000190: 9082 b6ac fcb5 f33f a36b 3599 0ff1 e1bf
000001a0: 31dc 4792 8719 e4bf 1c70 3a0c 47a8 debf
000001b0: 90d2 47c4 2624 ef3f 63c8 d933 e1ff e7bf
000001c0: 4296 3874 8d87 dfbf 09e5 c64b 851c c6bf
000001d0: 044e a494 73e9 f03f 58cb 7ac8 a871 e4bf
000001e0: 770e 37b6 0ffb e7bf 83be 2b1e 25d0 c8bf
000001f0: f913 5a5a 5a9d f23f 7adf 611e ba0a dcbf
00000200: a8dc 50f7 3fbb e6bf 48ee 637c 8a33 ed3f
00000210: cda0 76e8 30df d0bf d5d3 81da 8c9e e1bf
00000220: 52f8 f202 ffd9 dd3f ac71 7721 eb06 e53f
00000230: 6fea 0c28 79af e93f b8ce 930b 49f2 c83f
00000240: f9ba 5162 2eeb d7bf b30a c03f ce55 d7bf
00000250: 84b8 ca28 e5cc 933f 065c 3a8b e16c 933f
00000260: 4a99 7e39 f650 d0bf ae62 de56 9deb f0bf
00000270: 80fb f5bf fa29 efbf 5b7a c83d 7e20 e6bf
00000280: 5acc 1459 0950 d7bf 536a 79e3 c0a6 d33f
00000290: 72e4 c6eb 52ed d6bf 307a 388b c273 d63f
000002a0: 1609 daf8 99e5 d8bf de80 be65 2ab2 e3bf
000002b0: 590e 34ef 434f f1bf 9686 ba4f 9b19 e4bf
000002c0: ffee 3a58 c6b6 debf a8c3 0b64 b23a c53f
000002d0: 5f37 bc22 7ea5 babf 6ffa 60c3 5d24 e7bf
000002e0: bb8f 18b2 0e3e d93f 6cd1 9ecc 7ab6 d83f
000002f0: 33df e829 e384 e33f 9f1c fe5a 2b2f e33f
00000300: ad32 1dee da04 dcbf 94ae 71ce e878 e4bf
00000310: ad0e 1576 1119 a5bf 6b4d e8ed 44af dabf
00000320: 2b2c 7c31 c156 debf 651a eb79 f9d4 babf
00000330: ce3d 2bb1 4b08 ccbf a372 a0bb 2acf d53f
00000340: 3076 0c61 322b b6bf 8438 466a 8b1e b43f
00000350: 2bd7 9c1b b181 dabf bebc 86b4 029e cbbf
00000360: 6e54 67ea 8be4 ba3f 41cf b750 e09d dabf
00000370: fc90 c326 e502 afbf a530 e727 820e e4bf
00000380: 7452 c9fd d892 f0bf 1c65 fef0 2a06 e13f
00000390: cce9 4abb b61c df3f fd13 5a9c b1c1 d23f
000003a0: b03a 6c91 1c6a db3f 2148 1f70 02f4 9abf
000003b0: 79b0 7a43 4c35 f1bf 32c7 22c4 a63b d63f
000003c0: d857 4ce7 2618 e03f e782 4f43 3ec5 edbf
000003d0: acc1 6a40 e671 bb3f 832f 1ea2 9c80 d43f
000003e0: 113a 6129 2bb3 e5bf 43a6 d3df 19f1 e1bf
000003f0: 32f4 9bea e357 e13f df62 fdaf 077d c83f
00000400: a7d7 6b4d 640f db3f 1678 0f86 ed8d e53f
00000410: 89c7 ca78 a12c dd3f 4c5a 02f6 7835 e83f
00000420: cb1d ff7a b10c cebf 8d6c 1920 1cc7 d4bf
00000430: d76c 43a2 525d e03f 5d9c 46fd 4adc c83f
00000440: e7e8 b145 0ca2 e3bf 9a1f 9a9e 502e a83f
00000450: dbbb a9d8 c968 d13f 35e0 28b3 393f d9bf
00000460: e304 4aa8 e5a8 d7bf 1b70 4e38 b826 c63f
00000470: a863 6afb bb66 aebf 73f6 03a6 4192 e3bf
00000480: 070a 1545 abfa edbf 9444 53d4 1afe eebf
00000490: 861c 4db3 7978 f1bf 4291 d613 c9b7 eabf
000004a0: 1953 874c c12a d9bf 2b9f 1332 1fe9 db3f
000004b0: 4a2f 40ef 2a74 e2bf 1f66 4526 c3a4 ddbf
000004c0: 9566 c227 e79f d53f 7e41 5efc 7d77 e7bf
000004d0: f8eb ac80 cb7e e6bf 3327 42bc 9971 d53f
000004e0: fb18 3919 7732 e63f 70c0 6399 cdbb 993f
000004f0: 29cc 2658 4ebe e1bf 9c55 8673 2638 c1bf
00000500: 41e0 67c2 a744 c73f 2117 8b55 c77e e63f
00000510: 3864 f885 a042 d93f ad3e c95e f456 e9bf
00000520: 1d4f 7ff7 50eb d03f 1610 a759 9b7d a3bf
00000530: 0d5a c6f3 a846 c83f c7eb 0218 b7b5 e5bf
00000540: 9d94 ddd5 a4b9 ddbf 332b e71b 7338 54bf
00000550: 4e56 7dfa 48b0 b73f 6aee b06b 6d91 e8bf
00000560: 4592 3196 91c3 b73f 586b a8bb a2fd dfbf
00000570: 840d bc09 c0e3 dd3f ad59 b2e4 f1d3 e6bf
00000580: 788b 3201 a12b dcbf 1b6b a26b 63e2 dbbf
00000590: 3bf0 989a 56c2 eabf cc37 a663 eb40 e63f
000005a0: 5c5b bda1 df9a e0bf 61f4 be4a 3882 aabf
000005b0: 1b36 3bcd 1879 f0bf 1bdc 6ff4 bc3f e33f
000005c0: 9739 81cc e9d1 d23f 8d50 550d 9876 e3bf
000005d0: 3a86 72a9 6d79 eabf e1dc 6859 87e3 e43f
000005e0: 6f79 00fb 233d de3f 4658 4426 edce e43f
000005f0: ba48 084d b15f f0bf 246c f680 420d e43f
00000600: 406f 471b fcd7 d0bf f07a e7b9 71af d4bf
00000610: f1bf f3f8 77fa c53f 8643 844f cdfe b03f
00000620: 2124 5828 2bba bdbf ed78 8b61 f63e e4bf
00000630: a7a3 4085 b27b 9fbf 3c0b 1207 e548 d83f
00000640: d058 66d0 c3f9 bcbf ae95 6280 9898 ddbf
00000650: a934 30fa f19d 9a3f a1c2 2767 6220 d1bf
00000660: 1f61 8e51 4d9b 9a3f 9f31 11e7 99b7 e5bf
00000670: e2ea c8c7 459e e13f 6699 5ea7 b0e0 d8bf
00000680: 33ef 189b 57f9 dbbf eddf 7877 5832 c53f
00000690: c706 919d a049 e0bf d346 f13b e0d0 e6bf
000006a0: 5060 af0b 5d6e e6bf 74bf 5da9 d8fa e53f
000006b0: 7837 ccc6 551c dc3f ea66 711e 97b7 e33f
000006c0: d249 d9ae 61c6 f0bf f8b4 6641 6336 e33f
000006d0: a603 8053 45ab d93f a50c 59aa cc93 dbbf
000006e0: 28ac 8e2e ce8e edbf 8674 15dc 3bde e53f
000006f0: 9b17 3dd0 cd0e c53f 2b57 1906 d7a5 ebbf
00000700: 79b0 3caa f29f c8bf d1b4 b965 9ab5 c63f
00000710: 3b94 3446 2538 a0bf fb11 ba5a 4d93 a2bf
00000720: f634 8ae2 d18a 963f 92fd a2d4 b78b 2ebf
00000730: 5ed5 a56b f100 a13f a728 303e 30d8 afbf
00000740: 3c6e 8830 9fc6 ddbf eb6f 80a1 8b5c f0bf
00000750: 4d71 f33b c590 f1bf b1c8 29b4 fa76 dcbf
00000760: 2f9b d8ef ec09 c6bf de82 7bf7 73e6 a8bf
00000770: 05b8 b713 feb0 8abf 3a44 c198 5f3b b8bf
00000780: b6b2 86ad 9042 d0bf 84f5 b05c 40b1 cabf
00000790: e745 f697 df43 d0bf bf04 7df2 b7e5 cabf
000007a0: 9f21 ebd6 7b59 c6bf d525 c857 083d d2bf
000007b0: 94a1 9603 a2d4 d7bf 5189 5d6d d14c b0bf
000007c0: 91f3 c3df 1d73 f43f e5bd 9b35 6c8b f73f
000007d0: 2f07 be87 b1e5 f73f 5e88 7e5f 883a f43f
000007e0: a4c7 5ba8 90b8 cebf f463 35c6 99a8 dbbf
000007f0: c7b2 ca28 36bc cebf c2d0 f592 736b ccbf

arr_3 f8 [36]
-0.16729714102232243 -0.3080062329379048 -0.22436933214210245 -0.042255771099299705 0.0844788322877294 -0.016635280957914375 -0.1867185370262517 -0.2653524474578552
-0.15884595859695994 -0.3040998640865219 -0.1062858650875754 0.07841390401474338 0.4895309025543397 0.8752269937025106 0.49314222273461655 0.07286583460401411
-0.08851363311531998 -0.3055821253426677 -0.3514848943530096 -0.11879311103785131 0.06254214295746957 0.5082218370097016 0.8781669819360088 0.5130364958812178
0.0856761896525081 -0.0762148479472882 -0.31761131174124435 -0.18319769482530096 -0.3232695966841498 -0.1665036946896992 0.029105237848602007 0.1269413245490395
0.024763214234046284 -0.19969416131493417 -0.26423860154358975 -0.14714201095677507
00000000: c5dc b322 fe69 c5bf 69ad 5bc6 5fb6 d3bf
00000010: dd49 e35f 22b8 ccbf 64a4 e065 8ca2 a5bf
00000020: 0c4c e19d 67a0 b53f ac30 b2ce d608 91bf
00000030: fbd7 0a9d 64e6 c7bf d7ae efd4 88fb d0bf
00000040: 904a a37a 1055 c4bf da0e be46 5f76 d3bf
00000050: 3605 94ea 8c35 bbbf 8285 4b01 ef12 b43f
00000060: 4b8b 366c 7954 df3f f4ea 500a dc01 ec3f
00000070: d500 bb65 a48f df3f 62b7 9ed8 55a7 b23f
00000080: 3efe 7a57 d4a8 b6bf 0ab1 a554 a88e d3bf
00000090: 3130 927f ba7e d6bf 92cd e5ae 3969 bebf
000000a0: 44c4 9f0a c302 b03f 123b 2271 5a43 e03f
000000b0: 25f3 7aa4 f119 ec3f 4bdb 6e83 cb6a e03f
000000c0: 7779 9af0 dfee b53f 2239 67f7 d082 b3bf
000000d0: ea2b 3165 be53 d4bf ba16 fda5 0573 c7bf
000000e0: 8e2b 63f6 72b0 d4bf a17e ad39 fe4f c5bf
000000f0: 6ae5 ce72 c3cd 9d3f 5c7a b902 9d3f c03f
00000100: a7c4 1d2d 875b 993f 8a5f 060a 948f c9bf
00000110: 8f1c fe05 49e9 d0bf ada8 76a6 8cd5 c2bf

arr_1 f8 [32]
-0.7735949538407612 -1.1244829294166292 -0.3940870332304248 -0.1172348319879361 -0.31165635853290713 -0.6900887660572322 -0.34814029976577326 -2.0627790276186793
-0.849604445306498 0.07413602501079045 -0.020386755205758198 -0.6598806599232488 -0.4157196863479527 -0.2185707858063413 -0.46288636958766727 -0.28760436055007516
-0.37877678385438046 -0.3759659605558724 -0.9785471185068546 -0.15829005798909565 -0.8416245913262068 -0.5580074928925289 -0.2325182918291702 -0.49045434034839264
-0.4374258993504104 -0.3499614939475353 -0.001973384566397779 -1.0466735523705255 0.36224459938142134 -0.41878887264983883 -0.34645254812893755 0.21469108191211256
00000000: 2818 6334 4ac1 e8bf 3f13 eccf e1fd f1bf
00000010: 5626 e0d1 b838 d9bf fc19 5719 1a03 bebf
00000020: 7950 df82 2df2 d3bf 99b0 3109 3515 e6bf
00000030: f578 7a40 ee47 d6bf abf9 734a 9280 00c0
00000040: 8b15 64a9 f52f ebbf da74 e01a 94fa b23f
00000050: 896a 85fb 43e0 94bf 9943 b40b be1d e5bf
00000060: cdbd 4abe 269b dabf d91a 73a4 20fa cbbf
00000070: 302a c926 ee9f ddbf e1f8 af1e 1c68 d2bf
00000080: 3bdf c8fa e03d d8bf e6c9 3f88 d30f d8bf
00000090: 8e9f f20b 4250 efbf 8b2c 2c3f d942 c4bf
000000a0: 6e2c e8b1 96ee eabf 04af 9c87 32db e1bf
000000b0: 9964 90cd 28c3 cdbf fe90 fe99 9a63 dfbf
000000c0: a189 0833 c9fe dbbf 384b d7e4 c465 d6bf
000000d0: 737f 9ac5 7c2a 60bf 1450 50c4 2cbf f0bf
000000e0: 9fbb dff8 032f d73f d16c fdd7 6fcd dabf
000000f0: 0819 f54e 472c d6bf b616 c753 ff7a cb3f
