results/params_6.npz (npz, 98830 bytes, 4 tensors)

arr_2 f8 [336, 36]
0	0xbfb943b57d2fedae	-0.09868940645531296
1	0xbfbfbb3155d29a00	-0.12395008416442721
2	0xbfb3a38bc117192a	-0.07671426262013328
3	0x3f9d6a8fcb3ac7f6	0.02872681310572741
4	0x3fbd72708bd7f39b	0.11502746023320613
5	0xbfb7c14210db4982	-0.09279263412034847
6	0x3fb29f693a253847	0.07274491948666749
7	0xbfaf490975a38586	-0.061104102716636396
8	0x3fa4f981cd81c095	0.04096608766201474
9	0xbf83192241942277	-0.009325282694150545
10	0x3fb36dff432ffcfd	0.0758971728355284
11	0xbf912c9ee7287d69	-0.016771777018332133
12	0x3f780d5ee4215e61	0.005872126263134798
13	0xbfa78d188aa3fab2	-0.04599835102452711
14	0xbfb65050fee523ce	-0.08716303084396701
15	0x3fbcce1884c7181f	0.11251977197306971
16	0x3fb40935d1397dc7	0.07826553686162817
17	0xbfbdd2a40c887486	-0.11649537378294114
18	0x3fbe0c85c9b6e151	0.11737857985179302
19	0x3f9ebac9c8f376cf	0.030009415521695722
20	0x3fa2ab7569fef6a1	0.03646437567611583
21	0xbfb8357948269284	-0.09456594478121799
22	0xbfb240e6f3c532cc	-0.07130282832549567
23	0xbfb5fb26002d6c07	-0.08586347107250002
24	0xbfbb4c1219e69060	-0.10662949688281875
25	0x3fb24cf43e4b3f3f	0.0714867260060119
26	0x3f759e579ede4d2a	0.005277960079087133
27	0x3fb7d273152d419d	0.09305495516787805
28	0xbfb2b65438c854b4	-0.07309461962025204
29	0xbfaca5c5c9ae8f49	-0.05595224463402688
30	0xbfa1ecc65ceb0845	-0.03500957378629769
31	0x3fb997598f9aa36f	0.09996566539724737
32	0x3f9a9960d218f351	0.025975716422397103
33	0xbfba5fd1b6a4c344	-0.10302458485672356
34	0x3f9bef228976f95e	0.027279414787466087
35	0xbf91a4bb3042cd07	-0.017229962177862237
36	0xbfaaa7511c5be640	-0.05205777617625218
37	0x3fbe00382d031aa0	0.11719084834030946
38	0x3fba24f255058978	0.10212626052592622
39	0x3fba9e1655e3ee8b	0.10397471997196754
40	0xbfa11a87e0c587d5	-0.03340553873819344
41	0x3f88512bc9d0d8ee	0.0118735714878366
42	0x3fb573590084498b	0.08379131567588709
43	0xbf7bac1fa69ad06b	-0.00675594676583922
44	0x3fbf0a33b6bc41b9	0.12124942027390419
45	0x3fbf10ebaff454b6	0.12135193868410252
46	0xbfba97607eed0d3c	-0.1038723287465943
47	0x3f92414cbd1de0c5	0.017827223818557742
48	0xbf969f2756b90780	-0.022091498058450565
49	0x3fbeb9ee33096306	0.12002457376491912
50	0x3fbaf5dec89f2a5b	0.1053141822623415
51	0xbf8dcf913a88aabc	-0.01455605945473814
52	0xbfad97eab66c53f0	-0.05779965855450786
53	0xbfae460591335295	-0.05912797353235991
54	0xbf9fd1a1ea4cc251	-0.031073121953513475
55	0xbfa569000e94f731	-0.041816713123337464
56	0x3fb86c279e7121c1	0.09540031069003076
57	0x3f9ba499243e73b1	0.026995079838900874
58	0x3fb23690e6ef6d5b	0.07114511144702844
59	0x3fbb42dda821c0dc	0.106489041850867
60	0x3fbd684441f83c06	0.1148722325381045
61	0x3fad51b279d4eb80	0.05726392495349497
62	0xbfbeff32ad8d3a20	-0.12108151185132288
63	0x3fb6fda918ba3f7c	0.08980805257510655
64	0x3fb9a0677ed24422	0.10010382505630891
65	0x3fbf9a9121de123f	0.12345225407450132
66	0xbfa8d31a840b32bc	-0.048485592478390654
67	0xbfbd5871efae53ab	-0.11463081456743278
68	0xbfa22e92056e49e5	-0.035511553919736184
69	0x3fbf5d255ccac038	0.12251504435948923
70	0xbfaac76d27c8170a	-0.052302752596046956
71	0xbfb4f8ed642d523b	-0.08192332931259554
72	0x3f76194a85126b03	0.005395213215843911
73	0x3f86b3608b71c6e7	0.011084322219378119
74	0xbf7f7714de80aede	-0.00768192436229828
75	0xbfb476c687ee9b27	-0.07993737047818837
76	0xbfb2ac18d1e590df	-0.0729384911006181
77	0x3fb5303e210d0f7b	0.08276737505826574
78	0xbf970738c954bffe	-0.022488486564895986
79	0xbf9d2487386ca11e	-0.02845965654265214
80	0x3f4aef10a57e2aa5	0.0008219558030629527
81	0x3fb4d06bd3976f37	0.08130525508698559
82	0x3f945ed65f3838c8	0.019893025933975378
83	0x3fbce9998204dd74	0.11293944763462155
84	0xbfbfb99c88cd45f9	-0.12392595615281
85	0x3fb94e76e8e1d943	0.098853523117076
86	0xbfa07c1f7d90d7ea	-0.032196983411651406
87	0xbfb427fb002e97c2	-0.07873505358165203
88	0x3fa14ec44c94e767	0.03380406794390361
89	0xbf90da0b5b42bde2	-0.016456773228751838
90	0x3f9aeaba6e77d258	0.026286042206225296
91	0x3fba483ae7a60552	0.10266464381677068
92	0x3fb1ba75dae5055b	0.06925140947443735
93	0x3fb2afe8e8765be9	0.07299667048788162
94	0x3f5f6691d988fefe	0.001916544371979911
95	0x3f9df89486ae792e	0.0292685706332289
96	0xbfa197aa16418851	-0.03436023255996246
97	0x3fbd78ae562ab89a	0.11512269595798089
98	0x3f8b9bd9c7e1072a	0.01348085538132045
99	0xbf743b60d132955c	-0.004939439956762239
100	0xbf883b99f53508b9	-0.011832430644635005
101	0x3fa9c865b32d1c94	0.05035703479966816
102	0x3fba7dda9e9c5f68	0.10348287937483536
103	0xbfa34c8828ba9c58	-0.03769326684169333
104	0xbfb46e0890aa0f86	-0.07980397731631514
105	0xbf8013dae2b2ea57	-0.007850370448399575
106	0x3fa01107dc09e7f6	0.03137993393916354
107	0xbfaac70affb96408	-0.052299827305155644
108	0xbfae9199830f3f78	-0.05970458721969768
109	0xbf820e07c417e94c	-0.008815823241992725
110	0x3f64dba82f45f90f	0.002546146855990312
111	0x3fa7d2283dd80ba0	0.04652524714403872
112	0xbfa927007c50dcbb	-0.04912568585899054
113	0xbfa9cfb9971b39ea	-0.050412940688705124
114	0xbfc3f24ef86a21c0	-0.1558321679078869
115	0xbfbade6db10d8dea	-0.10495648930150706
116	0xbfa820fda9cd55fb	-0.047126700380129415
117	0x3fd2b7d89dec1aef	0.2924710790834259
118	0x3fc6b6f676de6eec	0.1774585800566152
119	0xbf9ffc85adb70618	-0.031236733176916415
120	0xbfb56dfb88a0c99f	-0.08370945058485411
121	0xbfb784f5b6ee6d88	-0.09187255588624599
122	0xbfc36ef49d478436	-0.15182359389931016
123	0xbfb1727612f1c727	-0.06815278971205584
124	0x3fb7e36791346652	0.09331366820369993
125	0x3fb5b446fdf21873	0.0847820634827217
126	0x3fa83fa84e778ab5	0.04736066778038631
127	0xbfcd703912abb732	-0.22998727237375644
128	0x3fb3b4619bbcf604	0.076971149942402
129	0xbfba193ac54e404c	-0.10194747273476529
130	0xbfb6af0a8c1fc069	-0.08860841675755328
131	0xbfbe7c60a8b8ed01	-0.1190853511733856
132	0xbfb04c5840d572ac	-0.0636649282727812
133	0xbfb0170fd07df89e	-0.06285189476145311
134	0x3fb2a81173023e21	0.07287701661902492
135	0x3fb6a3d1ac93121e	0.08843718016857635
136	0x3fc214c48a5545c4	0.14125878099961942
137	0x3fb7f73e256359f4	0.09361637509150694
138	0x3fc945772de00b11	0.19743242015837173
139	0xbf70fae805810077	-0.004145532926543286
140	0x3f6c8fdfb24531a5	0.0034865731305783903
141	0x3fa8010730f123c0	0.04688284370838103
142	0x3fb446c64d998009	0.07920493502160765
143	0x3fc200b8171ee0d7	0.14064694527565422
144	0xbfc18d044bf5617e	-0.13711599072372488
145	0xbfb649f1deb3f2cd	-0.08706580817301841
146	0x3fc565d8ec4ed3f8	0.16717063463661908
147	0x3fca01c53261114a	0.2031790252677957
148	0xbfa4820eeab096f9	-0.04005476584306495
149	0xbfd33971452ed3af	-0.30038100963730135
150	0xbfb456aa84f0c013	-0.07944741960159289
151	0xbfb6f518ae583221	-0.08967737442453273
152	0xbfb4acdab148aa98	-0.08076254680842465
153	0x3fbd803ea1a5ca1a	0.11523810812449434
154	0x3fc0e7bc7fe5d231	0.1320720314503361
155	0x3fc5986ae5b0b009	0.16871391501752012
156	0xbf6fd4841aae11ec	-0.003885515228321026
157	0xbfcfcaa38ece2159	-0.24837154839429834
158	0xbfcb1e8944640e0d	-0.21186939086338477
159	0xbfc88aa7beadef0b	-0.19173142252463324
160	0xbf910fc0e97338cc	-0.016661657570517005
161	0xbf86c164d6704929	-0.011111057085177638
162	0x3fd03d3efba31d17	0.25373816083852446
163	0x3fbc3f7585252d0b	0.11034330845466316
164	0x3fc0dc823494bf12	0.1317293888800966
165	0x3fcb7b3746c32de5	0.21469775157161944
166	0xbfcb3af5f322ca07	-0.2127368390261639
167	0xbfb53ab9f8920be2	-0.08292734449973652
168	0x3fa23195727c637b	0.03553454420597909
169	0xbfb5b5e4dcc815a1	-0.08480673208403867
170	0xbfaf02e1d53692a3	-0.06056886413288012
171	0xbfa7a459a015d196	-0.04617576674619099
172	0x3fb07345d264d430	0.06425892244881548
173	0x3f91744de7b6a25c	0.01704522825972031
174	0x3fb65e01e204225d	0.0873719384000053
175	0x3fa7d20a1ca72258	0.0465243492104192
176	0x3f86fe5f8c520bec	0.011227365941754962
177	0xbfc38ffaa17d9921	-0.15283139119419167
178	0xbfbf2c60747a36de	-0.12177088588415638
179	0x3f68e4f259313544	0.0030388577811552315
180	0xbf9a22b5863fcfa0	-0.02552302963154285
181	0x3fba1c879985c4cd	0.10199782846554513
182	0xbfb3a076bfe3ff13	-0.07666723427609794
183	0x3fbde040fa27547d	0.116703091690697
184	0x3fb53de04ed62bc3	0.08297540592881973
185	0xbf877865c20ff434	-0.011460108742534648
186	0x3fa75cd0a35d82d4	0.045629997198153
187	0xbfafd6669c4f31cc	-0.06218262346337475
188	0xbf7164681320ab14	-0.004246145765175031
189	0x3fce4eb38f59778c	0.23677677630888316
190	0x3fb6bf1afc8052a2	0.08885353722173275
191	0x3fb197a91916fab8	0.06872040617507025
192	0xbf5829a3e26e0da1	-0.0014747715410699874
193	0xbfba0f7fe96592b1	-0.10179900596774406
194	0xbfb58143385c8baf	-0.08400364042294826
195	0xbfc1608b3c072798	-0.13575878554393905
196	0xbfc4cac51ae0cf08	-0.16243804752740965
197	0xbfae0ba6ca14fd73	-0.05868264405080028
198	0x3fb3a1a766718c3b	0.07668539286673674
199	0xbf48664f6702f2f9	-0.0007446181971527403
200	0x3fc3c62cbfeb18d0	0.15448531504643492
201	0x3fb6ac9feba41067	0.08857154372168595
202	0xbf9f625f844b2ac5	-0.03064870114284692
203	0x3f97897e4c1ef6ce	0.022985433002523696
204	0xbfb17d9aa2e7a238	-0.06832281567734177
205	0xbf73036c78708b3b	-0.004641936981928658
206	0xbfc31244901231eb	-0.14899498972626132
207	0x3fa589750cbc4fe1	0.04206434040511887
208	0xbf820f8d36a2fb7a	-0.008818724851492144
209	0x3fb68431eb9f3b2e	0.08795463564386516
210	0x3fc25a14024c93ec	0.14337396728765783
211	0x3fa6a348f7d2a330	0.04421451592617698
212	0x3fc6f20f53bafb08	0.17926208103559582
213	0x3fb011967234fe34	0.06276836670166902
214	0xbfc5f8dd048d7178	-0.17165720674791962
215	0xbfc055b0bf68ba7f	-0.12761506410739185
216	0xbf9685dd17f92377	-0.02199502428837571
217	0x3fa4c588542b6d74	0.040569553637136574
218	0x3fb6597e5ce8fcf4	0.08730306404412486
219	0xbfb317390ca64435	-0.07457310255837586
220	0x3faed0c28c4dc09f	0.06018646204654598
221	0x3fbb07aa11149796	0.1055856982898987
222	0xbfb1d10ffc6e80b1	-0.06959628975755795
223	0xbfb1031d6566dccb	-0.06645377851133387
224	0xbf9941094b954c8d	-0.024662156332237607
225	0xbfbfdeea87507c93	-0.12449518016409149
226	0xbf7ba731befd1405	-0.006751245804314192
227	0x3fb132adcc79e5a2	0.06717954866498713
228	0x3fa62a4c5de215de	0.04329146047625064
229	0xbfa60188550b1a0d	-0.04298044241072683
230	0xbfb39f538224d3dd	-0.07664987494793203
231	0xbfbf43e6758f6ac4	-0.1221298253071082
232	0xbfb7c9a0cceb57c1	-0.09292035105622089
233	0xbfc7fee1836d227f	-0.18746584813404252
234	0x3faac4a9955f6316	0.05228166530986848
235	0x3f9e21fbe071ab26	0.02942651326558656
236	0x3f91ec96faa1e9f9	0.017504080817596777
237	0x3fbff99d65f6b8a4	0.12490257014607892
238	0xbf8106ed6fd747fc	-0.008313994384398164
239	0x3f8034a6d3c1e261	0.007912925088235658
240	0xbfb6ec831c7c4a6d	-0.08954638905951535
241	0xbfa32b633dc0643f	-0.03744039658358433
242	0xbf64fedb161ffc1c	-0.0025629309684514056
243	0x3f9fdf62aa059bf3	0.031125585200609106
244	0xbfb9376cc9b2b406	-0.09850196766156225
245	0xbfc3bf4abb3de336	-0.15427526610053527
246	0xbf9bbdc6c9aa7d17	-0.027091127451623977
247	0x3fa9c238aa4b76a6	0.050309916294037735
248	0xbf66122beecfe067	-0.002694211775175193
249	0x3fbc794537ce5bbf	0.11122543919041926
250	0xbfb5f58c0dad5adb	-0.08577800115504479
251	0xbfcf57cc643cdcc2	-0.24486689466878003
252	0x3f9de622e7f96d3b	0.029198213013257073
253	0x3fb00f0d2bfa5bc9	0.06272966693573702
254	0x3fc1114706664db8	0.13333976566773997
255	0x3fbdca158816328c	0.11636480877332128

arr_0 f8 [4, 2, 4, 4]
0	0xbfda5d2d68d18928	-0.411937095987144
1	0xbfbcdd48368e01e6	-0.11275149661924608
2	0xbfccf48c8d5450d9	-0.2262130441746482
3	0x3fe988e8b8462cbe	0.7979625319579993
4	0xbfb271bfe3473462	-0.07204818056853093
5	0x3fb9c109c503c4f9	0.10060177860193055
6	0xbfc343fd942b47e2	-0.15051240668122917
7	0xbfc93b051a2e36eb	-0.19711364534707995
8	0xbfcac45ee68f1522	-0.2091177583480795
9	0xbfa725bc9f7ee477	-0.04520978400200531
10	0xbfc3b4e44cf6e8a1	-0.15395787961989973
11	0xbfdc42af4b3a81cd	-0.4415701136258832
12	0xbfed9ddab28aa11e	-0.9255193221224862
13	0x3fe8963e65771bc7	0.7683402997725971
14	0x3fea33440fa0868f	0.8187580399719127
15	0xbfd2acb78a517c24	-0.2917918062939313
16	0xbfe526537119361d	-0.6609284600214697
17	0xbfee2a40a5e534de	-0.9426577797072715
18	0xbfc82094d2290c60	-0.18849430333839035
19	0x3fe74dad12a587d1	0.728231941622875
20	0xbfd1dfda85970481	-0.27928793950929537
21	0xbfe6596fa8ee3acd	-0.6984175013947947
22	0x3fdb90eabe595f90	0.4307200297239371
23	0xbfd4249dc711e496	-0.31473488274020534
24	0x3f614ce16f70117c	0.0021118548424984823
25	0x3fb01c7d88c1cd2b	0.06293472851557584
26	0x3f9a8f4d12d2abb0	0.02593727519403516
27	0xbfd352d779a3a659	-0.30193125609239285
28	0xbfee97d81ed426df	-0.9560356714366341
29	0x3fe04445e5f3de81	0.5083341113340368
30	0x3fe121e257dda64a	0.5353862491730947
31	0xbfda15c24b894fa5	-0.4075780618343237
32	0xbfd26d5bc75aa8f9	-0.28792471378495993
33	0x3ff4270af96c6f38	1.2595319502933773
34	0xbfe34358c92ade99	-0.6019710473110137
35	0xbff1a2a7a9c0fea9	-1.1022106772433438
36	0x3fd9fc31feaf744b	0.40601777907960884
37	0xbfd29012886e1465	-0.29004348109476147
38	0xbfd33f4f8d2356f0	-0.30073918135654676
39	0xbfeb0dca246024a8	-0.8454333029232162
40	0xbfd5194b7de7329f	-0.3296688775560969
41	0xbfd39928168d7b25	-0.3062229366532157
42	0xbfd2a4f9fdfba2ff	-0.29131936839125666
43	0xbfd8826ad5649f80	-0.38296004141965767
44	0xbfdf28418b7bf768	-0.4868320333624667
45	0xbfe91785c6140772	-0.7841214054790113
46	0xbfd4b2ba71e19f5e	-0.3234087097284738
47	0xbfd312efc69e8274	-0.29803079983142955
48	0xbfd265ec4b06c6fc	-0.2874708874397667
49	0x3ff13c25bbb48c1d	1.077184422706302
50	0xbfdcc9e1c514165f	-0.44982189413017254
51	0xbff1d581b7bd7122	-1.1146256615966839
52	0x3fd067dba009db6e	0.2563389838100453
53	0xbfbfdeaae2aa6ab9	-0.12449138673620554
54	0xbfd287e0d472893a	-0.28954334971253426
55	0xbfecb6520023d9c0	-0.89725589778282
56	0xbfde7a713ecb57cd	-0.4762232888436955
57	0xbfd0bf97fc42125a	-0.26169395098285053
58	0x3fbfa49180a1f239	0.12360486402935401
59	0xbfe049398a5ba167	-0.5089385702422476
60	0xbfdbe855eba9829a	-0.43605564130670305
61	0xbfe4361883a5c4de	-0.6316034861794397
62	0xbfb135d7bf8a7557	-0.06722782541551929
63	0xbfc89aeb53b13022	-0.1922277601864844
64	0xbff7ca8a69afaf89	-1.4869484070177086
65	0xbff922fef67d2795	-1.57104393276902
66	0xbff969389ea32303	-1.5881887623565383
67	0xbfefec6d4b8cfb5e	-0.9976107097244087
68	0xbfe53c2801315627	-0.6635932944579438
69	0xbfba8f78b401bfd7	-0.10375170130441745
70	0xbf9fbcc4929fcf94	-0.03099352974818677
71	0xbfc2c6b0f3906f02	-0.14668857472212699
72	0xbfe95771a522c336	-0.7919243073757574
73	0xbfb38f24aae7bc57	-0.07640294239512123
74	0x3fb6867a91c50e41	0.08798948344070202
75	0x3f79af5a1c620175	0.00627074431952256
76	0xbfe8ed7ebd5fe17c	-0.7789910982819914
77	0x3fc59c1e91fd058a	0.16882688644731686
78	0x3fbd142b48f3f182	0.1135890057666469
79	0xbfba13f690cbf3f6	-0.10186711344790908
80	0x3ff1d34f16cdda4c	1.114089097097934
81	0x3ff3ec8a7a450842	1.245249250045632
82	0x3ff51d6faf5af574	1.319686589223548
83	0x3ff0400d6b624f1e	1.0156377978027602
84	0x3fe73a2df6a2cc32	0.7258519951923346
85	0xbfdbba0dc638787d	-0.43323082311133715
86	0xbfd90bca1cc502e1	-0.39134457406548334
87	0xbfc85da13d3e9586	-0.19035735598042097
88	0x3ff1bb0bf6cfc21a	1.1081657067371737
89	0xbfe4a9b57bc7f6b3	-0.6457164208984153
90	0xbfdd14d6a92bb955	-0.45439688225350966
91	0xbfa9a99cc4d4a4ab	-0.050122164752175756
92	0x3ff87105f87036a0	1.5275935845014956
93	0xbfe51c4b07d34dfb	-0.6597037461128247
94	0xbfd1d3ad7d9e67cd	-0.27854478137453215
95	0xbfb60cd32e6a68f7	-0.08613319285578656
96	0xbfc9b6c30f1c6852	-0.20088995206680466
97	0xbfb919a8ba0df092	-0.0980477766260626
98	0x3fb33a3fd9c3e5e4	0.07510756556066372
99	0xbf874fe614d61f7e	-0.011382863531949058
100	0xbfe63149ee31ab48	-0.6935166980959844
101	0xbfd4604a5d00cc9c	-0.31837710459076063
102	0x3fc70b541739778b	0.18003321775443867
103	0xbfc875b0afff587b	-0.1910916194307822
104	0xbfd360a14e656e2b	-0.3027728334033976
105	0xbfcf0ee47c5789b2	-0.24264198371299767
106	0xbfba72238bfa6fc1	-0.10330412070692231
107	0x3fa4770b97f61565	0.03997074346538446
108	0xbfdd472fc5eccc49	-0.45746988609898104
109	0xbfe7825b80430748	-0.7346627717126717
110	0xbff6878fcca1e397	-1.4080961221172623
111	0xbfe15b69d5a4824a	-0.5424088642794882
112	0xbfeac479cf5aff3e	-0.8364838647757791
113	0x3ff31ac2e4c4e7f1	1.1940335212989306
114	0xbfe374431b1b65eb	-0.6079421548303662
115	0xbfdb73bc66af448f	-0.42893896129414427
116	0x3ff3e54524485d7c	1.2434741418163346
117	0xbfe13f0245595856	-0.5389415125344026
118	0xbfda4c53915f49e3	-0.41090859600549673
119	0xbfd86f19e27f4c99	-0.38178107375024123
120	0xbfe70d4cec99e5bf	-0.72037359439053
121	0x3feddf92d4b2bc7f	0.9335416940938471
122	0xbfe1a691e980d76a	-0.5515832481967042
123	0xbfe8895d36dc3fe9	-0.7667680808535781
124	0x3fb8e307b9414812	0.0972142054827432
125	0x3fe81fa8fedb4787	0.7538647630374137
126	0x3ff3bc9d11c4c9a1	1.2335482305612475
127	0x3fe7e775d1c3d17d	0.7470044228526117

arr_3 f8 [36]
0	0xbfe0978e4d61477d	-0.518500472195441
1	0xbfdf9ffdb6c86dcb	-0.4941400799741273
2	0xbfcae5e0cf9ff3e7	-0.2101403249543232
3	0x3fc035e246c4bcf1	0.12664440589421802
4	0x3fcf1c129ad0982a	0.24304421004598115
5	0x3fc5c7462cb02b61	0.17014386350669056
6	0xbfbc5b1bc9b95aee	-0.11076520609763538
7	0xbfd8cea773e18efb	-0.38761316601288315
8	0xbfd8520f6187c7b6	-0.38000854992344146
9	0xbfeb0162bd222228	-0.8439191526422904
10	0xbfcfbf0f50f36fb4	-0.24801818325692937
11	0x3fc879344144e2a0	0.19119885622946686
12	0x3fec9d33aa477155	0.8941896749270578
13	0x3ff525563a9269a7	1.3216154373136335
14	0x3fee0a5a29006ba5	0.9387636948407488
15	0x3fd1c0567e917fec	0.27736437187377194
16	0xbfc41a38cbe2105e	-0.15705022769191407
17	0xbfeb97050b24056b	-0.8621850221244761
18	0xbfe9b9b551be7af5	-0.8039194675983184
19	0xbfd00b6aeb4934c9	-0.2506968782152624
20	0x3fb818f10e016a18	0.0941305789178063
21	0x3feb15638bd70cc9	0.8463609439135321
22	0x3ff4f9202d738238	1.3108217025220608
23	0x3fed1c6bd120675f	0.9097193798545326
24	0x3fc90e3705d26627	0.19574630531569534
25	0xbfc9042b76f8262a	-0.19543975171136313
26	0xbfe9bfb7a58cbb91	-0.8046529992478658
27	0xbfe09fbcee324b00	-0.5194992687487172
28	0xbfde87cfd7d51eef	-0.47703929974930664
29	0xbfc15308d1607236	-0.13534651015733495
30	0x3fcfbb0ebf400a4e	0.24789604509722313
31	0x3fd729e1c826c7db	0.3619312719921461
32	0x3fd0a20d045c3fc9	0.2598907988149191
33	0xbfbae097fc04d869	-0.1049895277290901
34	0xbfd9785c4330153e	-0.3979712158328147
35	0xbfdf344904d8fc32	-0.48756623719595205

arr_1 f8 [4]
0	0xbf91abe70a6b1eca	-0.017257318507090592
1	0x3fd293050cc36970	0.2902233719484206
2	0xbff41489b26f7c6f	-1.2550141306053566
3	0xbfe8920fd9902bb6	-0.7678298234253507
