results/params_9.npz (npz, 98830 bytes, 4 tensors)

arr_2 f8 [336, 36]
0	0x3fa4dc6c5c55fbbc	0.040744196197003174
1	0x3f9feeabcba2e8f4	0.031183895400979503
2	0x3fb95107bcdcd34a	0.09889267311957642
3	0xbfb1718706b9393e	-0.06813854135655092
4	0xbfb6ef9142a01ece	-0.089593008771881
5	0x3f99f2c2db2386f5	0.02534012281910854
6	0x3fb28384ac9b3b3c	0.07231930936835068
7	0xbf85b9fb3e66ad25	-0.010608637658910578
8	0x3fa53643f679e77f	0.041429637753892294
9	0xbfb17a2e159fec6c	-0.06827056911417778
10	0x3fb9d170c0b93fe0	0.10085205750624437
11	0xbfba4688372b8b35	-0.10263873431135269
12	0x3fa2cb342df0deb5	0.036706572158832364
13	0x3f9316f7d3da1979	0.01864230375806517
14	0xbfb1ea68081df0ad	-0.06998300741355719
15	0x3fb9cd32f3986b14	0.10078733870652129
16	0xbf6e221d2477f3f3	-0.0036783761204319753
17	0x3fba01f33054b2cf	0.10159225397064663
18	0xbf837a679db49b8e	-0.0095108122828387
19	0xbfb6685655582165	-0.08752955993270957
20	0x3fbee0c476ad99c0	0.12061717889228074
21	0xbfba4972227f64cf	-0.10268319456317275
22	0xbfb34e941cb4643d	-0.07541776371762494
23	0xbf9c4a3cf5c9854e	-0.027626945974025312
24	0x3fac282a735adc4e	0.054993940907870895
25	0x3f0265c636862e37	3.50905527880221e-05
26	0x3fa2eb760060e62c	0.03695267443295011
27	0x3fac1fd49e04d195	0.05493034771862707
28	0xbfbcba5779e5aa80	-0.11221834875110837
29	0x3f91446fbb3a273c	0.016862626841010128
30	0x3f7788caeaa39fc4	0.005745690005120655
31	0x3fb7134e91a2a0e4	0.09013835006283305
32	0xbfb495f649e615b1	-0.08041323951882508
33	0x3fba863e818e0d2f	0.10361090338669919
34	0x3fbd56a27ee255bc	0.1146031913543401
35	0x3fb1dfe0a1467953	0.06982234895119648
36	0xbf9c53b0fea1be01	-0.027663007298938783
37	0x3fa963f962c205b9	0.04959086733380098
38	0x3fb8fe9aff72428a	0.09763497101290333
39	0x3f955b4cc46a869f	0.020856093872345324
40	0xbfb66d5d635810ee	-0.08760627437010601
41	0xbf9d529a6bc72e7c	-0.028635418728113468
42	0x3fb106e6ac173c01	0.0665115518706756
43	0x3fb634cbc8cebdd6	0.08674310352829848
44	0xbfbcb98d0680be83	-0.11220628174555185
45	0x3f951058edd4d842	0.02057017280204599
46	0xbf859ae67b551f7c	-0.010549355162438927
47	0xbfb614b90716a6ce	-0.08625370429094945
48	0x3f92c362649fc2f4	0.01832345713768553
49	0xbfbcdf58e69a263f	-0.11278300886092384
50	0x3f9405554d679ffa	0.01955159459058107
51	0xbfb1af72c8d6c1cd	-0.06908337977689101
52	0x3fa9e9d69de0f809	0.05061217000228175
53	0xbfb8b9c8dee0cf16	-0.096584848798383
54	0xbfa807b2239cd50f	-0.04693371472095908
55	0x3fa44abc71223eed	0.03963269120242594
56	0xbfa9b40cc61978fb	-0.05020179670531096
57	0x3f9ba95f1ea638b6	0.027013288732228267
58	0xbfb103a489e2c12d	-0.06646183363296095
59	0x3fbda3b267c0a375	0.11577906640071751
60	0x3fb6569c77e2cbc5	0.0872590820970763
61	0x3fa950727e605556	0.04944188873939008
62	0xbfb6196ffaf08e19	-0.08632564426857704
63	0xbf78a44f611eddf7	-0.006016073299114569
64	0xbfa69d4ec835076b	-0.04416891282973164
65	0x3fb161946cb7bbb8	0.06789519933930321
66	0x3f9dee639dbe15f7	0.02922969484600021
67	0xbfb296e6bb3bba62	-0.07261507102132606
68	0xbfa18b89538cd801	-0.034267703484530905
69	0xbfba11bcf0962934	-0.10183316110320534
70	0xbfbad8ae722d3bb0	-0.10486879622952361
71	0x3f7d7ac9350ce141	0.007197175946935198
72	0x3fa7fd0ddeb8606f	0.04685252517464355
73	0x3fa4872e15d374f0	0.040093841709429756
74	0x3fad21849c654253	0.05689634713292393
75	0xbfb4a8f168e51295	-0.08070286570461811
76	0xbfb66a35948a1ba2	-0.0875581252713418
77	0xbfb06cbdde12e0f7	-0.06415926620218558
78	0x3fbf19ef2084dde0	0.12148947280808597
79	0x3fb645d5ed73f789	0.08700310752098352
80	0x3fabed794714f966	0.05454615585994098
81	0x3f58918d255204ed	0.0014995458962235267
82	0x3fb19fa8003f0339	0.06884241109856938
83	0xbf90c9e4656a3659	-0.016395157518266455
84	0xbf7fe936c5f99909	-0.007790769537314065
85	0xbfa53ded4fcc19d0	-0.04148809050643687
86	0xbf9fe62c21adf1d8	-0.031151475482589536
87	0x3f816fe9e3a11578	0.0085142395584039
88	0xbfbcd48b7a1cf1e1	-0.11261817675853748
89	0x3fba1eb7324ad083	0.10203118303144447
90	0x3fbffe048b87489b	0.1249697533269533
91	0x3fa2ec083803c4bd	0.03695703204892584
92	0x3fb0155849867b7e	0.06282569689800074
93	0xbfb4a93f8c836ab6	-0.08070752315999638
94	0xbfbc1d53af4474c4	-0.10982249287595197
95	0xbf9c859b5a9f264e	-0.02785341969118909
96	0x3f96d347e36f26d2	0.022290347343903623
97	0x3fa9b997f92752b6	0.050244092144259
98	0x3fbe65e65bba907f	0.11874236812087878
99	0x3fafb6c8daa0643a	0.06194141072064281
100	0xbf9dfc5cb56b60ba	-0.029282997677768853
101	0x3fb6353f03549cc4	0.08674997168837978
102	0xbfc01f2975943d01	-0.1259509872547611
103	0x3fbf463636755c61	0.1221650965647867
104	0xbfbc0c236aa32274	-0.1095602164597354
105	0x3fafbc931c3a4193	0.06198558539938683
106	0xbf9dae1a702c06a9	-0.02898446378367817
107	0x3fa7ba7018f67b82	0.04634428314897489
108	0xbfa63acc3476735e	-0.043417340664041446
109	0x3fb4ee5e676e3777	0.08176221871528165
110	0x3faabbe981072baf	0.05221490573929743
111	0xbfb0abca187a6621	-0.06512129876718876
112	0x3fa1a1580512187b	0.034434080714206915
113	0xbfb03ceef0a6fcdb	-0.06342976928043546
114	0xbfb323f40f10a107	-0.07476735465809635
115	0xbfac9745c60ac335	-0.055841617989591454
116	0x3fafe29cf148a6d9	0.06227579541548573
117	0xbfb3cb5c0c37ffb0	-0.07732177065190515
118	0x3faa3270aca89656	0.05116607768676988
119	0xbf6d8626e1987dfe	-0.0036040076636394405
120	0x3f9856011b4b15a2	0.023765580454684028
121	0x3fb2e7e284c79b03	0.07385078183834186
122	0x3f8e5eac902547fc	0.014829013966537012
123	0xbfb3a23f36f0a919	-0.07669444171248009
124	0xbfacbea6ccddc8a5	-0.05614205599603509
125	0x3fbd4bc267fea80d	0.11443724669393891
126	0x3fa58b67d557c0dc	0.04207920531541884
127	0xbfbac741f5993d18	-0.10460293050822533
128	0x3fb1f769a45d3912	0.07018146765515024
129	0xbfa206d3fcb21764	-0.03520834407485898
130	0x3fbb0c92539385a1	0.1056605772060011
131	0xbfa27571708c7f01	-0.03605226992499234
132	0x3fb51f2f3313f287	0.0825070857717468
133	0x3f51b7df761fc8c4	0.0010814363708929057
134	0xbfba77faaa1a70b1	-0.10339323666488799
135	0x3fa7e3e2c4fb127b	0.04666050581503086
136	0xbfad706ba04d1c69	-0.05749832469751299
137	0x3fa1329fd80f8ef1	0.03358935844860678
138	0xbfad2372781c651b	-0.05691106525609709
139	0x3fa77966eb84accc	0.045848098993099023
140	0xbfa7689d4a778e5a	-0.045720019664966485
141	0xbfb65b1ccca9f698	-0.0873277663867732
142	0x3f993762ac25bd3c	0.02462534118370495
143	0x3fbdd175b61dd3b4	0.11647735305980583
144	0x3fa57cf186474ed4	0.04196886791365065
145	0x3f9363e25c904279	0.018935715579632337
146	0x3f9915421f4a0443	0.024495156440483844
147	0xbfbe2e42104a4bf0	-0.11789334199629287
148	0xbfa43fcca6cf7c35	-0.0395492509485326
149	0xbfbdc66b75743caa	-0.11630889527826818
150	0x3fbfc647b2edab36	0.12411926382416713
151	0xbf79ab9a5a76350e	-0.006267168944203106
152	0x3fa4e5029f601bca	0.040809709506042305
153	0x3f964b136e2e7f30	0.021770766830399413
154	0x3fb644ad25403463	0.08698541793292373
155	0x3fbc71f924e7c4fb	0.11111409331330784
156	0x3fb3ba9376ff55d7	0.07706567435464905
157	0xbfb159a4c43db41b	-0.06777410307923086
158	0x3fb1e209664372ca	0.06985529657999759
159	0x3fa99d575e6e5361	0.05002854373666455
160	0x3fb7340231b6664b	0.09063733781513254
161	0xbfad0941982084fc	-0.05671124441165351
162	0x3f6286a351dd7559	0.002261466011005336
163	0x3fba636ca2228063	0.10307959516876646
164	0x3fb1e079cd762689	0.06983147874975705
165	0xbfb123dd35adff2a	-0.06695349274195608
166	0xbfb534aac79787b4	-0.08283488629197572
167	0x3fa45437e916e711	0.03970503540354121
168	0xbfb625135eebb0ca	-0.08650322978400307
169	0xbfa9abbca2072ec8	-0.050138373164001104
170	0x3f9a5187fccb9391	0.025701641849895266
171	0xbfad682833b39136	-0.05743528014298464
172	0x3fb6fcbd63ef2e9e	0.08979400338938112
173	0xbfb21965db6028cc	-0.0707000408730522
174	0x3fb4c3e2a0b84418	0.08111397193739867
175	0x3fbaf63dbf5c9a1e	0.10531984254758028
176	0x3fabe9a21a55d2ba	0.054516854967834275
177	0xbf9ba26abf1e94b5	-0.02698675910473432
178	0x3fba1203af7c8320	0.10183737787566516
179	0xbfa0d35c07be04a7	-0.03286254496107093
180	0xbfb464bb037f3546	-0.07966202578901002
181	0x3fb4f0e46b762f75	0.08180072425437664
182	0xbfade5341d46f237	-0.05838930947672732
183	0x3fb4d53e931d8158	0.08137885181122806
184	0x3fbd8f10964e4827	0.11546424550604738
185	0xbfb270b6316b6201	-0.07203234392671477
186	0x3f44fa7a8ac1a51e	0.000640210947961215
187	0xbf94a226031a4127	-0.02014979738174918
188	0xbfaef9fdab5548fa	-0.06050102917164853
189	0xbfc10273f59a4984	-0.13288735859221046
190	0x3f9d403f638332ee	0.02856539769054483
191	0x3fa030bf399db5a5	0.031621909888467394
192	0xbfa61f3c153c3137	-0.043207051841906034
193	0xbfbc71197a832c3c	-0.11110076180482137
194	0x3fbd2c18500a7ce7	0.11395408586621479
195	0xbfb88fdea0aea581	-0.09594527647882069
196	0x3fb523dd7e26e582	0.08257850961572014
197	0xbf9af226c02daf06	-0.02631435916866478
198	0x3fbf5b307b45a9de	0.12248518952916451
199	0xbf98379bff3bc1d2	-0.023649632886135148
200	0x3fb9ac03096b2cc5	0.1002809427256351
201	0xbfb81a3833e232db	-0.09415007845582173
202	0xbf852c16e65c5f69	-0.010338000206999447
203	0x3f921168a9f941c0	0.017644534468048922
204	0x3f9d02e47a10a3b2	0.028331346464401448
205	0x3fb8d5b2fd8d7326	0.0970107907318832
206	0xbfb72d07993001f1	-0.09053084840707705
207	0xbfb2533b6a0c0328	-0.07158252085720263
208	0xbf9306590486f44e	-0.018578902150455705
209	0xbfa69b2ba418021a	-0.04415260675523687
210	0xbfaa42b54e394b36	-0.051290193365863976
211	0xbfb0169cbeeb78d0	-0.06284503613594272
212	0xbf7749d6301d5fc7	-0.005685650512383184
213	0xbfa0712a66f131ed	-0.03211338526361716
214	0xbfa7e868a79c9155	-0.046695013485335814
215	0xbfb76fddc5d34b36	-0.09155069427224025
216	0xbfb2712caa29a36f	-0.07203940538751195
217	0xbfbcafb38c8f9a60	-0.1120559900442486
218	0x3fba03d9bbd1875f	0.10162125430499945
219	0x3f3a5ec2aeed969e	0.00040237668047491705
220	0x3fbd9d7ef8ba3b04	0.1156844479794295
221	0x3fb1e749c150ed72	0.06993542642242348
222	0x3f83b1d7d6d802a9	0.009616552585613407
223	0x3fb34d1c762e71ca	0.07539537320412318
224	0xbfb816f607665b77	-0.09410035782489766
225	0xbfa3c9f9fe474b19	-0.03865033368096799
226	0x3fb427162d564523	0.07872141463146369
227	0xbfb2fc1c16654d12	-0.07415938898821064
228	0x3fae4b4ff1cdf935	0.059168337123070826
229	0x3f90565956ad7d44	0.015954395213495745
230	0xbfbdd5d79a35e38c	-0.11654422297386996
231	0xbfb36add5a28f4bb	-0.07584937525912754
232	0x3fb0369c22515dda	0.06333328092420434
233	0x3f9adcc941c733f4	0.026232857360628928
234	0xbf9af62ec737b2e5	-0.02632973757674763
235	0x3fa72fd1c418fc40	0.04528670805711288
236	0xbf937721c3e71ba9	-0.019009139615970536
237	0xbfab78c28b68b3c6	-0.05365570022363601
238	0x3fb787d67d179fb4	0.09191647104273565
239	0xbf939c36f515775c	-0.01915059920189975
240	0x3fbe1c9e9c75176c	0.11762420005569901
241	0x3fbd126ac8212cc1	0.11356227289177225
242	0x3fb2d38485222d8d	0.0735400033028581
243	0x3fb36e72f7a4b92c	0.07590406938536337
244	0xbfa0242ddfee4b1e	-0.03152602537661252
245	0x3fb41dff6f1fdccf	0.07858272994041048
246	0xbfa66a91c0bc6158	-0.043781809594465926
247	0xbfb645bdf5d7db1b	-0.08700167896300252
248	0x3fa89b80b7687edc	0.04806139220113234
249	0xbfb8e7152ef639c1	-0.09727604290512827
250	0x3fb26b4820097699	0.07194948942329872
251	0xbfb08cca8ad57ea6	-0.06464830293179577
252	0xbfc0106f4aaba6ba	-0.12550154825230725
253	0xbfb5b85a56a4fd74	-0.08484425177902272
254	0x3fb63eb21fffbfe1	0.08689416199899781
255	0xbfa3cc2eefaf4c55	-0.03866717029418313

arr_0 f8 [4, 2, 4, 4]
0	0xbfc057c704d95445	-0.12767875420346023
1	0x3fa9b24c918a4356	0.05018843914616038
2	0x3fb4d37ecd446750	0.08135216246992383
3	0xbfc23a2077831617	-0.14239888988065338
4	0xbfa8369090d1e7b5	-0.04729129569837146
5	0xbf95095c2e32a288	-0.0205435183712859
6	0xbfb1cc644cd75ba2	-0.06952502132422336
7	0x3f68d1eac95e1525	0.003029783790170842
8	0xbfedbcb4f6542ff8	-0.9292855082617271
9	0xbff704076beae91f	-1.4384836402446763
10	0xbff84d6b8ba09305	-1.5189013914288705
11	0xbfee1050d27a828e	-0.939491664019515
12	0xbfbcc2521eb329fb	-0.11234009980686459
13	0xbfb9a38abd40bb89	-0.10015170212203207
14	0xbfbc5bb7ed270b00	-0.11077451267105332
15	0xbfb71ccdc017d672	-0.09028325977109278
16	0xbfd1368fda4bc52d	-0.26895519559828324
17	0xbfcdb5c89ac96178	-0.23211009557668283
18	0xbfc8006c97ccf0a4	-0.18751294529090956
19	0xbfd0452bb3ea8192	-0.25422184534002057
20	0xbfd5449c7c5abb3a	-0.33231269973741784
21	0xbfd0aaf49239dda2	-0.26043428687941106
22	0xbfd09f14b1b70e43	-0.25970952372538053
23	0xbfd202267a291013	-0.2813812439892455
24	0x3ff12c29940ce31b	1.0732818396774693
25	0x3ffd20c4f92e38a7	1.8205003484359084
26	0x3ffbe0c884bc0925	1.7423787293378805
27	0x3ff19da81c0db4e9	1.100990399917743
28	0xbfd52e9569f90b34	-0.3309682402506724
29	0xbfd1f59d97dfa216	-0.28061618644145037
30	0xbfd1d23388673618	-0.27845466919538486
31	0xbfd75ff3670a4dee	-0.3652313715221841
32	0xbff0909d87e1209d	-1.0353064830579009
33	0xbf7d98e285fe433f	-0.007225880486559088
34	0xbfbc23d22c7eebfa	-0.10992158495257334
35	0xbfc3ce57ff2ca5c2	-0.1547346111267825
36	0xbfd4ad14ec059803	-0.32306407021530975
37	0x3fd9c677d23451c6	0.4027385285164907
38	0xbfce0801fe68d229	-0.2346193783029247
39	0x3fb4124a6d310956	0.07840409436997695
40	0xbfb92c3bf816793d	-0.09833121115523098
41	0x3fdab9b51c1200d1	0.4175846838115947
42	0xbfd9850600fd300e	-0.39874410721381615
43	0xbfe40398f4a0cdfc	-0.6254391458409709
44	0x3feb5d6635c72c8d	0.8551512766220114
45	0x3fd799d31730ddb8	0.36876370682463344
46	0x3fd2cacd64c3b196	0.2936280712154028
47	0xbff2fa5a09893978	-1.1861210224629684
48	0x3fdce76bdcad70f0	0.45162483740365555
49	0xbfe07dafa81f0203	-0.5153425487151825
50	0xbfd3606392ad0979	-0.3027581150419319
51	0xbfdb1996058ddac4	-0.42343664686579197
52	0xbfe00d6db2a951ff	-0.501639222095548
53	0x3fe879fffb45ee27	0.764892569320584
54	0xbfbab5b107fca5e4	-0.10433489270203428
55	0xbfc870225a93ce8e	-0.19092206404421969
56	0xbfb8361c00be2ff8	-0.09457564371240312
57	0x3fb3ebaa8ab04e4d	0.07781473051027739
58	0x3fd6a8d8199cd431	0.3540554285166904
59	0xbfe62a937560ce47	-0.692697266821093
60	0x3fd5a88b093a898a	0.3384120550273556
61	0x3f7c4b4e4e21a120	0.006907754783334746
62	0x3fc2a56f7cb09c27	0.14567369068501643
63	0xbff36860a932cdf9	-1.2129828080477394
64	0x3fbfc1aa28a47334	0.12404883854146648
65	0x3f7c5359e7804c5a	0.006915427387883611
66	0xbfea462413c5ab60	-0.8210621248411876
67	0x3fac033e8ba5c071	0.05471225218468668
68	0xbfd4644c35de34d3	-0.31862168560549015
69	0xbfe991500138af46	-0.7989883445602366
70	0xbfda34a1f2ad7cb6	-0.409462439527441
71	0xbfb2e33fb09b5af6	-0.07378004132929647
72	0xbfecfe446a178d0d	-0.9060384819134996
73	0xbfae8bc602dd59df	-0.059660137033165965
74	0x3fcae0f9946ec064	0.20999068973242452
75	0x3fb35d9a6ef516b2	0.07564702233238554
76	0x3fd4a961bfd1ebd7	0.32283824665472366
77	0x3fde8b1f370a8779	0.4772413289557487
78	0x3fb059f6701f21e6	0.0638727210745241
79	0x3fc5fb3995ae2c21	0.17172927673922891
80	0xbfe6204b4f363d29	-0.691442160330472
81	0xbfe5e606a278c296	-0.6843293355251088
82	0x3ff8f0f3aac5736b	1.5588261290315255
83	0xbfe280ffaf25a6dc	-0.5782469197121958
84	0xbfe046f6e9bd4272	-0.5086626591892822
85	0x3ff17478f82cd40e	1.090935677942301
86	0xbfc0e92357872c8e	-0.13211480878667142
87	0xbfb330457f79101d	-0.07495531427508735
88	0x3ff548ebbea2ac82	1.3303029486367284
89	0xbfe788bb6f591e8a	-0.7354409384506237
90	0xbfd67d73eb33080d	-0.35140703171430304
91	0xbfd1f35249893aa2	-0.2804761617780206
92	0xbfdf53059be836cd	-0.4894422552614344
93	0xbfe695d86cd19348	-0.7057916760792091
94	0xbfdd8cbe6fd5e0fd	-0.46171532555992184
95	0x3fa32c07938c8e9d	0.037445294152601984
96	0xbfeccb2e4a307e89	-0.8998023461353607
97	0xbfe0e6ff91fc166d	-0.5281980372680671
98	0xbfe158a10ac8fb55	-0.542068978371257
99	0x3ff3d7af1e025657	1.2401572391730917
100	0xbfe88ec47d865760	-0.7674276782661131
101	0xbfdd610cebb7ab0b	-0.45904849070818504
102	0x3fd5ed5c7bcfc44f	0.34261238184905535
103	0x3fe9c2cac65af085	0.8050283311963687
104	0xbfd8639530b3fb46	-0.38107805019528873
105	0xbfd9d0ead6628c1b	-0.4033763021090537
106	0xbfc06d525372d54e	-0.12833623003613542
107	0xbfd0fe271d76ae3e	-0.26551225545219725
108	0xbfddc5b2fd26fdc0	-0.46519160005479065
109	0xbfd664b4a963f233	-0.34989658872635515
110	0xbfd2616984172cfc	-0.2871955671259483
111	0xbfe3ac1f3d3c6723	-0.6147609897627472
112	0xbfed193976fe4835	-0.9093291591727907
113	0xbfdd65e4d4959b9e	-0.45934410820194127
114	0xbfdcf4e9d59bc322	-0.4524483285922988
115	0x3fec2990ae5dc601	0.8800738721458289
116	0xbfd8875c40f01c47	-0.3832617410811889
117	0xbfde2a53fe02ea9e	-0.47133350187110945
118	0x3f986ef448741330	0.023860756799894023
119	0x3fdad615e19a057c	0.4193167403355671
120	0xbfd7c3f5d098f871	-0.37133546229222875
121	0xbfd1f3bace9634e0	-0.2805010812233615
122	0x3fa35553a2d91d05	0.03776036608592829
123	0xbfd5d08d727eb639	-0.3408540361514017
124	0xbfe41d99596b085f	-0.6286131617018887
125	0xbfd1de4eaa21ffcc	-0.279193559785196
126	0xbfd3d99d1ac213c1	-0.3101570855436045
127	0xbfd0c246ccd4b3ae	-0.26185770037664724

arr_3 f8 [36]
0	0xbfdee540bca0da72	-0.48274248524413743
1	0xbfdd385ef799f8d9	-0.4565656106932586
2	0xbfbc155f48adf738	-0.10970111393359339
3	0x3fd298e8e778ff4d	0.2905828724360518
4	0x3fe0d817b3ba180c	0.526378489522132
5	0x3fc9735db3d85d29	0.1988331916952373
6	0xbfd605435b3f1afd	-0.3440712348059803
7	0xbfe5e67a0b773323	-0.6843843673646898
8	0xbfe2f8912444d064	-0.5928426464438528
9	0xbfe8ce313300124f	-0.7751699443911749
10	0xbfc9f64505f6a36b	-0.202828052436668
11	0x3fd70848fd9fcbbd	0.3598806835936406
12	0x3ff11c1e07f8486a	1.0693645774195155
13	0x3ff6c780ef6dd764	1.4237069466302836
14	0x3fedf39b3855f073	0.9359871006304402
15	0x3fca80e168c024ee	0.20705812086843117
16	0xbfdc98b57b6b7fd6	-0.44682061245657445
17	0xbfeb2fd53de0375a	-0.8495889862549391
18	0xbfe87a323f7ff1a6	-0.7649165382604692
19	0xbfd21f3c52749b49	-0.2831564717511595
20	0x3fd53d24f1709a14	0.33185695245848135
21	0x3ff0aa52c5f77d30	1.0415828450275733
22	0x3ff64ff6aab3203e	1.3945223491628123
23	0x3fed0b6b4e34bf4e	0.9076439406835364
24	0x3fceddaa4498e72a	0.24113968228794508
25	0xbfd50ec924758f61	-0.32902744827719316
26	0xbfec7cf1acff0872	-0.8902519587357018
27	0xbfe3a00b0118520e	-0.6132864972483405
28	0xbfe2341c1b019de8	-0.5688610579936126
29	0xbfcab89cc339e33f	-0.20875892193341802
30	0x3fd1e116430dad57	0.27936321781335977
31	0x3fe18fbf3589d892	0.5487972303078712
32	0x3fd04bc8b82a12a7	0.2546254919509842
33	0xbfd0b126a25ec834	-0.260812433781328
34	0xbfe2eede788f1083	-0.5916588167824702
35	0xbfe1c9c1b1dfae73	-0.5558784936997213

arr_1 f8 [4]
0	0xbffb93c522e7714f	-1.7235766757431354
1	0xbf6b3fc4b7562c81	-0.0033263055908654975
2	0xbff06142560aa905	-1.0237449036599753
3	0x3fd04c15ee71137a	0.2546439007313023
