results/params_12.npz (npz, 392302 bytes, 4 tensors)

arr_2 f8 [1344, 36]
00000000: debb 7a6b 09ab c13f 99ef d216 3fe8 9ebf
00000010: 4fe6 734f 5671 9a3f b39b 4cae 36c1 52bf
00000020: 5ddf a6ca 7c54 9f3f bcf9 1183 a71a 913f
00000030: fa6d 5c81 34ef 873f 1454 aad1 4fec 9bbf
00000040: fa60 8e15 e6ef 723f 952a 7f79 28be babf
00000050: dce6 cd99 f264 a7bf e79a 1d5f 2eeb 9d3f
00000060: 39ca 208b d92d a63f bd7c d72f 1e56 b53f
00000070: 4e98 b42a 4312 ad3f 66e7 016d f5c1 983f
00000080: 9ddc 6a8a b790 843f db57 1f8b 4792 aebf
00000090: 593d 0897 648a b1bf 97fa d1c8 804a a63f
000000a0: 31b0 0f58 d4cd 933f d52a d941 f48a af3f
000000b0: 3576 7a96 b314 ac3f 2928 79d6 0dc3 a83f
000000c0: baeb 3224 c52a 923f 3a38 2800 f2b2 843f
000000d0: 9fda 5d8e 7f38 b1bf e5c7 a363 0914 9bbf
000000e0: acf9 a4c2 cc17 b5bf 60ce 0ccd 55ca 80bf
000000f0: 1517 dd4b 387f 953f ad37 4e15 1cc1 a43f
00000100: f39f 5389 e202 7e3f 84b5 b505 96f8 883f
00000110: 6bcb e8d6 5a94 a1bf 0bab c72e 5460 9f3f
00000120: b433 70e9 2606 a9bf 7980 6297 a01e af3f
00000130: 3d3f 3083 8e2c a2bf 1050 927e f3f3 a8bf
00000140: 1041 c153 b1fc a4bf 8b33 aff2 d03e 62bf
00000150: d83f 48b6 8dc1 aabf a336 54a9 ea20 613f
00000160: ede5 7008 7c21 973f ef59 be7c f9f1 903f
00000170: 99bb 587f 80b7 9a3f 65b7 1acc 4e43 a23f
00000180: 2080 a7f3 ecc1 ae3f dc02 67fe 25d9 aa3f
00000190: 7306 2042 2ed7 743f 6a36 f165 5105 933f
000001a0: 8f87 5785 15c8 813f 6d1a 6b32 0dbd b5bf
000001b0: 38f6 74fe 5afd a1bf 27ef ff73 59ee a13f
000001c0: 7e94 75aa bc33 82bf cec1 ae63 42e3 b3bf
000001d0: 9d2d 5cfb bc64 ac3f f268 74d6 8eaa 8a3f
000001e0: ab9f 8762 1477 8a3f 5753 8cc3 9ca3 6bbf
000001f0: b6b7 33f2 3806 82bf 3c0f c588 610f 973f
00000200: d3df c30c c85f 73bf d5f3 7918 efef ad3f
00000210: 5e3d c1e2 52c5 84bf 60af e77c 22a7 a3bf
00000220: 6774 83d9 48e3 a93f ac11 13e4 e109 943f
00000230: 7c55 23c1 4303 a8bf 0588 3480 dca7 af3f
00000240: 4da4 ab90 0f9c b6bf 1ed5 c002 6986 c5bf
00000250: c435 a635 e8ac ba3f dc5e 8912 d6e9 8d3f
00000260: e7fc 07ad 8e9b a9bf 6619 49f2 739d acbf
00000270: 4a3d e15e f677 a8bf 289b 6bf9 ba45 a93f
00000280: 5d58 c6eb 1a5c bcbf c7c7 3a62 a9a0 8b3f
00000290: b316 8aa6 8bbe ab3f d968 eefc 3620 923f
000002a0: 878e 9e94 6793 a53f 930b b923 b3de a23f
000002b0: 61aa 374d 5c1b ac3f f025 0368 074a 39bf
000002c0: 5618 5ada 1df9 a53f 271c e61a 777b 8c3f
000002d0: 12fe 1c42 b989 68bf 351d 123a 8879 bb3f
000002e0: e640 7c96 04cc a43f 2c11 04ae aa0e a6bf
000002f0: 2e1b b23f 5266 77bf 0b98 ac48 c39c 933f
00000300: bd8a fe40 9ba2 83bf 1596 a092 f41f 873f
00000310: 9c6b 39b2 41d3 a1bf 148f 218e 2ce6 90bf
00000320: 1441 4691 37e7 b53f c94a 570c 5a4c b03f
00000330: 753a 25aa 448f a93f 2acd 6389 206a a83f
00000340: 3f6b 7c18 1f73 b33f 5e6e b88a 655d a73f
00000350: f528 9f3d c5bd a93f a825 0847 90d1 b73f
00000360: 540d 15e7 0049 a2bf d04f 63d4 0968 d7bf
00000370: 084d 654d 773d b7bf 153b eac0 f29c b53f
00000380: 1cbd 78d0 b43a 96bf 8a19 5c06 1f4c b2bf
00000390: 1a87 eae0 21a9 b3bf 9a1c c878 754c a3bf
000003a0: 394b 1eeb d0fa b5bf 83b5 1a87 14f4 c3bf
000003b0: 95ce c853 e31e b53f 0170 2ebd f234 b63f
000003c0: 52bf 13be 325e b63f 45dd 8fbd 316c a73f
000003d0: 6008 ebdd 997e b13f 9e05 39ad 1ae3 943f
000003e0: fff6 43dd 2e9e ae3f 370f 9c8f 4e11 a3bf
000003f0: 473b cd2e 56a2 af3f 153e 5d0b 3374 b23f
00000400: e334 b6fd a260 90bf 6f87 943f f23c b73f
00000410: 334d bf14 e15d ba3f ca7e 8401 2a41 b33f
00000420: f8df 673b 006f a13f f44a 3026 558d 733f
00000430: 38e1 3d66 7f49 7a3f 26af 1838 096d 9cbf
00000440: efb9 4f29 cb2e 9e3f c2a6 222f 3d63 a73f
00000450: f6cc c45b 4e15 a63f 8e99 dae5 a2e0 b83f
00000460: 45be 4500 621c bc3f 1f62 9a7b b189 b7bf
00000470: 6e6d 0484 4d0e b9bf 2e77 f96b bfe9 993f
00000480: 9b30 6e76 8e7e a13f 86d2 eb13 9c62 b23f
00000490: 2bc8 a3f5 bc82 c6bf f19a b0d5 a9e9 cabf
000004a0: 96f4 5e26 9439 ba3f 4c6c bba8 732d 8f3f
000004b0: b2c1 28de e05e bbbf bc25 b9d4 fc53 873f
000004c0: e1fd 4bbf 8e5f 8dbf 538b 5555 1519 963f
000004d0: d140 3c18 805d 993f d05a 8cd2 caa3 b33f
000004e0: 7db0 dcad 71ba aa3f 12ce e5a1 9d53 ba3f
000004f0: 4cea 3ebc 7d40 adbf c12b 95da 885e a53f
00000500: e500 02c2 2232 85bf f61f 1da4 1ae9 903f
00000510: 0e42 0c19 0d93 9d3f 65e8 f076 c287 603f
00000520: 4610 29b7 c4b5 a23f 2fe1 fe16 fd2d b23f
00000530: cad7 0d4f c975 87bf 16c4 ed8d b144 ba3f
00000540: 64fe c561 ec7f 773f 030a 6b4f 4b91 96bf
00000550: 2175 65c5 2326 c1bf 0cd1 2e40 683c a23f
00000560: 8abf f471 850c 8d3f 7b1a 1321 c2c2 a2bf
00000570: c9d9 d9a4 ac46 9d3f 82b4 bec3 4baf 5dbf
00000580: f7ab 3c46 f722 543f 0095 33da c02b c13f
00000590: 23b5 3a1a e24c b8bf 1bb8 f74b d7dd 9cbf
000005a0: 554d ace5 c9bb 603f bd30 56e7 3c0f b3bf
000005b0: c394 835c 6ef8 a13f 02d3 4770 72d2 c6bf
000005c0: bbcb 4084 2904 b3bf 1885 1fce ecde ad3f
000005d0: 0562 55c4 f81b bcbf b0b6 2a27 9217 9bbf
000005e0: df7a 5f7e 8eaf b23f 4a7f 916d 2267 c9bf
000005f0: 6de5 3c92 2441 9a3f 9676 54a1 8b6d 9bbf
00000600: 9af7 62a1 9269 a13f 9803 59d4 f2b4 a33f
00000610: 4a1c 7bf1 4b64 a03f 85da 9f51 88a3 8ebf
00000620: dc2d bc9d 96ec a4bf f9f9 6feb 20f9 adbf
00000630: ad03 7512 f89f 7fbf cc6a cd8f da9a a7bf
00000640: a05b 73ee a863 9fbf ce01 35ae a972 a13f
00000650: 2078 2ad2 34c0 5ebf b2c8 e7a9 9ce2 a43f
00000660: 7aff a894 c8d0 62bf 3056 fe7f 8a19 a03f
00000670: f12b 0247 5897 95bf 90e8 9632 74eb b03f
00000680: 0890 aa03 6722 b03f 663d b4e4 d84b 9e3f
00000690: 3c03 64c2 8f1b b63f 72d1 0bd1 b5ee 74bf
000006a0: abcf 5ccc 3b6a 953f fd45 8fd5 fbe7 943f
000006b0: 4c14 8f2e b660 a23f bebb 31df e6a2 a3bf
000006c0: 241a 2b2a 877c ad3f 8189 25bb 8fa3 a5bf
000006d0: 7348 ad64 8a55 b6bf 82ef 688a f16d ac3f
000006e0: eb21 79b7 b58a bdbf f042 a907 7fbc c2bf
000006f0: 4700 8e5f acc7 ab3f 491f 8841 f4c6 babf
00000700: fcdf 3ddb f595 a23f bf72 5407 3013 b4bf
00000710: 6d5d f170 8aad 85bf 838f b868 7538 9cbf
00000720: f6e2 b0bf 1eae 9e3f d633 b2bb 245b aa3f
00000730: be85 10e9 f273 ab3f dd39 cf09 d975 a1bf
00000740: 588d fd84 5879 a73f f677 8962 5c31 bbbf
00000750: a385 1547 5279 9cbf 1fbd 1934 245c a03f
00000760: 1414 afd1 cd86 64bf da44 4efb bfcb 6f3f
00000770: 2bb8 7842 a2d5 893f 5800 8598 465c 803f
00000780: 3651 65b1 ed65 9bbf 09e5 56e6 9e4c 89bf
00000790: ec1a f3b9 e75a 913f 231e 3d68 f034 b2bf
000007a0: 7b0a 3cbb f4f7 a73f 7035 0392 3801 a63f
000007b0: 76f7 b8f4 147b 8c3f b868 3f6f f589 a4bf
000007c0: 865c 919e 3608 ac3f bc33 4298 7942 a53f
000007d0: 2e19 44c8 f6bf a83f 8936 0b3b ad02 a53f
000007e0: 813d e1c2 5ab3 95bf 146a 7143 7236 a73f
000007f0: 69c2 7df6 b631 c1bf ca1e 89d1 5e82 983f
0.13803212879199028 -0.03018282486731003 0.025822971915636036 -0.0011446985237826112 0.030595731610190458 0.016703240752116363 0.011686716268335385 -0.027268645450551146
0.004623316542073258 -0.104464082395831 -0.04569204452032036 0.029217457347295996 0.04331855605450525 0.08334530513774303 0.05677995582873106 0.024177393701826054
0.010041650687851617 -0.05970977376243499 -0.06851795852002364 0.043537163271129824 0.019339864611467476 0.061607010877727277 0.054845440024319826 0.04836314433175943
0.017741279920965282 0.010106936101717524 -0.06726834512469758 -0.026443621355561126 -0.08239440681516069 -0.008198423690919998 0.020993117933605882 0.04053581008984906
0.007326970012606171 0.012192890214204118 -0.03433498261838149 0.030640902857991963 -0.048875061031231765 0.06078054283102658 -0.03549619056150142 -0.04873619957029984
-0.04099039218329115 -0.002227218724760898 -0.052257946492431706 0.0020908911925577463 0.022588670745085016 0.016548059691183722 0.026090629360790627 0.03566976777561485
0.06007328485770835 0.052437960915545395 0.0050880248036278995 0.018574973914203964 0.008682411319515441 -0.08491594773213658 -0.03513607364810095 0.03502158680927741
-0.00888774295044414 -0.07768645223291701 0.05545607155189745 0.013020625991476884 0.01292243886651064 -0.003373914889730416 -0.008800930873316886 0.022519611332668207
-0.0047300161788754345 0.058471175897444695 -0.010141990227707506 -0.038384511706538005 0.050562168647709176 0.019568948312341725 -0.046899907423418846 0.06182755532269372
-0.08831879884714162 -0.16816437372623566 0.10420085248752914 0.014606163445179225 -0.050014933225605955 -0.05588877041423039 -0.0477902403659934 0.049360125490969076
-0.1107804132101093 0.01349003153822882 0.05418812187148827 0.017701014697743076 0.042140232936870574 0.03685531436032998 0.05489624445529696 -0.0003858821946890181
0.04291623392514114 0.013907366283787038 -0.0029953592610636537 0.10732318322890395 0.04061903321246678 -0.0430806481763589 -0.005712815555972734 0.0191526902300652
-0.009587490960091366 0.011291418766698627 -0.03481488514508799 -0.01650304429530454 0.08555934235323931 0.06366503526013924 0.049921174783425316 0.04768468548891243
0.07597536418726934 0.04563443487515138 0.05027595879762884 0.0930414365212956 -0.03571322270229396 -0.36572499981889184 -0.09078164710563297 0.08442609033430089
-0.021708321785067416 -0.07147401719348614 -0.076799504672206 -0.037692709916933256 -0.08585839977449163 -0.15588623616114824 0.0825025634338153 0.08674542540251197
0.08737485065989617 0.04574733199108975 0.06833802860185889 0.02039758379237854 0.05980059100146028 -0.037241416006536125 0.06178540536222115 0.07208556201407419
-0.015993639693580596 0.09077371647120257 0.10299498325848759 0.07521307503747746 0.03404999470870956 0.004773457159006556 0.006417749074778371 -0.027759689377645412
0.02947537841458286 0.04567900848753716 0.04313130254959134 0.09717767821948639 0.1098080874123691 -0.0919447829022677 -0.09787449334219442 0.025305739369620266
0.03416867442783308 0.07181716429097137 -0.1758648108876185 -0.21025584158015634 0.10244108139791516 0.015223411165996258 -0.10691647933777551 0.011390662423894742
-0.014342417920032826 0.02158006032312738 0.02477073810501979 0.07671802177751919 0.05220370528545091 0.10283837511615726 -0.057132653454989496 0.04173686664815746
-0.0103495326477518 0.01651422144576028 0.02888126817112107 0.0020178602349263824 0.03654303298802168 0.0710142308370265 -0.011455128407515409 0.10261068072374288
0.0057372316044844475 -0.02203862831334825 -0.13397643221370806 0.03561712058527364 0.014184038677370631 -0.03664213803999857 0.028589913903909 -0.0018118133439018196
0.001229039648886097 0.13414774565095655 -0.09492314472546019 -0.028190006267259187 0.002042669611350393 -0.0744512619768924 0.03509850386925841 -0.17829733354997052
-0.07428225973926221 0.05834140792991088 -0.10980181496905324 -0.026457103386454406 0.07299128136899523 -0.19845991468445795 0.02563912527623329 -0.02678507015399719
0.03400858135272174 0.03848990289816995 0.03201520273938081 -0.014960350981693135 -0.040867525820512646 -0.05854132532111928 -0.007720917731888583 -0.046103315404896955
-0.03065360980403009 0.034077932849416834 -0.0018768802480404537 0.040791412105947514 -0.002296821364581034 0.03144486248417555 -0.021085147222532134 0.06609274134726406
0.0630249389601546 0.02958620925806823 0.08635805602899621 -0.005110464306870776 0.020913061474132338 0.020416197690627403 0.03589410131784429 -0.038352217431444555
0.05759069814444143 -0.04226349982743028 -0.08724274595195584 0.05552630247663527 -0.1153977940495065 -0.1463774478347868 0.054257761635199624 -0.10459829902549446
0.03630035687723418 -0.07841777972175644 -0.010584909030667966 -0.027559122578295635 0.02996109051693715 0.051476619636651996 0.05361899466539509 -0.034102232406087764
0.045847669824776005 -0.10622193723381188 -0.027806554401995986 0.03195298324578232 -0.0025056857971059807 0.003881335224328636 0.012614505437422782 0.007988502053763266
-0.02675601382482392 -0.012353173641587849 0.016948338245835012 -0.07112028641596928 0.04681362901284999 0.042978065322681114 0.01390663501581078 -0.04011504157070206
0.054750162941382505 0.04152278884530555 0.048339569040808036 0.041036046464438654 -0.021191995758554242 0.04533726762084114 -0.13432967220025496 0.023934823550262142

arr_0 f8 [16, 2, 4, 4]
00000000: 97c7 a485 23c6 dcbf f71a e66c 8016 d2bf
00000010: b31a 560d 7bef e4bf 1f8d 7a94 8148 c7bf
00000020: 1e3b 8a52 5f64 d5bf 66df 685a 8abf e1bf
00000030: 744a c420 a383 bebf a35b 4db2 5658 ccbf
00000040: ca5b aa59 ed2e d7bf 9dbf b57a 68c4 b7bf
00000050: 1b75 afd1 2e90 c6bf 17c5 8fb1 5825 cdbf
00000060: 26f1 01d4 67ac dfbf 182b ba05 1db6 e0bf
00000070: 7d10 81a5 ffc7 e0bf b78a e96e 9746 ccbf
00000080: cd28 a9a7 0e3d f2bf 8cae a2b0 bdd1 e23f
00000090: 3bcc 4193 e3f7 e43f c76b dfac b903 e8bf
000000a0: 9598 8158 f19e c43f 1d99 e0d6 7293 e13f
000000b0: 4c7d 440e 4796 f5bf 9cec c2f8 1364 a33f
000000c0: 7208 495f 69be ca3f 9edf 8b3c 20fb f2bf
000000d0: 5e83 2ecb a24d e43f d1b7 ab15 3483 dcbf
000000e0: dd9c bd9f b51a d7bf 40b9 12e8 f9fc d93f
000000f0: 1878 c696 a4e0 dc3f f620 728d 5ca4 f1bf
00000100: a069 672c c2ad b3bf 4439 1c6e 1205 f63f
00000110: 2076 bb74 a6f5 babf 3383 9e25 7fea f53f
00000120: 9f7d 4939 dad4 c2bf ed39 66cf 60c6 dcbf
00000130: a4a2 b4b8 8a6c c4bf 6f37 771f 6617 7cbf
00000140: 8a87 f5d0 368f a5bf 8dd1 c4c4 fd75 adbf
00000150: 62ea d601 75fb 88bf 4c93 bc87 8b58 a4bf
00000160: 8bb4 2555 5f42 99bf e0c2 daa1 d376 f43f
00000170: 5706 5ce6 624b f43f 031a f859 f8f9 a8bf
00000180: eeb2 b4d8 7114 b43f ead5 1593 4287 f83f
00000190: 8b8f dacf 6926 d4bf d124 babf 44e5 f83f
000001a0: 1fd4 d5df d320 bb3f 59e4 df57 f3d0 d4bf
000001b0: 297e 2b65 cf72 98bf d0cb a2b5 508d a63f
000001c0: 939c 9d9c 36f5 983f a18f 895a 2707 a93f
000001d0: f98a 992f 8d91 a63f 04d4 4886 c4b9 8fbf
000001e0: a5b9 14ee ee40 c7bf 0923 1a31 f6a6 f73f
000001f0: 9e55 b8bc 8b20 f73f 7bc7 b3fa faf0 c7bf
00000200: 94a4 24a4 6251 cabf 107f c46b 86bd ee3f
00000210: ea7d 33bf bf25 fa3f e5f0 08a4 caf6 d23f
00000220: f64b 19c9 eb1e cdbf a6c8 7eef 671c adbf
00000230: 336c f450 770f cc3f 43dc 76ef 4876 d8bf
00000240: 79e3 38ff 97a2 bebf 2e8d 6c1f a92b a13f
00000250: 836c a543 e9c1 b4bf a6b0 ddab bbc5 b63f
00000260: 313e 90e8 4a96 f3bf d842 115c aa7b f2bf
00000270: 3070 a8b3 c202 fabf cc09 0a13 71fc f6bf
00000280: ed1f 0859 4c05 d8bf 22e3 fc37 fc8a edbf
00000290: 888a f745 16d0 e5bf f780 e6bc 35fe f1bf
000002a0: b7f7 9165 657b d0bf 069d 4584 fd23 cd3f
000002b0: 2437 eca6 99d7 c83f bb1c 36ff 2988 e4bf
000002c0: 836c cb9b eb86 d3bf 430d cc49 7144 583f
000002d0: 938c c26d ebc4 d93f 1d1f e649 1006 c2bf
000002e0: e38b 211b 8040 ed3f d60f 6308 4b87 f13f
000002f0: 1f42 8714 0131 e93f 86bc 4f53 2e1d ee3f
00000300: 81f1 0e35 c42a ebbf 87e1 1986 3407 e43f
00000310: 4ce5 a8a2 d29c a53f 32ec 9503 305a e1bf
00000320: 46eb 4d6c 38d5 c43f 66ad 0dc2 452f d43f
00000330: 6d86 cba1 2afb b1bf f3fa 9cff 6abd dcbf
00000340: c091 8176 3db2 dcbf f06d c784 39f4 b53f
00000350: a439 10d8 266d 773f b4db c067 dc36 e2bf
00000360: 9b1a 523c e718 803f cefa 34d7 b5a9 c9bf
00000370: 21f9 f005 8bfb cebf 0fde 5edf 160c fc3f
00000380: e3ad 2c00 33e3 cebf c23c 06a5 cffd d13f
00000390: 59c0 5b21 1cc9 e7bf 538a 9805 595e d83f
000003a0: 8e2e 0b8c 34d7 a73f 99e2 890e c858 d7bf
000003b0: ba64 4a5a 3e21 e0bf 6893 7b37 aa20 c03f
000003c0: 7efb 7835 813f e2bf b229 4e75 b9b2 af3f
000003d0: 379b bed5 13cb a33f 9a40 030f 42d1 debf
000003e0: b655 14db bf5e d13f 6fe9 2d93 07db a33f
000003f0: f1b3 f5bb d4d5 dbbf 6a2c 6399 845b f93f
00000400: f0d0 038c b0fe da3f 4441 b460 384f dc3f
00000410: a26a a8b5 b542 e53f 8199 7a94 f9d5 d33f
00000420: 280f 9649 3ec7 c4bf 0cfc 4a1c 9312 bdbf
00000430: 087c 6eb1 9389 80bf 0135 ad1f c229 d7bf
00000440: 91f3 7caa 9f98 bcbf 61ab 6585 88d5 c5bf
00000450: aeeb 907b 35e0 cebf 81ab 3fe9 3f30 83bf
00000460: c8ba 7301 e8e6 eb3f 55b7 3831 f81e c1bf
00000470: 5d2d 1030 3107 f1bf 82bb 0c22 2067 c33f
00000480: 3db2 ac69 e994 ecbf e587 307a 55bc fcbf
00000490: f666 d294 0504 f9bf 77e3 f046 5b5a f7bf
000004a0: 98e6 11da ddaa e13f ff74 4a18 3a84 f8bf
000004b0: 5cba 11a9 645a dd3f 001e 57b9 b47a d23f
000004c0: 22f6 757d a949 efbf c2f6 4263 5e79 a93f
000004d0: 99e7 4b80 c698 d53f c31e d8fd 31b3 d23f
000004e0: ed27 6796 b84a ea3f 8a20 5148 8b76 d13f
000004f0: e8a5 3be2 089f f0bf 8b72 f7c5 c841 d53f
00000500: b319 9047 9711 91bf ecb5 a73b 1250 c7bf
00000510: 4c6b 4429 5cc8 e43f 807c 1519 3a7d f0bf
00000520: fd6f 4d68 370e bd3f 9157 e6d2 7496 d4bf
00000530: 12a9 deb7 4d11 c53f 92be 6e27 da24 cebf
00000540: cba1 27d0 84cd b73f 9642 a5a5 a464 cf3f
00000550: c5c3 0714 5091 92bf 8aa1 beb5 df13 bfbf
00000560: c6cf 352f 2d59 a53f b4b3 83fe c0d5 dcbf
00000570: 6a08 78e7 18b4 d3bf 6834 4435 952c fb3f
00000580: 1348 6ee5 efbc c83f f32c 2cfa 6590 d1bf
00000590: af0f ec8f 395b e83f 7646 bd35 804c e8bf
000005a0: 83ef 5dc8 ab12 c93f 1b3c ec66 c876 edbf
000005b0: 9e62 e3bf 221e bf3f f2c1 aa2f fb22 b53f
000005c0: a99a a7e1 a698 d2bf 1d9f 7d5f 4a86 d0bf
000005d0: c376 84e3 4044 8abf 2fb0 75e8 f644 cebf
000005e0: bc74 bdc2 8d05 c23f 9c46 d39f b25f e2bf
000005f0: ad08 d6f4 72e7 90bf 8513 6ff5 89f6 f53f
00000600: d16b 03b9 c683 f3bf 3be8 24bb c83d d8bf
00000610: 83ce e7d9 743c e3bf 1b3b ba3f 32ab a13f
00000620: 4114 5af3 4d34 dfbf a354 61f7 4c87 a6bf
00000630: cc8e f6cf 8776 d2bf 20bb c9f6 a603 d2bf
00000640: 5010 39fb a56d b1bf 7faa 1d79 753c c6bf
00000650: 3f39 7b51 9e5f b93f fb5b 956f 4bc8 d9bf
00000660: c0d7 800e c608 f0bf 2233 d975 1b1d f9bf
00000670: a4b3 4813 200d d13f a6eb 3f34 2cc9 f6bf
00000680: caa0 24fb 5fb8 e13f c30b b1d0 1d0b e83f
00000690: ec90 b0a4 2862 f0bf ba68 9b03 7618 ee3f
000006a0: 3fd7 bdf6 5efc e13f f239 1e6e 2495 d3bf
000006b0: c7e4 ac3b e67c d83f b0ac 33e5 fd6b e5bf
000006c0: 59d7 e23d 14ca e63f c053 fca5 ed4b d0bf
000006d0: 8ed3 d549 6975 e2bf e257 e7ca 10fc d33f
000006e0: b252 fa0a 08ac d23f 0c2c d4f4 0c3a b7bf
000006f0: accd dc42 e5d2 f43f a5ea 4d64 231b e03f
00000700: 5774 41f7 d947 f83f 7baf 59b1 bfc1 f63f
00000710: a5c9 61ef 2ca2 c2bf bdae ccb5 4dff b2bf
00000720: 23df 1d0f e75a 89bf e20e 892e 66a2 8bbf
00000730: e74a fd0b 5f72 babf 58d9 9dc1 6bf3 d9bf
00000740: e48e 5213 6c22 acbf 9e26 9350 1dfb c3bf
00000750: 6df0 dff1 4a0f c9bf f529 000c 3ee5 c4bf
00000760: ae16 b011 64bd b2bf 0ad5 542a 21f4 d2bf
00000770: df32 870e fcd2 ca3f 0cd0 2e43 f717 f1bf
00000780: 7916 dfa2 f0bf f73f fadf 53fd fd6c f73f
00000790: 8f2f 5d1e de36 96bf 8b00 669f b369 b2bf
000007a0: 2f9a 16c6 5fed a03f 7cc7 9789 b1cf bdbf
000007b0: c266 8db9 b3c2 c9bf 8d0b a6f8 d3f6 b63f
000007c0: 560c c74f 1427 d7bf 5762 0a38 8f48 d8bf
000007d0: 4339 3421 d32f e13f b386 028c c946 cabf
000007e0: bbd2 c8e9 bc99 c0bf b49c 3031 189b f93f
000007f0: b7ea 9cc4 698a f93f ddfe 9e67 ae73 c0bf
-0.44959343005313585 -0.2826233924355814 -0.6542334804988371 -0.181900212764142 -0.33425124226134695 -0.5546314016164444 -0.11919612455339196 -0.2214458819023238
-0.362239205898217 -0.09284070010994445 -0.1762751125196836 -0.22770222349166921 -0.4948978014360982 -0.5222306358203666 -0.5244138939383586 -0.22090428271902393
-1.1399065541505025 0.5881031465446127 0.6552598835099909 -0.750454747812335 0.16110054799645881 0.5492490956137633 -1.3491888577771816 0.03787290965689147
0.20893590118982136 -1.1863100400059703 0.6344770401375219 -0.4455080234173439 -0.3610052165954139 0.4060654417361498 0.4512111160673853 -1.1026273274638334
-0.07687009414750046 1.376238279455337 -0.10531082487019505 1.369750163030585 -0.14712074086399426 -0.4496080422767637 -0.1595624353297086 -0.0068582524467738345
-0.04210826206941849 -0.05754082705462613 -0.012198366278302678 -0.03973804504338449 -0.024667253086069024 1.2790104219858947 1.268404865113913 -0.04878212068802059
0.07843696156187338 1.5330224748153065 -0.31484456346719786 1.5559737672177116 0.10596965994575712 -0.32525333005429996 -0.02387546591751125 0.04404689995990163
0.024372914609014428 0.04888270359222636 0.04407921987583125 -0.015491042469060197 -0.18166910767599834 1.4782621305514019 1.4454457637669758 -0.18704163781472602
-0.2056086827736051 0.9606353859744292 1.6342160671991857 0.2963129617599079 -0.22750613517072765 -0.05685734556699744 0.21922198727483674 -0.38221953759370225
-0.11966848355304006 0.03353622921556575 -0.08108384992140043 0.08895466752955147 -1.2241925320157743 -1.1551917644866787 -1.6256739633454451 -1.4366312736243456
-0.3753233785105284 -0.9232159703743472 -0.6816512457410946 -1.124562967197617 -0.25753149908984646 0.22766083677854726 0.19407959604762326 -0.6416215881917177
-0.3051098843986397 0.0014811617213020413 0.40264402121301507 -0.14081004722924542 0.9141235856917515 1.0955305411925926 0.7872319603866947 0.9410621287514835
-0.8489705120369281 0.6258795375024854 0.04221208797066342 -0.54225922298736 0.16275697029399278 0.31538528395204535 -0.0702387471206067 -0.4490611549589822
-0.4483789117132595 0.08575782291102718 0.005719329580655606 -0.5691968943054833 0.007859999206869353 -0.20049164779807999 -0.24205148496725662 1.7529515004552
-0.24130856998941316 0.28111640086804013 -0.7432995463877986 0.3807585291525914 0.046563760848212885 -0.3647937910059596 -0.5040580523956557 0.12599685391537752
-0.5702520412813639 0.061910434312341237 0.03865873321711038 -0.4815220972641413 0.27140804666972984 0.038780438152531065 -0.4349262080712029 1.5848432532973455
0.42179502175646544 0.4423352188469105 0.6643932865147983 0.30993499278920217 -0.16233042328905722 -0.11356467667336306 -0.008074907161981684 -0.3619237241117191
-0.11170385277087137 -0.17057901872189077 -0.2412173131322936 -0.009369372659383536 0.871936800800392 -0.13375761416812773 -1.0642558934658475 0.1515846410997846
-0.8931777061421325 -1.7959799550085276 -1.563481885276301 -1.4595597048885034 0.5521077403238506 -1.532281966100811 0.45864216337841923 0.28873937701834507
-0.9777419519811625 0.04975409471215421 0.33744967011409127 0.2921872118899779 0.8216212213094402 0.2728603559703592 -1.0388268315531324 0.33214015324282603
-0.016668666594364456 -0.18213107979629173 0.6494580083848205 -1.0305729846802762 0.11349817558715354 -0.32168312640839597 0.16459056356445295 -0.2354996387998552
0.09297971803574183 0.2452588852707051 -0.018132449362329845 -0.12139700114369681 0.04169598771377951 -0.4505465016835004 -0.3078672657430902 1.6983844834060395
0.19326590254473838 -0.27443837576784275 0.7611358462313457 -0.7593384790036015 0.1958822944978885 -0.9207498560152801 0.12155358490725596 0.082565020692307
-0.29056713139145046 -0.2581964428450066 -0.01282549566581837 -0.23647962904522177 0.14079448708335984 -0.5741818543994728 -0.01650790805207041 1.372690161443843
-1.219671938618138 -0.3787710025386592 -0.6011299377409646 0.03450924899981641 -0.48756741299468237 -0.044001012037065544 -0.2884845286264237 -0.28147291279212716
-0.06807935126659115 -0.17372005857335535 0.09911527146616537 -0.40285001656360436 -1.0021420065436217 -1.56960626635118 0.2664261043853975 -1.4241144219401831
0.5537567048204661 0.7513569904334577 -1.0239645417396401 0.9404859610033534 0.5620570010348515 -0.3059779239055437 0.38262325122520874 -0.6694325901602465
0.7121678551400051 -0.2546342965081827 -0.5768324319929989 0.3122598630410477 0.29174996444752843 -0.09072953202500872 1.3014881717507292 0.5033127745694698
1.5175418528008515 1.4223019531009118 -0.14557420433591264 -0.07420812309708942 -0.012380414151024482 -0.013493345542094418 -0.10330766718588401 -0.4054822340762221
-0.05495012031431459 -0.1561009066993408 -0.19577919779101496 -0.16324592195481072 -0.07320237571556262 -0.2961504853622762 0.20956373891239985 -1.0683510422068165
1.4843603479543204 1.4641094108210368 -0.021693678477546604 -0.07192537919582002 0.03306102078504513 -0.11645040139390334 -0.20125433502362539 0.08970379658243939
-0.3617602137639485 -0.379428677298653 0.5370879791751481 -0.205285256733125 -0.1296917096639357 1.6003648683052178 1.596292274493562 -0.12853031215308067

arr_3 f8 [36]
00000000: b25b 5f32 7b37 c23f cdc1 a9c6 c632 e5bf
00000010: 9549 9212 0920 dbbf 26ed b324 fb9e 94bf
00000020: 7678 f83f e0d7 d63f a68b 744f d622 a3bf
00000030: 0393 5d7e 0f5d e1bf aaf5 855f 5126 e8bf
00000040: 2d5f d03c 4582 b33f e818 fad6 d583 e9bf
00000050: 8d7a fff9 60ff c2bf fca2 84e8 1516 cf3f
00000060: 820d fdae ed50 e83f 85a1 fc5a aaf5 ff3f
00000070: 6160 4198 53e1 e73f ae1d 62c9 f9dc cf3f
00000080: 1b10 0129 a06e cebf b015 8b0e 7123 e9bf
00000090: 6396 7b3d 8478 e9bf 866f 0abb d67a d0bf
000000a0: d46f 0762 c826 c73f 8227 51e3 dc78 e83f
000000b0: e007 8a5c 9451 ff3f 02eb 2d97 991c e83f
000000c0: fb3f 624f 11cc ce3f 20be f49b e63c c2bf
000000d0: 9914 31c8 703d e7bf 1b25 9a8e 53d0 9c3f
000000e0: d60b cba2 7373 eabf 89a6 58ff cf32 e3bf
000000f0: b7ea ed13 c88c b1bf 16c8 f29a a4e5 d63f
00000100: db9a 5398 424c a8bf 2a88 a860 0bce dcbf
00000110: cbee 9147 f5a8 e5bf 4150 e58a c9f0 c23f
0.14231815299600964 -0.6624482994212088 -0.4238302880632088 -0.020137714495814717 0.35692602393272155 -0.03737516136086265 -0.5426099269940042 -0.7546774736107882
0.07620651945796615 -0.7973431776779565 -0.1484185429280455 0.2428614983885139 0.7598789613479513 1.9974769167111799 0.74625568139437 0.24893114407698874
-0.23775102617412433 -0.7855763706253835 -0.795961494525454 -0.2574974848337138 0.18087105547499382 0.764753765085729 1.9574168791591475 0.75349120642872
0.24060264946137963 -0.14248354544678055 -0.7262500677103559 0.02813845212816544 -0.8265932254365633 -0.5999526965362786 -0.06855440603787143 0.3577662957351334
-0.047456818670800614 -0.4500759548119527 -0.6768747709133661 0.14797324449557617

arr_1 f8 [16]
00000000: abcd 18a9 fcdc b13f 186c ce95 d816 f5bf
00000010: 148f 64bd c5f2 f3bf 1060 0714 6807 a2bf
00000020: 9b5f 74bf a1c6 d2bf 006d d363 9543 e4be
00000030: 0df7 1424 56f7 e1bf 4ace 42e7 669d f7bf
00000040: a614 2f91 4370 b2bf 1ed9 01cf c5be c5bf
00000050: e77d 9347 4650 243f 38c5 f3ed 5997 d2bf
00000060: 8966 6b38 ca23 e8bf c7a4 8b0d 595a e3bf
00000070: 78b1 337b b291 c0bf 9b97 1d6b 7422 aabf
0.06977824333517073 -1.3180776454744372 -1.246770610633523 -0.03521275753490738 -0.2933735246347113 -9.662627343967698e-06 -0.5614424423908716 -1.475928214419485
-0.07202551168946289 -0.16988442046903968 0.0001549802580376035 -0.2904877494575717 -0.7543688871330271 -0.6047787918625084 -0.12944632545203283 -0.05104411895335589
