results/params_4.npz (npz, 49918 bytes, 4 tensors)

arr_2 f8 [168, 36]
00000000: 9cae 28ff 747f e8bf 2a0f c42a 0ddf 993f
00000010: fec3 1aa2 e98c a43f faeb c69e 3c42 90bf
00000020: 1997 af32 106f 81bf 7f98 8fa3 057e a1bf
00000030: 0b82 3a1d a482 843f 3e0c 9a59 ba18 8c3f
00000040: 052d 0418 74bd 983f 13d3 6d7d ca42 ab3f
00000050: b35c a210 3e79 9e3f cee5 2134 6711 91bf
00000060: 7a2f 5372 6c57 99bf 897c 1785 ca02 abbf
00000070: 91f3 be52 9e18 87bf 92eb e06b f91c 9ebf
00000080: b92b 8722 163b 6cbf c344 0f63 8a17 a13f
00000090: a2fa 58b3 2712 af3f 5494 ebe1 3b06 97bf
000000a0: 1db8 08be 7fe6 9bbf 9f03 fff7 e0ab 8ebf
000000b0: 7b37 eb7b 1094 a3bf 1b9d 42c2 986d 99bf
000000c0: 3596 9b85 a996 90bf 3dcb e688 fcd1 883f
000000d0: e08b b90e 8089 a13f 3201 baaf a8d2 773f
000000e0: 335a ad78 7b39 a23f cc62 66b8 ce2e 8ebf
000000f0: 92bf 3e5d a3a1 5fbf 92b4 c8ff 825c a5bf
00000100: 6df0 44f4 74f7 8d3f 3f73 6709 7f9e 9dbf
00000110: bc5c d730 2ca4 a63f bb2e 4a72 0c08 953f
00000120: bd35 47e2 5f37 ba3f 680c ef9a dfaf eabf
00000130: 7838 72e5 90c9 b13f 16c5 0a51 c96e 8c3f
00000140: 85fd 09a3 87e6 943f bb1f 6032 0465 683f
00000150: 4679 5fc3 611d 9dbf 3979 2525 a78a 54bf
00000160: b03c 21c7 8f1f 8cbf 479b f94b 395c b23f
00000170: 3bcc 3832 e294 b03f 61b5 8558 ad8c 9f3f
00000180: e6ca 6621 a473 8dbf dfa9 69de 1aff 9dbf
00000190: 67b8 3ae4 a033 95bf 6f14 5fbd c70f 94bf
000001a0: 9e7a 07c9 0a74 a63f cb76 5e5a 0351 8abf
000001b0: 370a e273 9fc7 b33f 6649 b9f8 a0a5 b63f
000001c0: be48 f3bd 3a9d 903f 4ee7 356e e490 a6bf
000001d0: 2802 78ec b46f 90bf ef70 d923 a4bc a8bf
000001e0: 0a36 379c 103d 963f 1e5d 5036 dd1b 7e3f
000001f0: a99e 6a15 2ebc 963f a20a c421 2cfd aa3f
00000200: 3a4c 5e02 9dd7 913f 4467 1f72 0c4c 8c3f
00000210: dcd8 9457 5191 38bf aa68 eee6 9aee 90bf
00000220: 51fe 92a1 c508 973f 1239 1177 450f 5fbf
00000230: 8512 b80e c192 a13f 0428 7d10 e654 7f3f
00000240: 10e9 a6e5 45d5 a53f 31c8 73d5 5d11 c23f
00000250: 7672 5319 17e1 e3bf 93ae 8318 f0cb b83f
00000260: ea58 2e61 b4f1 b03f 2e35 5312 1650 9a3f
00000270: 1195 35cc f96c aa3f 4083 e510 0ecb a83f
00000280: 6904 8d7f 82bf a83f 465e 8848 ee58 b73f
00000290: 594b b1bf 1a31 b53f e4a9 ada9 3573 af3f
000002a0: f9af 4332 4397 993f 8a06 b474 d907 61bf
000002b0: 5fb0 22bc e8e5 77bf 3119 4230 c5c4 7c3f
000002c0: 5274 6046 2443 a53f c921 a78a b0e1 a53f
000002d0: 2eff 9f9b fe8c b23f ba8a 0e1e 1ef5 b53f
000002e0: 1d3a ceb4 d882 a33f fa6d 8f71 40a4 b03f
000002f0: 7b14 fc44 1042 a0bf f51f f344 ba7f 76bf
00000300: 78b7 d5d7 b492 923f cab3 1deb a0dc a33f
00000310: 63e3 7af6 2689 a13f 7248 cbdb 21da ac3f
00000320: 2049 5f2e 6fba b83f 52f1 aea5 b721 ab3f
00000330: d7e2 f63c 0889 a33f a4f7 95c4 35d5 8f3f
00000340: 66c0 c906 f516 a03f 4973 039a 4191 9a3f
00000350: 8912 82d6 0f23 9f3f 586c 3765 c562 aa3f
00000360: 6f0f 780f 20bd 903f 483a e059 a6aa b43f
00000370: a237 82b8 75de c13f 515b c47f d2bd e8bf
00000380: f42b f1cf 7bb9 b23f 2b07 e47c b8d1 b03f
00000390: 243c 12cb 02c7 a93f 8f81 b7ff c175 b23f
000003a0: 3443 9030 a22e 9a3f c904 21e2 c621 943f
000003b0: 9460 04d0 5230 a83f 6042 bbbe 5fa1 993f
000003c0: 7c65 2697 3b5a 85bf 0888 8690 137b a5bf
000003d0: 4e9e fad4 033c 8ebf b6e1 16ea b2cd a53f
000003e0: 6668 4a90 f8ed 993f 8b45 0f39 372c 923f
000003f0: c948 644b b577 b03f 61e8 d491 5d01 a53f
00000400: f71f af11 8b94 a33f f30b a03b 3db9 863f
00000410: 2785 4e4b c64f 733f 57b5 c87a 80ed 933f
00000420: 3f5f a017 34ea 8abf 58bb 311c b25c 943f
00000430: aac5 0527 a286 9a3f c42e b429 156b a93f
00000440: b48a 5234 8769 a73f ef6e 015e eeb3 963f
00000450: 1431 8457 d9ce 8a3f 4371 46e2 c48a 753f
00000460: d378 584e 1ae1 953f a64f e7d1 da6f b73f
00000470: 324d bf5b e50a 953f 3df3 090f d5ee 803f
00000480: 70d7 09aa b293 923f bc6a f49b 0591 a13f
00000490: 22a9 7fc0 66d7 893f ceab 750b 9aae b43f
000004a0: c190 549f 8863 ebbf 9296 6f51 437c ad3f
000004b0: 7d24 f0b9 108b aa3f 67cf 8142 8666 933f
000004c0: daaa f1bf 29c0 a03f b34c 66ae d146 ab3f
000004d0: 296e 4590 a8db a13f a887 a46b 8cfd 933f
000004e0: ac31 72af fe3d 68bf 9344 2b84 32f8 67bf
000004f0: 32e1 e5de fda5 9ebf 902a 7ff5 0566 453f
00000500: 81c5 47a8 8d7b 9c3f a323 475e 74a2 b13f
00000510: afa3 75af 77d1 8b3f 8eb6 bf9d e769 983f
00000520: 3dec c9cb d8ce a23f 4018 a82c 5968 983f
00000530: 773a 40bc 7fd5 8fbf fc5f 7137 7d8f 5e3f
00000540: 7da0 4f5c d4a1 a73f a970 7cb3 09ee 953f
00000550: 84dd 6d52 38a7 9a3f 8d02 fff8 19b4 8e3f
00000560: eb6a 1621 ea29 b13f 8e7e 9059 fc8f a63f
00000570: 8f4a 1da7 9345 923f d0e8 8130 88e9 87bf
00000580: 966c 6c24 8072 923f 4b16 ff98 6dcf b13f
00000590: 8eb9 1f8d a663 b43f b852 64b9 ebdb 71bf
000005a0: bd94 67ec 1c30 8b3f 0af7 709a 3317 a83f
000005b0: f6a2 af45 b229 a53f 04df 1939 b45d a23f
000005c0: 26c6 16ad 7207 c03f 26ae 2a25 8d45 e5bf
000005d0: 9990 b1a9 befb b23f 6557 6425 cbfb b63f
000005e0: fe18 46e5 8b20 a83f 01c5 fd70 90c4 8fbf
000005f0: 1116 78a1 1a83 973f e762 a07d 93b1 983f
00000600: ae12 2212 ae2b 8dbf 8cfa e560 3c71 a0bf
00000610: 4ff2 f6b5 33fa 883f 28fa fe6a 31e9 a13f
00000620: 32d7 92db 4d6e a43f 82b6 5eee c118 8c3f
00000630: 6ded cd1f 5d8a 903f 0184 c684 be48 a23f
00000640: ada9 7bf3 ec75 72bf d682 5c0a 8a12 873f
00000650: 00e5 36d4 230f a2bf 2e7e 9d7d a7d6 903f
00000660: 9847 f401 e7c3 a23f d29c 8764 eadb 963f
00000670: 6e67 a2d5 35d2 9f3f 5dbf 8948 ab43 963f
00000680: def4 709c b246 9b3f e2b9 836a 0f34 b13f
00000690: 4cf7 4465 d3c8 8c3f 8ebb 7176 59cf 91bf
000006a0: 352b db6b 0ec1 713f 67c3 d860 4a63 8e3f
000006b0: 589e af48 a957 a53f 6f61 4537 d034 b03f
000006c0: b78f b85d 5421 78bf a030 5332 8416 93bf
000006d0: df8d a40c a699 9ebf b401 cd25 5008 9dbf
000006e0: 6a7c 8c5a c8b1 a1bf 7d70 1a5a 14ef b13f
000006f0: d9a6 8faa 29af e6bf 4741 10d0 566a 9c3f
00000700: 65dd d418 d1f7 84bf 17c7 869a de71 823f
00000710: 6aab 22c4 f859 9cbf 5ef1 c1b1 ec3a a2bf
00000720: 150e 6a48 4821 b4bf 4bff 83bd f7f2 a8bf
00000730: 6ab7 8c07 148e aabf 2f6f edf3 fac2 69bf
00000740: be78 1def 1321 963f 4c8e 92c3 b420 a03f
00000750: 4fd3 11c6 e344 96bf 69d9 d0c4 7e07 9bbf
00000760: 69dc 79f2 57e5 a3bf 56a9 e228 cb10 b1bf
00000770: 8d0b d0d9 5b3d b4bf fad4 4c91 9b9c 93bf
00000780: d727 3928 aec0 85bf 0327 6e69 7802 9e3f
00000790: c3e1 17bf fbad 7c3f f164 b401 b8bb 2abf
000007a0: d56f fc2b b22c 7ebf f8a4 c910 aa24 a2bf
000007b0: 5203 9cea 208c 9ebf d735 79d1 be57 9ebf
000007c0: b2b3 9e32 f4fa 88bf 32f1 11a5 7124 2f3f
000007d0: e581 c39c c40b 843f f4d5 9f6b 0978 7e3f
000007e0: a426 def1 8111 8f3f e4af fe74 c0d6 903f
000007f0: c89c c8ca b3f9 7cbf b533 626d 0952 91bf
-0.7655587180683656 0.025264936194630362 0.04013757804694505 -0.015877673331242882 -0.008512617632685559 -0.034164596763546655 0.010014803068146191 0.013719039782932648
0.024160207715834953 0.05324394971004245 0.029759378209374087 -0.016667950207624398 -0.024747557142105837 -0.052755669352103025 -0.011277424717144576 -0.029407403191935418
-0.0034461433717516113 0.03338272532676847 0.06068538727094121 -0.022484718002392448 -0.027246471380003457 -0.014976270263902523 -0.03823901665383197 -0.024832140785887007
-0.016199730663080742 0.012119267394927408 0.03425216846223811 0.00581613438737376 0.03559480522260507 -0.014737715723457077 -0.0019306273797887502 -0.041721433375962694
0.014632142738826038 -0.028924927662831165 0.044221287691180916 0.020538515544599827 0.10240744852418167 -0.8339689279604388 0.06948190309251057 0.013883183274944016
0.020410651517975182 0.002977855870089 -0.028432395505541018 -0.001253760554923723 -0.013732074036083425 0.07171972374781631 0.0647717831241587 0.03081007817074999
-0.0143807242101039 -0.02929346067905125 -0.020704759531036034 -0.01959144681292851 0.04385408119172961 -0.012849832721083662 0.0772647531430629 0.08846479484899347
0.016224782794616692 -0.044074190572202285 -0.016051127369794 -0.04831421792616363 0.021717319044730878 0.007350792036070501 0.022202224785955824 0.0527128020494463
0.01742406203227296 0.013816926224467736 -0.0003748725499294178 -0.016535206170012508 0.02249440001173603 -0.0018957308168584025 0.03432277016330424 0.0076493250742917275
0.04264276913041176 0.14115498468851365 -0.6212268347404251 0.09686184500213306 0.06618811962684715 0.02569612967345341 0.051612669160741594 0.04842418628937262
0.04833610350625223 0.09120072623078909 0.08278052501672785 0.061425854647342765 0.02499108309068274 -0.002078938215732522 -0.005834492798538176 0.007023592250453612
0.04152787551013461 0.04273750011958872 0.07246390628278895 0.08577144845780085 0.038107654639237355 0.06500628254382682 -0.0317540249070953 -0.00549290429552939
0.018137765573036785 0.0387926375395647 0.03424951323308425 0.056351717071849175 0.09659476167806647 0.05299161813261101 0.03815484756655046 0.015543384610960782
0.0314251490389104 0.02594473364375752 0.03040718790772926 0.05153481350472394 0.01634645552077479 0.08072890943751887 0.13960143574916822 -0.7731716628503397
0.07314275576315749 0.06570008324709124 0.05034645775696614 0.0721093415554661 0.025568517889101375 0.019660098602120955 0.04724367894431328 0.025029655472112444
-0.01042601161025191 -0.041954623596453244 -0.014762906968214608 0.04258498294388195 0.025321849638750747 0.017746794564862205 0.06432660189264817 0.0410260429875542
0.03824266997213493 0.011095503217807922 0.004714750849332184 0.019460685247556366 -0.013142020197889457 0.019884856196252215 0.02590421069311836 0.04964510091857968
0.04572699083043599 0.02217075775875704 0.013089845641410615 0.005259293630299591 0.021366511375270413 0.0915505182704793 0.02054937717896372 0.008268036385965178
0.018141547802279445 0.034309554374166024 0.01261787676772436 0.08078921108032874 -0.855900107566889 0.057588676157860466 0.05184223432304067 0.01894578724791476
0.03271608799044197 0.053274681605353 0.03487898598788448 0.01952189833639975 -0.0029592489550564673 -0.0029259668966479884 -0.029930083016979477 0.0006530312630215907
0.02781506862260619 0.06888510991770018 0.013583121339893226 0.02384149456331968 0.036734366299207434 0.02383555731832865 -0.015543935711346919 0.0018652651613333395
0.046156536358297175 0.021415855007135196 0.0260285187063949 0.014991953765162403 0.06704581554223991 0.04406727402988252 0.01784353930936305 -0.011675895672159348
0.018014909957042656 0.0695713518644762 0.07964554734619453 -0.004360123441320134 0.013275361980911499 0.04705201397199062 0.04133374310169373 0.03587115475687422
0.1252272935067122 -0.664740154830217 0.07415382044706788 0.08977956450357068 0.0471233098387973 -0.015511635254116475 0.022961059670725762 0.024114899199136366
-0.014243469169977398 -0.03211392100182761 0.01219597243368145 0.034982246695552555 0.03990405373899221 0.013719096266721967 0.016152815881907246 0.035711244304600605
-0.004506993856674785 0.011265829507068597 -0.03527175870426369 0.016443841020530474 0.03665086649756616 0.022323286424492057 0.031075326122482698 0.021742512037632767
0.026636877821364695 0.06720062590077405 0.014054919746395854 -0.017392537931694423 0.004334503491643817 0.014837819176223467 0.0416844273784675 0.06330586766614997
-0.0058911605406456935 -0.018640580722419586 -0.029882998010306024 -0.028352024371317078 -0.034559498837773386 0.07005431365763744 -0.7088821727058657 0.027749401520908348
-0.010238298006341304 0.00900625142171267 -0.02768696496120119 -0.03560580892460295 -0.07863284843374914 -0.04872869671271348 -0.051865220948782945 -0.0031447316572847032
0.021610557050160344 0.031499527810663425 -0.021747168506823396 -0.026395779383358162 -0.03885912737762782 -0.06666249988726256 -0.07906126086895267 -0.01915209841100294
-0.010621414759174925 0.02930629867072466 0.007001860985376532 -0.00020395871329340718 -0.007366844161676729 -0.03543597655227332 -0.0298314231104116 -0.02963159707569737
-0.012197406573102618 0.00023759734407125807 0.009788070711182104 0.007438694761721976 0.015170111840933594 0.01644421304779077 -0.007074072182638953 -0.01691450815319558

arr_0 f8 [2, 2, 4, 4]
00000000: 0db5 ce7c 0b17 fa3f fb8a 7827 e6c5 efbf
00000010: b853 2b90 4ede b93f 5be2 1592 0989 61bf
00000020: a487 c65d 138d c0bf a57e 3563 4e84 c9bf
00000030: 5cd2 4786 70d9 c13f 9294 5390 df3b b8bf
00000040: 9326 9927 27d3 ccbf 5e21 7ac8 71f5 b7bf
00000050: fe34 9a09 68a7 e0bf 75c1 de8c e450 de3f
00000060: d1a4 648f 4fde e1bf ca11 6551 b932 e53f
00000070: 2adb 046e 9df9 e43f 593e 64b1 717e e1bf
00000080: 84da bfee c64b fc3f cf7b 6938 2d22 ebbf
00000090: 7ed4 ed15 0cf5 d53f 86e4 4a4c 5039 b13f
000000a0: 9d54 49bc d2b0 c0bf ce62 896f 9bd1 aabf
000000b0: b72f f326 03ea c63f cbcc b19a 08e1 b7bf
000000c0: 93ef 67a0 8e43 ccbf 90df badc df94 a7bf
000000d0: 92f2 5328 3ace ddbf c46b 4146 13ac e13f
000000e0: cea6 cc6a d940 e6bf 52cd cc17 e862 ea3f
000000f0: 3165 8a92 6156 e93f bb17 a0b7 0b51 e6bf
00000100: ba0f 851b 8b32 86bf 9848 aa82 6c0f f43f
00000110: 3753 91fa a415 f43f c178 7403 dd26 80bf
00000120: cd3a 873b a9d7 d1bf 10ac c357 e4f0 87bf
00000130: 80f2 a4fb dbac 90bf fdcc 3aa8 cf36 78bf
00000140: dcd6 e0ab 629b b2bf c081 76dd 3bf6 d5bf
00000150: 4774 30f4 2d83 68bf 941d 0d1d dea6 79bf
00000160: f02d 7596 3fac 0940 894c 6ba3 1b9c eabf
00000170: 736e bd4c 969e d0bf 48f2 0218 e118 ccbf
00000180: 51a8 c002 e8a4 c1bf eafe b02a a942 f63f
00000190: 17aa f0d9 5446 f63f a38e 690c fa93 c2bf
000001a0: 7a4d 8e3c 5996 d6bf 59bd 3168 670b 863f
000001b0: b5c4 29d6 ca1e 7a3f 5fee a035 4018 883f
000001c0: df3b ddc8 beb4 b9bf 328c 522f f848 d6bf
000001d0: cf8f 2aa8 677b a1bf 564c ab42 e18e 62bf
000001e0: 1f58 3f59 09e9 0940 35ef a31c f8cb e7bf
000001f0: ad0e 3de8 6445 cabf e622 f1de 6a09 d1bf
1.6306261897364636 -0.9929075976291125 0.10104838390118587 -0.0021405398298919693 -0.12930528715974987 -0.1993501648348587 0.13944822842281013 -0.09466359399410099
-0.22519387658603715 -0.09358893532237775 -0.5204353511377631 0.4736873031315761 -0.5583875466010345 0.662441882108902 0.6554705761726372 -0.5466850723914362
1.7685002638005765 -0.8479219533727419 0.34308149472719396 0.06728078711138794 -0.13039621537851512 -0.052380425801577965 0.17901648904660103 -0.09327749039384796
-0.22081168014835537 -0.04605769700486839 -0.46571210802339025 0.5522552845171664 -0.6954161725927521 0.8245735611766725 0.7917945730324957 -0.6973932825501302
-0.010838591363274353 1.2537655929668627 1.2552842891502232 -0.007886625926911585 -0.2787879067736128 -0.011689933708529693 -0.016284405931616508 -0.005911646996241912
-0.0726834935784057 -0.34315392138708134 -0.002992238763467134 -0.00626265299872077 3.2091056589613274 -0.8315561477451335 -0.2596793889440285 -0.2195092551463793
-0.13784504064944028 1.3912746112472925 1.392170764282701 -0.14514089208670553 -0.3529265490880885 0.01076393877721553 0.006377022104616594 0.01176500476514447
-0.10041420368109709 -0.34820370313008475 -0.034144629743678594 -0.0022653960817052106 3.238787362332928 -0.7436485823995783 -0.20524274196406136 -0.26619979640649516

arr_3 f8 [36]
00000000: 326d 118f 8032 c5bf 11c8 c64c cd90 e6bf
00000010: b82c 22f4 9140 d5bf a448 b76c 0623 d63f
00000020: 7589 e677 9813 e43f a632 521d 43a8 d43f
00000030: 64dd baa6 7c92 d9bf 9a5a 8927 e109 eabf
00000040: 8723 1132 1879 cdbf 2c0e 2d75 96b4 f7bf
00000050: 6d9b b784 b4a2 d7bf 4250 405c b919 dc3f
00000060: 1005 da35 ade6 f23f 3254 24c4 2987 ff3f
00000070: 1c0f 9d8c be0c f33f e523 8f56 b997 dc3f
00000080: f768 fae3 71d3 dbbf a9b5 aef1 2f79 f8bf
00000090: 0155 bd24 0ac0 f7bf 0a9f 2cc2 8969 d8bf
000000a0: 3de7 0d90 4cea dc3f e4a0 ae11 5513 f33f
000000b0: 228f 653c 6d58 ff3f c3f9 9070 4532 f33f
000000c0: fea9 201e 87e0 da3f 036f 92b9 bd7a dbbf
000000d0: ea25 9da8 dc43 f8bf 2590 c13b 17ac c3bf
000000e0: d1f1 b97d c02d e7bf e1cd 1c68 e1bc d6bf
000000f0: aec2 8236 e7fc d33f 82d7 0cce d908 e33f
00000100: 5479 a1fc c724 d23f 9b94 7e94 09aa d9bf
00000110: ebc1 7de0 013c eabf f91a a19d 85e9 cabf
-0.16560370431657528 -0.7051760196247888 -0.3320660480610047 0.3458877622298451 0.6273920385176966 0.3227699076021885 -0.3995658519956662 -0.8137059948156378
-0.23025801129031384 -1.4815888001620676 -0.369305734259277 0.43907007225903183 1.1813175300197294 1.970498815707526 1.1906114094462685 0.44676049664536627
-0.43478057158939926 -1.5295867386551925 -1.4843846736087587 -0.38144153559049754 0.4518004805355423 1.1922198000630084 1.9590885504957858 1.1997732541200186
0.419954089566687 -0.429366523001349 -1.5165678583601854 -0.15368929307726478 -0.7243349509804436 -0.35527835051763473 0.3123109848338953 0.5948304199616674
0.2834949462029688 -0.4010032606259501 -0.8198251137346778 -0.2102515239405063

arr_1 f8 [2]
00000000: d7e5 a880 347c c0bf b1bf e66b 0f3c f4bf
-0.12879043848242475 -1.264663144578645
