results/params_13.npz (npz, 392302 bytes, 4 tensors)

arr_2 f8 [1344, 36]
-0.03927124722163087 0.06457829207313746 0.06480088055591796 -0.02035073837920653 -0.001787084244924899 -0.0009733512819453999 -0.0026865916693279432 0.01975581265322782
-0.059780207360430965 -0.01455513901609485 -0.04922923420419901 -0.06179361751216452 0.01865212989383556 0.029471780166445232 0.006425424315393583 0.06600282595156809
0.04206273313267635 0.005731381576932959 0.07101521195230825 0.0311615619122603 -0.027529428780043937 -0.02180942747990906 0.06568695533082694 0.024005696000552586
0.055536823260638524 0.03366383749049445 -0.02958875373777971 -0.02967228356949647 -0.005587672047388505 0.06675018608147396 -0.031024420005816556 0.04129281754521059
-0.048552515298336686 -0.061410018085387895 0.004873777354849033 0.0657663996612223 -0.49635655428874176 0.0025155322171601757 0.05295658421241211 0.023447702448671642
0.04612325287286853 0.001962868241171519 0.02019590039507243 0.03294037636219199 0.02533488398060713 0.024882347855802133 0.03165310413361988 -0.017737769790974373
0.013852344531608662 0.04034795681014655 0.0025749162689685597 0.012753544960439565 0.028107742372589666 0.036759331056941506 0.03447941387121051 -0.00016161479334121849
0.02750635464850424 0.025256139700632837 0.0145343702556426 0.004866360476232698 0.01824295606772648 -0.01847429073226142 0.03402453201387181 0.014024789261605306
0.0032135643172013406 0.009179154117972732 -0.014841691804327964 0.009749289400885538 0.005818784559750392 0.001285829157061099 0.054829358366569374 0.0421756424808744
0.04406149449997666 -0.5951382456838608 0.01829801779586267 0.019797936108721468 0.032233366967068876 0.04370358473084037 0.023485071801432347 0.0788368942797162
0.029922394843232475 0.027485941079751386 0.022971922949291585 -0.0013584616549642973 0.028200282215601377 0.04662621516807727 0.010704160406848346 0.03571370033301811
0.01175501478979947 0.031997182250112305 0.03643873922659502 0.01406860190012259 0.040868849743411595 0.02619056718794809 0.03596157597982042 0.0031532074720808643
0.014345169235575475 0.044100319495081405 0.04348173734147863 0.037092600546957545 0.03129393590854195 0.036347909282966814 0.010660814633038227 0.013067931811597724
0.014202213911682618 0.01725293485231053 0.04418267558959095 0.030742132712337562 0.054066693919792165 0.06492684284038329 -0.6899093661406391 -0.0072027431095992136
0.01849217767843566 0.04264943075536531 0.04597295266094815 0.029880149135496595 0.06267883357891452 0.04263179325603916 0.03198234914855394 0.035771152369108626
0.023156840628891673 0.04063914821238665 0.003944896207820237 0.03672722003123615 0.038239411141171194 0.039170957870860175 0.03489475915155103 0.011739423693759616
0.028975815465460332 0.020863238207723657 0.034851487422281786 0.004282112352328883 0.03971058786921014 0.043854636745895785 0.03362167318147136 0.010564195852902032
0.03771885953121066 0.04980813640984746 0.0357400091685361 0.025896881160535727 0.02141850398647448 0.02556994195874556 0.04743952339776682 0.04895904134849153
0.026498240432623586 0.03982163951568305 0.025816526490486758 -0.7836156373949364 -0.0048442791106122806 0.031900837115396236 0.02151588716038546 0.02464877494417969
0.016838870177772677 0.011188572332685734 0.012707372753868625 0.011627792258644116 0.014371982471028175 0.001596870562491713 -0.006645507952076397 0.0227092050740123
0.0030936656600898367 0.015116244907168381 0.03616346125236734 0.026162330017232015 0.0014434230708667516 0.008665318060049436 -0.010668675696909788 0.0029678136917692046
-0.011557490258827715 0.02441653099402548 0.014110700167161925 0.01611173596577764 0.02799642155192774 -0.002985097394574797 0.012896827398249837 0.0008906721913638184
0.010676713920594955 0.040385385394541874 0.008667904432512348 0.007155482904258352 0.017115103055097475 0.02887889221846359 0.0427772200371408 0.03444176829302167
-0.7990916656354974 -3.2644578372667435e-07 0.02897130150737327 0.028803944159251815 0.022980937927429487 0.025737059171342124 -0.010365010873096481 0.02113963920720551
0.008077127158190407 -0.002686438574369381 -0.005799342908468649 -0.0001868801574275115 0.04989831490521558 0.030873751355219116 0.023932747974861675 0.02816999964344643
0.032439087723227344 0.017467707136214733 0.001058043508444989 0.0027376761622125694 0.018438379372208505 0.012054164783896136 0.020545961365336672 0.0084100509945312
0.040873522251439025 0.017958218723310517 0.01215021985162148 0.022822382371639072 0.027434088379617465 0.010713708255826916 0.03574502024072413 0.015075703695072955
0.04154676123255058 0.024375926370475094 0.03273882233586512 0.025289887421428976 0.0252948753130547 -0.8727478310964737 0.002252976759214 0.05966995911315793
0.04284572453645082 0.01979636680050461 0.04294680426952681 0.030634178762676982 0.017737702054139125 -0.00805132969564027 0.036541804515826865 0.015612988171449004
0.00708524763454014 0.018388141643305097 0.03167138444457348 0.009157625449032192 0.019035709963197183 0.027515020469257478 0.005467050311592208 0.004071654502655974
0.02937151666663867 0.028709327001851928 0.017730020548496327 0.03768089666494692 0.020622818228952806 0.0316868353606852 -0.004111898067715265 0.0048080915127676
0.008909023758724212 0.017814489070629408 0.04153959420357974 0.02524086302870851 0.046637238795047505 0.05191754762694232 0.049921990490798096 0.06274914430094668
00000000: ede5 fa64 5c1b a4bf 4f54 7cf4 3388 b03f
00000010: 025b bd5e ca96 b03f 3f0f 27ef d2d6 94bf
00000020: d60d c718 9347 5dbf 2e6f 34f6 0fe5 4fbf
00000030: 0264 70eb 3002 66bf 898d 0125 de3a 943f
00000040: fc4e 1fe7 829b aebf 44bd 80b0 15cf 8dbf
00000050: b10c d4fd 9234 a9bf 63ef a1bc 69a3 afbf
00000060: fb3d 943f 8b19 933f fb0e e1af d92d 9e3f
00000070: ddb7 c2b4 8b51 7a3f 1cd3 e7aa 8fe5 b03f
00000080: 3ad5 5e1e 3f89 a53f 66f1 f006 ca79 773f
00000090: 448a da8c 0d2e b23f 88c4 3805 d1e8 9f3f
000000a0: 1fc2 26b1 ac30 9cbf 9330 15e7 3555 96bf
000000b0: 6a72 eb3c dcd0 b03f 82da f5fc f294 983f
000000c0: 18a0 418f 526f ac3f 78b8 28f2 623c a13f
000000d0: 855b 88a6 834c 9ebf 0050 1d3e 6962 9ebf
000000e0: 68d7 444b 19e3 76bf d6ca 384a 8a16 b13f
000000f0: 4d9b 3595 ddc4 9fbf 092f d509 5524 a53f
00000100: 2d96 b012 e0db a8bf 0ba3 a546 2271 afbf
00000110: de90 8da5 86f6 733f 3e7a b817 11d6 b03f
00000120: 43d3 f447 4ec4 dfbf 1702 5a13 749b 643f
00000130: 2fb1 991a 201d ab3f f8c8 bbac ac02 983f
00000140: bc24 598d 779d a73f deba dedc 6e14 603f
00000150: f626 d7ee 3bae 943f 7818 639e 8fdd a03f
00000160: 4122 9448 63f1 993f 6349 2719 c27a 993f
00000170: 403d 24ee d534 a03f f5f5 9f94 d929 92bf
00000180: 40b4 e335 9e5e 8c3f 1c85 ebc5 7ca8 a43f
00000190: 11fa 48a5 fd17 653f 3ff0 1ad4 871e 8a3f
000001a0: 2ec7 04a9 46c8 9c3f cfbf 6c79 1ed2 a23f
000001b0: 1898 ec25 49a7 a13f 48a2 ff80 e42e 25bf
000001c0: 1a0b 9736 a02a 9c3f cf52 26d8 bedc 993f
000001d0: 6bd8 5327 32c4 8d3f 1714 89b1 bfee 733f
000001e0: 53e3 c50e 48ae 923f af24 0caa ecea 92bf
000001f0: 13c7 85d8 a96b a13f b2f1 b159 07b9 8c3f
00000200: 29ce ab34 5553 6a3f 2ddf ee35 85cc 823f
00000210: 95cf 5527 5265 8ebf 9e9d 1679 6ff7 833f
00000220: 1081 2f16 70d5 773f f069 618b 2811 553f
00000230: a714 17fa 9712 ac3f 274a 49ba 0b98 a53f
00000240: 41d3 c76b 3a8f a63f acf3 b95c 5f0b e3bf
00000250: 7536 0f30 b7bc 923f b905 7600 e945 943f
00000260: 7b53 ed51 e480 a03f f31a 46f6 5060 a63f
00000270: 0451 537d 780c 983f 914b a69a a72e b43f
00000280: a827 14ed f9a3 9e3f f035 2648 4625 9c3f
00000290: 557b 2ca7 f385 973f 4459 6118 cd41 56bf
000002a0: 4c79 6ae7 88e0 9c3f 2cf9 902a 64df a73f
000002b0: 1d46 0717 10ec 853f 3d1f e6ed 1049 a23f
000002c0: c881 b060 0313 883f f421 a846 ef61 a03f
000002d0: 0047 9232 19a8 a23f f9e3 7dc8 ffcf 8c3f
000002e0: 286c 250a c3ec a43f 3dca 2436 b3d1 9a3f
000002f0: e1ec 7d41 8e69 a23f 7dfa 0a5f c1d4 693f
00000300: 3570 c705 0061 8d3f 0ef5 f22b 5194 a63f
00000310: 1eb7 b5ff 3c43 a63f 15a9 8b24 cdfd a23f
00000320: 37a3 943e c205 a03f 3ef0 4b73 319c a23f
00000330: 72b8 9451 56d5 853f 48af 0e1e 5cc3 8a3f
00000340: f574 40e2 0c16 8d3f 4982 cddb c0aa 913f
00000350: 2a05 6a95 1c9f a63f 7264 6f9a dd7a 9f3f
00000360: 556f 6034 a1ae ab3f 4fc9 a1aa 0b9f b03f
00000370: 7be6 98ce bc13 e6bf 6d34 8ea1 9f80 7dbf
00000380: f65b 7109 9def 923f 5f1a 936c 25d6 a53f
00000390: f1d0 5b50 c489 a73f 54a3 58dd e698 9e3f
000003a0: 0c74 5f54 b80b b03f 40ea 9b9b d5d3 a53f
000003b0: 94da 488f fd5f a03f 5b90 21b3 9850 a23f
000003c0: a016 b844 6db6 973f dcdc 0489 a7ce a43f
000003d0: 81e2 2d03 8628 703f ab76 d001 e9cd a23f
000003e0: b90c 8ab8 1d94 a33f e944 043e 370e a43f
000003f0: 8e25 b7d2 b9dd a13f 176c b5c6 d60a 883f
00000400: da42 320f d6ab 9d3f 8acf 2937 2c5d 953f
00000410: f92c 64dd 0dd8 a13f f542 2dc8 1e8a 713f
00000420: c408 6838 f254 a43f 9702 346d 1d74 a63f
00000430: e19f 8025 dc36 a13f 44f3 925d aea2 853f
00000440: 0d08 42e8 e24f a33f fbf5 e8b9 7380 a93f
00000450: a940 13b5 834c a23f ae91 9c46 b684 9a3f
00000460: fdc7 9a78 bbee 953f eeca e4c1 012f 9a3f
00000470: 12fe 0f43 fe49 a83f 65dd ded2 2811 a93f
00000480: 5918 3dd0 5a22 9b3f 0d32 c97e 8063 a43f
00000490: 2d4f e4c3 a56f 9a3f b3da e719 6113 e9bf
000004a0: 25f8 a445 98d7 73bf 2c55 4078 4e55 a03f
000004b0: 660a cbbe 4208 963f b83c 1649 873d 993f
000004c0: 4c49 dc72 353e 913f a801 10c2 08ea 863f
000004d0: 5ee6 2ab3 5206 8a3f 97f1 cddb 4fd0 873f
000004e0: e5b4 88d5 0e6f 8d3f 5fd2 e0b5 c229 5a3f
000004f0: ee92 1cf5 5138 7bbf 7eb4 71f4 1441 973f
00000500: fa0a b71a e357 693f 57ee 1d0c 44f5 8e3f
00000510: 9e35 c766 0484 a23f 83a3 3e3f 4cca 9a3f
00000520: ebf5 8db8 27a6 573f bc36 6b4d 1fbf 813f
00000530: cbc9 ad69 75d9 85bf b189 e5d7 f44f 683f
00000540: 51e9 7b15 74ab 87bf 5489 67a8 a500 993f
00000550: 9fd7 ee1d 12e6 8c3f 001e 384c 987f 903f
00000560: 46da e10b 18ab 9c3f 631f ecf5 3374 68bf
00000570: c95d 2edf a669 8a3f d87a 78f7 7f2f 4d3f
00000580: 6a0e f148 acdd 853f 1507 03ab 64ad a43f
00000590: d7fc 7f70 7ac0 813f de59 f950 114f 7d3f
000005a0: 28a8 8e1f 9f86 913f 56f6 7da6 6d92 9d3f
000005b0: a189 2552 e5e6 a53f 2bb0 def8 59a2 a13f
000005c0: de23 4daf 2892 e9bf 00ae 7cbd 4be8 95be
000005d0: 23a5 fc21 a7aa 9d3f c3a1 a3f8 c77e 9d3f
000005e0: fca0 51a3 5088 973f 3399 becd d05a 9a3f
000005f0: 3af4 c735 403a 85bf 5e3f 2d2c a1a5 953f
00000600: 37a5 eba7 bd8a 803f 5767 3aba de01 66bf
00000610: 2325 1542 0dc1 77bf 602f 2f54 a87e 28bf
00000620: 126d 499d 458c a93f 8a83 8061 5e9d 9f3f
00000630: c2f8 6b87 d381 983f 16a9 c9ac 98d8 9c3f
00000640: b044 c429 db9b a03f 686a 8bfb 0de3 913f
00000650: 809a 0e91 c155 513f 3c03 aeb2 526d 663f
00000660: 845a 94b1 82e1 923f 992c 389c daaf 883f
00000670: b618 8420 000a 953f ca68 d5ef 4939 813f
00000680: 8f3c afd2 5fed a43f c7b2 71a8 a363 923f
00000690: 0d24 37e7 36e2 883f 2dab 9c27 c05e 973f
000006a0: 9e4b 8b81 ae17 9c3f 270d 9f94 11f1 853f
000006b0: 8187 dbd9 2b4d a23f 491b adb2 02e0 8e3f
000006c0: b83e 7ff9 9d45 a53f 9298 48ba 00f6 983f
000006d0: e1f3 7b96 24c3 a03f 5507 949d 97e5 993f
000006e0: 1464 e758 e6e6 993f 6fdb 06dc 8ced ebbf
000006f0: 1ead fbaf d574 623f d9ab e395 0f8d ae3f
00000700: 5ba1 50f3 dfef a53f 8e7e f3af 7f45 943f
00000710: 5254 9c9f 1ffd a53f 4eba b3ef 905e 9f3f
00000720: 7635 ea08 d529 923f 4451 db2d 377d 80bf
00000730: 6c23 aa7e 9bb5 a23f d9b2 b6cc b3f9 8f3f
00000740: aa96 fdad 6b05 7d3f 2f06 f84b 57d4 923f
00000750: 1b25 d150 3b37 a03f fa39 80ae 3bc1 823f
00000760: eb06 fede 187e 933f e3c5 41c4 e52c 9c3f
00000770: 6cb6 b324 9e64 763f d94e df6e 70ad 703f
00000780: 0f8b 111e 9113 9e3f 84a3 4052 fa65 9d3f
00000790: d31d a789 d127 923f 2445 b815 e94a a33f
000007a0: 55fa 60e7 251e 953f 84fe 2cc3 4139 a03f
000007b0: eeeb 9a3b a3d7 70bf 682f db3c a6b1 733f
000007c0: a1cc 76ed e43e 823f 982e d01f f63d 923f
000007d0: 6bdd 2f7d ad44 a53f 58aa eca4 bdd8 993f
000007e0: 990a cd0e d6e0 a73f eddf 4ad2 ef94 aa3f
000007f0: f8b5 0409 608f a93f 8fe2 9ff2 5310 b03f

arr_0 f8 [16, 2, 4, 4]
0.34758372192781245 1.7767037129661916 0.15606910531117538 -0.2788732690876633 -0.13354611633930857 -0.06017127195822919 -0.09588241717138674 -0.38849472616279523
-0.40202139018059974 -0.17915219472358004 0.24256362612896565 0.3023888813272933 -0.9384520718615059 -1.1121893102039977 -1.361379708269273 -0.627886795021138
0.7363739864519893 1.6134768869295784 -0.11159544438013663 -0.02061216051025367 0.20999847581784128 0.006441207024711235 -0.25932562594647046 -0.3916848018450257
-0.3921205741264102 -0.13787377634150633 0.15269563977295536 0.3822175486139048 0.9252239232344476 0.7742933391596011 0.43783594549515364 0.8149453202373853
-0.013416702282613394 -0.7738488206987697 0.3115508943024998 0.15896102201238393 -0.8970245700996826 -0.4241229245334797 -0.2929280587623556 -0.5716371991673829
0.3113771603077312 0.0527382159981274 0.2784853461942858 -0.0012637188763491855 0.23412238911119268 -0.23314007608315432 0.23665946464556492 1.8386934164973967
-0.7288058831483053 0.9157662663657238 -0.6119329363742605 -0.5330496014047873 0.794446850521723 0.3392968532943136 -0.3287658136323809 -0.2612369234118665
-0.45859359218964973 -0.8285304214516289 -0.4639748145723514 -0.026532784067596148 -0.5476354903438471 -0.44251452371571476 0.2135213986874268 1.4621231876309064
1.5503484907550131 -0.12544679915478424 -0.11367575462404428 -0.18069566993517133 -0.10383294354027342 -0.18933596616449 -0.23458168474098687 0.3623376462011747
-0.09870103251852316 -0.023060834170642888 -0.4677035437240772 0.002465781421024796 -0.12947000481941762 0.7933885718539544 -0.22806685459985185 -0.1714853100224537
1.4510856874163354 -0.1848358863791786 0.12760145717783603 -0.6056503772960176 -0.14296519692295814 -0.3676340909967684 0.1333811315258141 -0.44821570196972105
-0.333836081951807 0.001281855818143806 0.4175119632919386 -1.1079671792625445 -0.8359514259003529 -0.230623645826095 0.2608649751036383 -1.144856254000438
-0.15822367603398482 0.2345018457809338 0.676861274144858 -0.008253158864286883 -0.494358826993877 -0.11189970323108667 -0.11436888620756683 -0.459322393673587
-0.2555922189728206 -0.13446277804700352 -0.2909902726667518 -0.46868360121495023 -0.0009873858626314857 -0.3529953639135406 -0.3684027829363829 1.357348131340247
0.03118883828218188 -1.0000760936209907 -0.9112701966359307 -0.7600661872200636 0.5718510227318264 -1.4814862192205787 0.17216522434964285 0.17268883543173077
-1.0773430931794523 0.34101167345962685 0.1959165498496133 -0.19660438268259015 0.25020099022233855 -0.21406155778703725 -0.020558347165843382 1.4273969293437527
1.0402468442848565 -0.10705818873451044 -0.3516391244877413 0.10100369796905029 -0.21051941821219658 0.3188687062280898 0.1728375292196638 0.07130113994374346
0.12305730434342907 -0.20291252759116435 -0.2539029004389925 -0.4304011992836643 -0.46029640687341083 -0.37319660730962834 0.3599633000686205 0.5301341527887952
1.2920750395422447 0.3513686407665664 -1.2006470800250397 0.7829216343158905 -1.016038994965927 0.008462772557317505 -1.1812387792974395 -1.0613640775590907
0.7049571998278245 0.3232701653441923 -1.2919717250647398 0.45679269376000375 0.5914055208198874 -1.1129738430555574 0.5922437081900749 0.7822742995671403
-0.6343414356617572 -0.6453521626758026 -0.5731364374723864 0.7370667814796565 0.08033519914157733 0.16175722439996187 -0.13565603060640954 0.3217852665105194
-0.01282881516278021 -0.13442737007681899 -0.13503996347934344 -0.39007359843871053 0.09293875510766625 -0.38382222970485386 1.4708471146504594 0.5575798845449808
0.9249973752537658 0.7455641689575996 -1.4597567733271604 0.9239178362394795 -1.1920268856457636 -0.9530045229741936 -0.797621748129072 0.46841295338043587
0.22748432025529386 0.07668132138925954 0.13225252314253189 -0.4690637564056936 0.012379409009451527 -0.12089371217400374 1.2698075084667402 0.6368192206041218
-0.6769693467812287 -0.44295311396982057 -0.6133443419681716 -0.6646918147851707 -0.7691567454725889 -0.5854947736374255 -0.6420686332794385 -0.4031357325649676
-0.3446649113632926 -0.569186390096799 -0.6509933772988219 -0.4496474396855355 -0.3555246228921074 -0.4475626256536197 -0.37202187011092464 -0.43191849977158464
-0.609658349600242 0.2411895314414946 0.026534861514873553 -0.6077584449481479 -0.8106526601281926 -0.039248341953887975 -0.15882285749751424 -0.4744090859992595
-0.8627917142561966 0.4611833685976564 0.25191554404149885 -0.8417978453275274 -0.06800910904805162 -0.7050851365829218 0.08649493171595375 -0.6036718305500717
-0.24473361482925526 1.5967916213300801 -0.18216979614423753 -0.2357336767736662 -0.14162718864112234 -0.010180275494866902 -0.05594548353103647 0.16111321719741528
0.13466254866240632 -0.27643212813881285 0.008933037531770462 -0.2256348412068941 -0.1787963954096368 -0.278655692090813 0.10186387646877305 -0.09185310049001046
-0.37047015278434353 1.5467718818015168 0.09049744958372914 -0.3332193864249549 -0.14602499161868426 -0.5690256199527464 0.02605858987849638 0.2504382700300733
0.07849970756903499 0.13776292853352842 -1.1085489433862024 -0.10298356290692738 -0.6479709599266181 0.4465962048064108 0.6433384782301869 -1.1860522220607763
00000000: 8952 93cb cf3e d63f edf1 5ddf 606d fc3f
00000010: 011e 9d8b 12fa c33f a272 9d44 0fd9 d1bf
00000020: b8b2 1705 0a18 c1bf 384a 70da c4ce aebf
00000030: 7c35 0306 c08b b8bf 5e69 e2fb 18dd d8bf
00000040: 778f c7ec b7ba d9bf 4d15 ac88 75ee c6bf
00000050: 7027 b62c 530c cf3f 4d62 fee4 565a d33f
00000060: 8846 b0a3 cc07 eebf 6d97 a404 87cb f1bf
00000070: d445 c716 36c8 f5bf e897 460c a617 e4bf
00000080: 53f7 ad2d 6090 e73f 4d6e e323 cdd0 f93f
00000090: 44ca fedf 8491 bcbf d26f 2aad 5a1b 95bf
000000a0: 117a ece4 3ae1 ca3f bd51 4958 1862 7a3f
000000b0: c41b 9d82 ca98 d0bf a1ef 9021 5d11 d9bf
000000c0: 188c 7de4 8018 d9bf d86f 2e10 d9a5 c1bf
000000d0: aa87 88dd 878b c33f b841 d097 4076 d83f
000000e0: bd99 7833 6f9b ed3f 996f 26d3 02c7 e83f
000000f0: 1b8e ba0e 8105 dc3f 8454 4e35 0814 ea3f
00000100: 4823 314c 377a 8bbf 5a61 1e9a 5ec3 e8bf
00000110: 0c67 8429 73f0 d33f ece2 70b3 d558 c43f
00000120: cc2b 09df 6cb4 ecbf 21bb 967a d424 dbbf
00000130: eec3 1d54 55bf d2bf f73a 7318 da4a e2bf
00000140: 368e 0f78 9aed d33f e934 ece1 8000 ab3f
00000150: e475 9433 b4d2 d13f 044d b2cf 6bb4 54bf
00000160: 0d3a 3ff2 b8f7 cd3f 3701 15b5 88d7 cdbf
00000170: 5a85 787a db4a ce3f 14a1 b3c9 496b fd3f
00000180: ca23 28b7 6052 e7bf 1044 9a0e f54d ed3f
00000190: 8a53 a261 f494 e3bf 9fbd a509 be0e e1bf
000001a0: 00d5 2ccd 1b6c e93f f239 2226 0ab7 d53f
000001b0: 9202 66c4 7f0a d5bf a3f1 a312 1bb8 d0bf
000001c0: 6f05 27f0 9859 ddbf e806 fc3a 5283 eabf
000001d0: e360 b06b c3b1 ddbf f65d 5eff 682b 9bbf
000001e0: e1fb 24dd 3a86 e1bf f64b d76f 2852 dcbf
000001f0: 14e9 2d50 ab54 cb3f 7891 9948 db64 f73f
00000200: c021 1338 3ace f83f 9efb e005 a40e c0bf
00000210: 1c59 75b0 da19 bdbf 5e3f 7324 0921 c7bf
00000220: 52bd c0b8 cb94 babf b007 5133 293c c8bf
00000230: ddff 19cc c506 cebf 64cb 223d 8a30 d73f
00000240: 029d bf8a 7844 b9bf 0758 5362 429d 97bf
00000250: 7a2a 21d8 daee ddbf ba10 ff51 1e33 643f
00000260: 0c95 411e 7992 c0bf 8e40 246e 7063 e93f
00000270: ef6a e770 4b31 cdbf e43a 250b 3bf3 c5bf
00000280: 7459 32a0 a537 f73f 6118 90cb b3a8 c7bf
00000290: 9518 c09a 3e55 c03f 927c 69e6 7c61 e3bf
000002a0: ff09 a0fe ae4c c2bf a573 6e23 5187 d7bf
000002b0: bc46 e706 a212 c13f 64df 60e9 90af dcbf
000002c0: 614c 8d03 925d d5bf 979c 4b34 7e00 553f
000002d0: acc4 0119 84b8 da3f 7f95 ffca 3bba f1bf
000002e0: b02b 6934 1dc0 eabf 55f1 405c 1385 cdbf
000002f0: 9d7c 2f02 03b2 d03f e2d8 98ca 5451 f2bf
00000300: 216a 0265 ac40 c4bf 1889 3d0f 2804 ce3f
00000310: 9b31 8cf9 d8a8 e53f f553 493b 08e7 80bf
00000320: 305e 9b34 93a3 dfbf 7043 cf7d 75a5 bcbf
00000330: 8a02 f181 4747 bdbf eb80 c9c0 8965 ddbf
00000340: e46b 6677 9f5b d0bf 36df 1e89 1336 c1bf
00000350: 5ab3 23aa 959f d2bf 20f1 d880 e9fe ddbf
00000360: 3828 447f 652d 50bf 587d e9dd 7997 d6bf
00000370: cfe5 1d44 e993 d7bf 074a 96ac b2b7 f53f
00000380: 3e56 b081 f7ef 9f3f 43d1 39ca 4f00 f0bf
00000390: b0dd 8b1d 2029 edbf 90fa 1c53 7652 e8bf
000003a0: b527 1a84 9a4c e23f e36e d0e4 2ab4 f7bf
000003b0: 4b8c 0b94 8209 c63f 5d24 48f2 aa1a c63f
000003c0: 876f 7c1c cc3c f1bf 930d 44a0 22d3 d53f
000003d0: fdb3 2c23 cb13 c93f 7b9d ef18 552a c9bf
000003e0: f4a1 9b03 4b03 d03f 8758 037f 5e66 cbbf
000003f0: 63cd f252 3f0d 95bf 6b13 9f29 9ed6 f63f
00000400: d687 ffdf d9a4 f03f 573b 625b 2a68 bbbf
00000410: 9dcf ea62 4181 d6bf 9058 8ddb 60db b93f
00000420: 7179 32e0 4cf2 cabf 26eb 3d4a 5868 d43f
00000430: 198c c247 8a1f c63f 6ad4 39a0 ca40 b23f
00000440: ce5e b0f9 ae80 bf3f aaf3 f9a6 09f9 c9bf
00000450: 5bae 6ff3 f13f d0bf f547 c578 b18b dbbf
00000460: fd34 7f0f 7f75 ddbf 5edf d705 74e2 d7bf
00000470: 7584 6382 a309 d73f af0e 17e6 dbf6 e03f
00000480: 54fd 6ce0 56ac f43f 08ac 3be5 d27c d63f
00000490: 53ed 6bb6 d935 f3bf c0f6 d6ab b10d e93f
000004a0: 0a6e ed1a b241 f0bf 30f4 ef1a ee54 813f
000004b0: 6897 5da2 5ae6 f2bf 7f3f 24e6 58fb f0bf
000004c0: 45e3 ca66 028f e63f 9c40 fb58 75b0 d43f
000004d0: fb27 288b eaab f4bf b80f 306c 173c dd3f
000004e0: 660c 5345 cbec e23f 05a2 13a9 bdce f1bf
000004f0: 3c05 be13 a9f3 e23f b28c a41c 6408 e93f
00000500: 2647 1569 864c e4bf e10d 2394 b9a6 e4bf
00000510: 0ae0 e239 2257 e2bf 108a 2d13 0d96 e73f
00000520: 64dd 07fd d890 b43f d043 58f2 75b4 c43f
00000530: 95d7 7a43 2d5d c1bf 2cd4 ff3a 2198 d43f
00000540: f686 906c fe45 8abf ae67 1583 ea34 c1bf
00000550: 04fe 6551 fd48 c1bf 75f2 1441 f7f6 d8bf
00000560: b8e7 b791 d5ca b73f 73d9 031d 8b90 d8bf
00000570: 5a6f edfb 9688 f73f 97e6 20c5 b1d7 e13f
00000580: 7539 7318 9499 ed3f fec0 5763 a9db e73f
00000590: cddf 18eb 295b f7bf 66de 5a23 bc90 ed3f
000005a0: 12d2 9cc8 8a12 f3bf dfa7 6357 037f eebf
000005b0: e95d 590b 1e86 e9bf f2ab f252 7afa dd3f
000005c0: 20b5 ecc9 341e cd3f 28b8 9417 63a1 b33f
000005d0: d4f6 da92 a6ed c03f 5b16 60fd 2305 debf
000005e0: 6e18 b726 605a 893f 7452 14ec e3f2 bebf
000005f0: 3d47 91ad 2151 f43f 69af beb3 d260 e43f
00000600: 4b3c 9a9e bba9 e5bf f359 8a04 5859 dcbf
00000610: f713 3e50 84a0 e3bf 737a cdc4 2745 e5bf
00000620: 9eae 699b ee9c e8bf a50d 1889 5fbc e2bf
00000630: 961f b784 d38b e4bf 60cb cdd0 f9cc d9bf
00000640: c694 986a fd0e d6bf dc68 5960 c636 e2bf
00000650: 2627 2d10 f0d4 e4bf 0d7d 0b0e 06c7 dcbf
00000660: 2ca3 0f59 eac0 d6bf 2a07 06b6 dda4 dcbf
00000670: cd7b 61d1 34cf d7bf 119b c37d 8da4 dbbf
00000680: 2386 283a 5282 e3bf 5de2 d66e 4cdf ce3f
00000690: 101e a469 f42b 9b3f 8e71 9dd6 c172 e3bf
000006a0: cb4f f5d8 ddf0 e9bf f674 3ad2 5b18 a4bf
000006b0: 5490 67b1 4e54 c4bf 4bb1 52ed b75c debf
000006c0: 3daf 7f5e fd9b ebbf ce81 653f 0784 dd3f
000006d0: 48c9 c05f 621f d03f c6cc f008 02f0 eabf
000006e0: cb04 3183 0b69 b1bf 749e 50b4 0e90 e6bf
000006f0: dd61 fd26 8824 b63f 1054 3796 4751 e3bf
00000700: a435 f65b 6e53 cfbf 6f3b 025f 758c f93f
00000710: 1b16 6102 5751 c7bf 8084 2768 852c cebf
00000720: cc11 b8f7 d620 c2bf c98d 8472 65d9 84bf
00000730: c2d9 3fec e2a4 acbf aa7a 689f 5b9f c43f
00000740: 3322 4055 9f3c c13f 5bdf 7a61 10b1 d1bf
00000750: 0e54 6c00 7c4b 823f 8a2f e93b 9ae1 ccbf
00000760: 61aa 76df cce2 c6bf 54f4 17af 7ed5 d1bf
00000770: 09c1 1342 c013 ba3f 3d0b a44e af83 b7bf
00000780: 9195 9671 c8b5 d7bf b85b 6bdf 93bf f83f
00000790: ed61 5542 d72a b73f d1a7 c567 7753 d5bf
000007a0: 7251 b369 f2b0 c2bf bc0f 8937 7535 e2bf
000007b0: 3869 3b5d 1aaf 9a3f f78a dc3c 2e07 d03f
000007c0: 6e2b c18c 8e18 b43f 578b 5334 37a2 c13f
000007d0: dabe 1dd1 9dbc f1bf c3f7 b57a 215d babf
000007e0: c88f 3498 2dbc e4bf f651 8a3f 0895 dc3f
000007f0: d739 8893 3a96 e43f 2d96 11e5 11fa f2bf

arr_3 f8 [36]
-0.2632044031304872 -0.3418802788672267 -0.2151629330709647 0.22910916920829438 0.24885988267807999 0.2299290774693932 -0.27005963564600144 -0.39982054787477683
-0.2397951973988514 -0.42996175325237623 -0.4345155938711343 0.11798701816310812 0.5994982509835127 1.3331446088659622 0.6402091683772335 0.114094381013577
-0.4669036105529664 -0.45851626046461785 -0.4259232126995616 -0.4739819227002411 0.06004173848427653 0.5984971354551 1.325236179736642 0.6313273710892692
0.1007096722325566 -0.44755537854425453 -0.4255483017538843 -0.21498040005236613 -0.4150046294578607 -0.23914277772200337 0.24121680260787878 0.2787437831869607
0.2315678421868596 -0.2406406928292437 -0.33082960467384404 -0.2467449471760405
00000000: 00f4 e647 57d8 d0bf 4e74 38d2 5de1 d5bf
00000010: 1df5 6c80 758a cbbf 344f 7b02 7353 cd3f
00000020: 93c2 b100 a4da cf3f 09b4 10e6 506e cd3f
00000030: a06e c435 a848 d1bf a205 59ec a896 d9bf
00000040: 6e70 48e9 9bb1 cebf 5bfc 2f4d 7e84 dbbf
00000050: 99d3 517e 1acf dbbf 9bf4 5cb0 6534 be3f
00000060: e877 bff4 162f e33f 35b0 fe70 8f54 f53f
00000070: 48f2 18f0 977c e43f 4c55 1c13 4a35 bd3f
00000080: 5b65 6dae bfe1 ddbf d94d d895 5458 ddbf
00000090: 39b8 496f 5342 dbbf 9422 3946 b855 debf
000000a0: 12b2 5e6e cabd ae3f 53f0 f076 e326 e33f
000000b0: 211e 37da 2a34 f53f f7bc 7c75 d533 e43f
000000c0: ab34 a1ec 1bc8 b93f 38c6 7f50 bfa4 dcbf
000000d0: 73ae b9f1 2e3c dbbf a2c1 c04d 7a84 cbbf
000000e0: 7172 cd93 6f8f dabf 3eff b104 3b9c cebf
000000f0: cb27 3933 31e0 ce3f 7a15 302a f0d6 d13f
00000100: 96b9 7fda 03a4 cd3f bfe9 e470 50cd cebf
00000110: 72db 27ef 4f2c d5bf 0684 49a3 5695 cfbf

arr_1 f8 [16]
-0.8301131103141732 -0.4850337466484173 -0.0016831866281792772 -0.07392107306861578 -0.6115566909010985 -0.6850243275983103 0.3327865878818467 -0.026509514984533505
-0.13337732105107442 -0.1708119312191883 -0.9006970104615882 -0.2806318342724715 -0.17293317754415197 -0.20726701955173768 -0.8822654749090688 -0.6523462982535724
00000000: 84f7 985e 4990 eabf 5fec d3fb ca0a dfbf
00000010: c79c 59e1 cb93 5bbf 549f 50cf 7dec b2bf
00000020: 123f 6256 df91 e3bf e6f8 7f23 b8eb e5bf
00000030: 5eff df1d 604c d53f 6bc9 906f 4f25 9bbf
00000040: 6ea2 f80f 8212 c1bf 9a2f 2d55 2add c5bf
00000050: 2133 7189 82d2 ecbf 26ac 9a39 dff5 d1bf
00000060: f505 f9a2 ac22 c6bf 39ce 41c7 b987 cabf
00000070: c0fa 23ce 843b ecbf de4d 1558 05e0 e4bf
