results/params_16.npz (npz, 783598 bytes, 4 tensors)

arr_2 f8 [2688, 36]
0	0x3fa2653035a8c0c2	0.03592825560588288
1	0x3fa1831974828c04	0.03420333430519665
2	0x3f9071c4136b5d32	0.016058982548966934
3	0x3f8a4c457393d4e2	0.012840788449901944
4	0x3f58fade3c15f5f8	0.0015246553669777656
5	0xbf6ae7ac6ddf0076	-0.003284298682928062
6	0xbf903b3fc3820ed0	-0.0158510172918927
7	0x3fa1a8dd7ebab4cf	0.03449146434773242
8	0x3f6268b1074501a0	0.0022471864305375205
9	0x3f8796944e0a9e18	0.011517676002156071
10	0x3fafceb179c495f1	0.06212381946015089
11	0xbf9273b802c22cf2	-0.018019557159772277
12	0xbfa9e36528fc4bb6	-0.0505630123644986
13	0x3fa4de5fe5a9bedc	0.040759083542864366
14	0x3fa0d428e537da1d	0.03286865041802776
15	0x3f930821178a7c6e	0.01858569818670868
16	0xbf9cae0258ad8c21	-0.028007542288275403
17	0xbf98b3587cc112e0	-0.02412164937438177
18	0x3f958957548d343e	0.021031727347964095
19	0xbf8d5966ac57247a	-0.014330675253306991
20	0x3fa475f357d70435	0.03996239135040761
21	0xbf9d6182745d38e5	-0.028692282059005775
22	0xbfa7da69c6db9680	-0.04658823540175394
23	0xbfa3333d7ef2a399	-0.037500306841429416
24	0xbf8d0194295bf8f9	-0.014163167488274274
25	0xbfb06294cc7bf393	-0.06400423042573626
26	0x3f9f0d104e98430e	0.030323271557850133
27	0x3f95ab90c6cc3c8f	0.021162283071188667
28	0xbf8ab75314e4f99a	-0.013044976306102286
29	0x3f733011100abc01	0.004684511805563397
30	0xbf9cd1c085dab0cb	-0.02814389054280823
31	0xbf57127eae006f22	-0.0014082181078327112
32	0x3f81b59dcacb18d4	0.008647186995755986
33	0xbf93625d33b38cc1	-0.018929916649437887
34	0x3f948fa597c17d8f	0.020079219233932796
35	0x3f9c7eac7abbc84f	0.02782697199922551
36	0x3f9358837b60f7bc	0.01889234009308159
37	0xbf81b6d18fd45856	-0.008649480058505226
38	0x3fbe247c70dbfe22	0.11774423365931644
39	0x3fb9a6abbe8ca5a1	0.10019944574437158
40	0x3f26ee0c9dfcca3a	0.00017494110124401265
41	0xbfb109c7ccfadc8f	-0.06655548815148137
42	0xbf68954de9968a31	-0.0030008813598254793
43	0xbfb4c589c7fdf215	-0.08113919384590702
44	0xbfbd3d9f3fbb11a4	-0.11422152810980052
45	0xbfb0223996ed1b9e	-0.0630222314331221
46	0x3f74bc24178abffd	0.005062237724516192
47	0x3faa50ea7eaf4167	0.051398590053966235
48	0x3f500223c09c1b29	0.0009770726341586467
49	0xbfc13029ede153ba	-0.1342823421024642
50	0x3fb7f0a2e91634f2	0.09351556959719057
51	0x3faafa5267fb583a	0.052691054528324746
52	0x3fa3e55bcfbc7c7e	0.03885924254267879
53	0x3faffb6748862220	0.06246493110944962
54	0x3fabf77ef2338b0b	0.05462261873778659
55	0x3faedfecef6df8b5	0.060302166201823416
56	0xbf90adb965638fdb	-0.016287705243385502
57	0x3fb3681442e33679	0.07580687172886681
58	0xbf842952b6421a49	-0.009844442545966408
59	0x3f8abff30023a60d	0.01306142658400502
60	0x3fa06b99099b4b0d	0.03207090608852612
61	0xbf94eba35e49fa7a	-0.020430138235037344
62	0xbf860cffa6c1f779	-0.010766980434933281
63	0xbfa1198123c30862	-0.03339770852609615
64	0xbfae2d581ddb3fc9	-0.058939698834023675
65	0xbfb63061412e1ea1	-0.08667571870148062
66	0xbf98954d480a8ab8	-0.02400704147533858
67	0x3fb5f8e6d75798ba	0.08582918889405536
68	0x3f94afe0bca34d39	0.020202170861762545
69	0xbfb656424187d316	-0.08725370502345373
70	0x3f81c7a26b5f05ed	0.00868155374689913
71	0xbfb04eb118419406	-0.06370074121657873
72	0x3fb60092763e6357	0.08594622980889476
73	0x3fbc9dd1a3a8df13	0.1117831253585531
74	0x3fa7839e7b0c0f89	0.045926048775100155
75	0x3fc66e9b187fc02c	0.17525042244187838
76	0x3fb9216930494321	0.09816605976926641
77	0xbf80fe1f6c41bc7b	-0.008297200671419916
78	0xbfa78215a515b988	-0.04591434135624001
79	0xbfb6ba1ac9eef1b7	-0.08877723150266702
80	0xbf85206eb7e27b0b	-0.010315766321864503
81	0xbf95f3e440a57d87	-0.021438185163217518
82	0x3f9c8f596d4b1f32	0.0278905842740464
83	0xbf9e99be3afd9e21	-0.029883358335977776
84	0x3fbc474a30141b9f	0.1104627959613098
85	0xbfa0ce08f6505620	-0.03282192236671855
86	0xbf87a4c141bc2cce	-0.011544713800978459
87	0x3f798cdf1d16dc1f	0.0062378611923384055
88	0xbfa9c7ebfc537c30	-0.05035340743210559
89	0xbfa43ef73f1687f1	-0.03954289097897846
90	0x3fad04e3c4aebe97	0.05667793060217468
91	0x3f9ce52fafa4bc21	0.02821802625220127
92	0x3fb0a476d499b7fe	0.06500952425423631
93	0x3f960c446d623b8f	0.02153117101311924
94	0xbfa0b757f9bc3585	-0.032648801074269186
95	0x3f9a9dc0932c622e	0.02599240206027014
96	0x3f9bb3d62f6d08ec	0.027053209919594076
97	0x3fb0c6de3411464e	0.06553448458841979
98	0xbf87b70f20dad228	-0.011579626264713275
99	0x3fb5f42662cb23d3	0.08575668250990924
100	0xbf7ca9fc18a626fd	-0.006998047591318499
101	0xbfbbf7493305058c	-0.10924203391643611
102	0x3f94295dceb8c077	0.0196890504286675
103	0xbfa442ec776963f3	-0.03957308728849531
104	0x3fb56091b6fca577	0.08350477902845009
105	0xbf62a2c4498da1fa	-0.0022748788582485054
106	0xbfa11ea263b186d5	-0.03343684641801096
107	0xbfb3186b46c5a471	-0.07459135511239069
108	0x3fc2966760ff2119	0.14521496044313478
109	0x3fb9ca1d83faf450	0.10074028465437945
110	0x3f95415233999653	0.020756992720995914
111	0xbf7608d4a9003cb8	-0.00537951536536168
112	0x3fcb5567d8d2aeb8	0.21354387366351602
113	0x3fb3f8a1d5224462	0.0780125756594017
114	0xbfb866d130dbb89c	-0.09531886523083916
115	0x3f919f898ad05ff6	0.017210148904354093
116	0xbfb1de67ebf10a96	-0.06979989538471396
117	0xbfab57c48760e28f	-0.05340398933953338
118	0x3f639a380df8b467	0.0023928732696477
119	0x3fb02cd866c33bcd	0.06318428524831106
120	0xbfb4ec342f4ea107	-0.08172918467483124
121	0x3fa57af03114403a	0.04195356940374535
122	0xbfb8209287712d3e	-0.09424701506320773
123	0x3f82aa321255bbfb	0.00911368483022378
124	0xbfbac54fafa37023	-0.10457323110625842
125	0x3f9bd99789a73f1a	0.02719723489445789
126	0xbfb66efd0117c680	-0.08763104702645741
127	0xbf83f428503232c3	-0.009743037173643448
128	0xbf65da4945f02a58	-0.002667563544951162
129	0xbf9b3c2ec0ce69cc	-0.026596766012156256
130	0xbf88b09faa4ac17d	-0.01205563295783984
131	0x3f87117b2a718bac	0.011263811333440753
132	0xbfb28e6c964a248f	-0.07248572034053978
133	0x3f7c44b6d8f2bf21	0.006901468513362181
134	0xbf9ff49593643778	-0.03120645248514317
135	0x3f8c1092f0a538a1	0.013703487366594937
136	0x3f689f455fba2fb3	0.003005633827177301
137	0xbfb779a7945ee4fa	-0.09170005199748124
138	0xbfaab6e3c422d309	-0.05217658776510887
139	0x3f857c41de2ab1aa	0.010490908234111657
140	0xbfbfa433cf0ffb04	-0.12359927945361099
141	0x3fc1953f9b1236f3	0.13736720153649848
142	0xbf79b8e8b972c2d8	-0.006279858665195724
143	0xbfa21c5ad0a4ba6e	-0.035372579545186564
144	0xbf9d435d0eeb7db8	-0.02857728389323963
145	0x3f9d319f6355db15	0.028509607732725224
146	0x3fb6fc39c78488ed	0.08978615876234004
147	0x3fb3be180779163c	0.07711935217329197
148	0xbf90b458353edc7d	-0.016312959909296588
149	0x3fc917d7a390b169	0.1960401104601133
150	0x3fa9ea81f785b43d	0.05061727663528657
151	0xbfaf1b488c1cf646	-0.060755030730871115
152	0x3f92e2e7cec1d3b6	0.018443700785116333
153	0xbf9c8ba46a72695f	-0.02787644290638391
154	0x3f8ebaeca36f4569	0.015004967439298427
155	0xbfb72aba6927bc24	-0.09049573008790951
156	0xbfaa6e286c9ed798	-0.05162168813642082
157	0xbf904dd7e7f5c438	-0.0159219489409603
158	0x3fb44aeb4c79da64	0.07926817528810087
159	0xbfc013ecaa50e04d	-0.12560804668624073
160	0x3f97f8305baeace9	0.023407703014226042
161	0xbf68239f17855099	-0.0029466731322518977
162	0x3f75022cc718888d	0.005129027283631638
163	0x3f999f4e4888a0dc	0.025021765877824773
164	0x3f9818e96fec070c	0.023532531219649974
165	0xbf9b2284fb3cd0af	-0.026498868784259496
166	0xbf8464a77dc05c05	-0.009957607770088481
167	0xbfb2f0806cbf906e	-0.07398226408946737
168	0xbf978f00e7a5c7c8	-0.023006452692648144
169	0x3f8b48b35f8d521e	0.013322259286419554
170	0xbfa243633cb918ad	-0.035670376932601534
171	0xbf9b4a5b130937ec	-0.02665083221136648
172	0x3fa54c9b5f196041	0.04160008941534033
173	0x3f9c5a8b0446a918	0.02768914426420918
174	0x3f995900aca505c4	0.02475358060588008
175	0xbfb6d18e69d2a366	-0.08913507541241258
176	0xbf928b8c1ac576d5	-0.018110455640786356
177	0xbfbcaa71744eee71	-0.11197575654562698
178	0x3f9290ed23b54343	0.01813097505993545
179	0x3f8f32c1d81cd742	0.015233530433402035
180	0x3fa358c1ae9bc637	0.03778653389407476
181	0xbfc390b3825f09a9	-0.15285343042166957
182	0x3fb8e92b93d06493	0.09730789526692467
183	0x3fc58f2422a45724	0.16843082133771603
184	0x3fc2747ab0fe7350	0.14417966501505441
185	0x3f9daed94ba58db5	0.0289873077794149
186	0x3fc98624f80795bc	0.19940626250096993
187	0xbf9432362aae324c	-0.019722792010315168
188	0xbf987956f656296d	-0.02390037420767881
189	0x3f80f34cfebf377e	0.00827655937601057
190	0x3fb25eefc5038487	0.07176111755281243
191	0xbfb4b8a0c6d539da	-0.08094220022505941
192	0x3faedc08a3bf6137	0.06027247427818099
193	0x3f976cd00490e897	0.022876024511994855
194	0xbf94c09b43e86903	-0.02026598550774229
195	0xbf829d0c6cb21c59	-0.009088608805781261
196	0xbf8f00b0a5515c37	-0.01513803486356667
197	0xbfaa573ff6862916	-0.05144691356970747
198	0xbf816235b7ccc239	-0.008488101646066603
199	0x3fa90c316b6d2978	0.04892115055425256
200	0xbfbeb61ad406a88e	-0.11996619869629141
201	0xbfa82ca96700c614	-0.047215741942988526
202	0xbf796d144b3a9c30	-0.0062075417260194915
203	0x3f995be3ec6e4dab	0.02476459627685094
204	0xbfa2b1c1fcc82cff	-0.036512434107942575
205	0xbfa3f4dd845a6447	-0.03897754898680055
206	0x3f634600828bde2a	0.0023527154884239914
207	0x3f95ec7c4b58f7e8	0.021409933184479174
208	0x3f861875ce5b4577	0.010788841590882765
209	0xbf960a7e1363728c	-0.021524400647523964
210	0xbf7bcfc7e4dcda21	-0.006789952121656146
211	0xbf99ecb867db5b23	-0.025317078913612023
212	0xbf770b28402c362f	-0.0056258747379281234
213	0xbf686f8805570b9c	-0.002982869783154608
214	0xbf9d4f515db9603b	-0.02862288603350314
215	0x3fa21dfa0d2a81a6	0.03538495455473205
216	0xbfab26b02c150920	-0.0530295423327678
217	0xbfa31ba3a9dbc906	-0.03732024620502909
218	0xbfc13d4b9356fcb0	-0.13468308157277908
219	0x3fc09920147eb038	0.12967301369406115
220	0x3fc252c0c9eec6bd	0.1431504236220941
221	0x3f9f53034d8a47b6	0.030590106589961606
222	0xbfa343add76f22e2	-0.037625725315199934
223	0x3fce761970e693f3	0.23797910702447175
224	0x3fc0963c9f3021a4	0.12958486340381825
225	0x3faff5618366e852	0.06241898278263193
226	0xbfa98f07aab5dc20	-0.049919356907530466
227	0x3fa07fd15103010b	0.03222517122185494
228	0xbfb79dadcf991393	-0.09224973982152411
229	0x3f9031e9b937e5b0	0.015815402917700616
230	0xbfae87f53d749a87	-0.059631026985063555
231	0x3fa4a3edf34d7ab5	0.040313182783156355
232	0xbfb45f5f11379850	-0.07958025141087544
233	0xbfae536327d1f081	-0.0592299448116771
234	0xbfc30e26c47935d8	-0.14886936753684554
235	0x3f8c8e825d8c1403	0.013943689803918252
236	0xbfab4a8c64dd0848	-0.053303134262492835
237	0xbf65123bd6a0f44b	-0.002572171089040986
238	0x3f6141de9cd538e8	0.002106604376115862
239	0x3f9e1957e76f162e	0.029393552303892338
240	0x3fb991341299e346	0.09987187818650253
241	0x3fa4c35430bf378e	0.04055274100356519
242	0xbfb19f5341ebfb38	-0.06883735999506946
243	0x3f90c897af7917fd	0.01639019974233945
244	0x3f9daed4d9d187d2	0.028987241549095995
245	0x3f8f035469e54c0d	0.015143069726638836
246	0xbfa4eba24954cd41	-0.04086024422795243
247	0xbf948b833eb3b065	-0.020063448621769803
248	0xbf70db3f0b173bbc	-0.004115339529973502
249	0xbfb0523751052c91	-0.06375451782257559
250	0xbfa3eebe3f8530d1	-0.03893084073442455
251	0x3f93e6f5d76e04c9	0.019435731195248693
252	0xbfbbfbd5001b7469	-0.10931140186899459
253	0xbfae93c3c23c9dde	-0.059721105061097055
254	0x3f85b45d2b8f5bc2	0.01059792317566444
255	0xbfb6a627edaf61eb	-0.08847283890589323

arr_0 f8 [32, 2, 4, 4]
0	0xbfe24484273dc059	-0.5708637968473439
1	0xbfe15c0263c6707e	-0.542481608270023
2	0xbfb562970b5d5996	-0.08353561427552444
3	0x3fb5967b836770ff	0.08432743032557609
4	0xbfef34e19c34b112	-0.9752052355666214
5	0xbfb512f778150c43	-0.08232065850920471
6	0x3fb6732c8e0061df	0.08769491640885672
7	0xbfd24468ba463436	-0.2854253596386259
8	0xbfe0ff7226d78814	-0.5311823614722493
9	0xbfd129b862b03888	-0.2681714023355046
10	0xbfccf44e28dff6a4	-0.22620560642092358
11	0xbfd2fd49e68626a9	-0.29670951377975513
12	0xbfdc7cfadffc6057	-0.44512817262284926
13	0xbfa5055ea70a026f	-0.041056592836871235
14	0xbfe3ff55ba1c0fe3	-0.6249188075021234
15	0x3fc9fbe28a1dbcd6	0.20299941772416358
16	0x3fe93754eaef997e	0.7880043591110704
17	0x3fe115721db9369f	0.5338678913628491
18	0x3fc4b18bd64c9e03	0.16166828121025398
19	0xbfd190ab33e9667b	-0.27445488042358307
20	0x3fec8e2355016a97	0.8923508320106802
21	0xbfd3ee30a313d59f	-0.3114129631570339
22	0xbfe69f0267d8a13e	-0.7069103267904564
23	0xbfd1faf9601937e5	-0.28094324478740723
24	0x3fddc3c14d26f0fd	0.4650729421080227
25	0x3feaeca2f3ad69ab	0.8413862952541441
26	0xbfe8cbcc9e2c1740	-0.77487784283651
27	0x3fcac61cf96bd192	0.20917093447463891
28	0x3fd13081abf311d0	0.26858560363714634
29	0xbfe459e228e0815e	-0.6359720991495512
30	0x3fedfa8c27fd4819	0.9368344098131757
31	0xbfe159a11cacfed6	-0.5421910820077425
32	0xbfdaaa55c97e1811	-0.41664642979628846
33	0xbfe3b427be0bc399	-0.615741606887343
34	0x3fdcd1b5f750cba6	0.45029973174967564
35	0xbfea9ae518b7f70e	-0.8314080698762341
36	0xbfdfd82795cb1ef6	-0.49756803158059826
37	0x3fd7e7d9d5742e0c	0.37352605671978334
38	0xbfc3136b7417e160	-0.1490301434385044
39	0xbfdab98e6c97fba3	-0.41757546048023125
40	0x3fe16d507b5d75f2	0.5445940408205259
41	0xbfe59ffc385b593b	-0.6757794476241438
42	0x3fc1101c0b50c346	0.13330412437928824
43	0xbfef9820110dbe29	-0.9873199780540222
44	0xbfc2ba864187fa2f	-0.1463172740913747
45	0x3feac9e82be0ebc9	0.8371468407634605
46	0x3f9b5e05080823e5	0.026725844016286877
47	0x3fe78429b799b096	0.734883173555789
48	0x3fe00df394520209	0.5017030617601118
49	0x3fe071fff4540f41	0.5139159938848722
50	0x3fe3abf9d0874223	0.6147431443042176
51	0x3fe050fe9245c592	0.5098870140920317
52	0xbfd702f745c6b99f	-0.3595560246857534
53	0xbfd9083ae50e3fad	-0.39112732285229407
54	0xbfc5fbe6bef95a4d	-0.17174991917518626
55	0x3fbad83b98ea7a7f	0.10486195071505654
56	0xbfbbd568c4afa84e	-0.10872511674793481
57	0xbfeed0b80f4ed658	-0.9629783915504033
58	0x3fdc88841e95b856	0.44583228098679706
59	0xbfef4f044feab282	-0.9783956108927472
60	0xbfd404c0667d03c3	-0.3127900124418909
61	0x3fd8e723ddce8ded	0.38910767231774807
62	0x3fcd82acc044122a	0.23055037868484024
63	0x3fe12a3122a4e3ae	0.5364003826754151
64	0xbff3f1a799d2c8cb	-1.2464977272725715
65	0xbfc55a286d30828f	-0.1668139012481515
66	0xbfd4fa05de399140	-0.327760188118436
67	0xbfbd43f9eeab31d5	-0.1143184859931304
68	0xbfd21e87e01883a5	-0.2831134499011177
69	0xbfe26962c7acd489	-0.5753644847778939
70	0xbfd3f44fad932383	-0.31178657484684197
71	0xbf6e1c409cbc25de	-0.0036755811651161116
72	0xbfcf6533be5931a7	-0.24527594370227954
73	0x3f937f97ff8ea724	0.01904141900346369
74	0xbfe773800f66b8c7	-0.7328491497808266
75	0xbfc7f11dac43e862	-0.18704577361478686
76	0x3fbf2dd5f10c3c26	0.1217931474204624
77	0x3fd5897374ae8bd1	0.33651434321126056
78	0xbfbce01397509459	-0.11279413646896454
79	0xbfe812987e07df8f	-0.7522699796236213
80	0x3fee36e06efeb35c	0.9441988151425948
81	0x3fd5d7d1d1481623	0.3412975829854494
82	0x3feb47a5c2ac08ba	0.8524960329234752
83	0xbfc55f3e57a254d4	-0.16696910170563817
84	0xbfaea134f95e22c3	-0.059823661270518545
85	0x3ff19aa1fc41ec8b	1.100252137547417
86	0xbfd2d8f8e9968d0e	-0.2944929391034784
87	0xbfe0dff593edeae3	-0.5273387803311745
88	0x3fd3df8725bc8764	0.310518061496728
89	0xbfe28993267b38e9	-0.5792937995518318
90	0x3febac1ccc484982	0.8647598256959983
91	0xbfd461b86cec558d	-0.3184643806174215
92	0xbfe08e72813b9d52	-0.5173885845260122
93	0xbfdc1167461e7db0	-0.4385622200734032
94	0xbfe4ae47d49422da	-0.6462744857718363
95	0x3ff2e50c1f41de73	1.1809197636593154
96	0xbfda338e22317300	-0.40939668025184517
97	0xbf99dcd65b19814b	-0.025256490049629304
98	0x3fc43bc51ee2041e	0.15807403572037598
99	0xbfe26dbd7a614b1f	-0.5758960142360116
100	0x3fe954f8733e9019	0.7916223765246314
101	0x3f91336b71aaf4eb	0.016797713101131356
102	0x3fb90fa965c076ee	0.09789522871184506
103	0xbfe2876e091a3c94	-0.5790319612296053
104	0xbfc6a8684c6cb16f	-0.1770143864790827
105	0x3fd572645e5fd222	0.3351069375633263
106	0xbf81ea8817bb1d43	-0.00874811479969984
107	0xbfea2f19fcb0d2d4	-0.8182496962895933
108	0xbfe2b1873ae1c5ef	-0.5841709280049922
109	0xbfd435797d3d5a08	-0.31576382856783924
110	0x3fd41da3d271a481	0.31430907775081357
111	0xbfec4bf5576b8ba1	-0.8842722613738837
112	0xbfbea54184abb60b	-0.1197091053870382
113	0xbfdf304dd317765a	-0.48732324232500945
114	0xbfc77737ab4a1b80	-0.18332572807068104
115	0x3feb1baaf46b71f1	0.8471274160215768
116	0xbfe710251632fa40	-0.7207208093239572
117	0xbfd108aae860530f	-0.2661540288257109
118	0xbfe63fde1cb9ab1d	-0.6952963410416008
119	0x3fe0f1af7825e180	0.529502615608223
120	0x3fc7fff6d2c16c1d	0.18749890604780797
121	0xbfe7ed5da5b431ad	-0.7477253185657468
122	0xbfdce764d8e84190	-0.45162316496227906
123	0x3fe2b0e0386f182f	0.5840912916398845
124	0x3fdeb2b3383cc172	0.4796569871132511
125	0x3fe1665fb1fa89d7	0.5437468029161278
126	0xbfeec980aee62ed9	-0.9620974937438077
127	0x3fe249fa831c05d5	0.5715305863124579
128	0x3fb99315f10b7d8d	0.09990059981236339
129	0xbfe1238ffe7d0cb0	-0.5355911226728463
130	0x3fb8c6abcc4d57c6	0.09678148019642582
131	0xbfb15803bf16ff1a	-0.06774924674300245
132	0xbfcb780bfe2957bf	-0.21460103903035407
133	0xbfef4c7b1f0e7f84	-0.9780860525679462
134	0xbfbbb3ca3a0a453e	-0.1082121268939504
135	0xbfc82c1815cbc0f0	-0.188845644609962
136	0xbfb9fa02cac52a7e	-0.10147111368602599
137	0xbfde0de2717a113b	-0.46959744531365616
138	0xbfbf9ebfb317661b	-0.12351606485699344
139	0xbfab434b14b9b3a0	-0.0532477820205266
140	0x3fcf0327a1c818c8	0.2422837772321087
141	0xbfe33bc7251b4d18	-0.6010471081484949
142	0x3fcb57663f78debd	0.21360471820093166
143	0xbfc8323b43f78c64	-0.18903294390392766
144	0xbfe5ecae46cb64a1	-0.6851416952805672
145	0x3fd743c2d1217852	0.36351080344127695
146	0xbfe6a2b59881ad07	-0.7073619822162137
147	0xbfdcd364e9223753	-0.4504024769492975
148	0x3fe400c8ee92ca9b	0.6250958118092343
149	0x3ff05ecb65d72e08	1.023143194021829
150	0x3fcfedab0f195319	0.24944055783512267
151	0xbf90b6e6f77c135b	-0.016322716574922107
152	0xbfe0850800b270e8	-0.5162391675580951
153	0x3fe9e8deae7ebd10	0.8096764953715212
154	0xbfe6cff027e02f94	-0.7128830698797963
155	0xbfdcc66acdc1854b	-0.4496104249320367
156	0xbfe5912cb3538690	-0.6739715101686716
157	0x3fe70c6bddbf81e4	0.7202662783639053
158	0x3fcfe13271d440b5	0.24905996854841353
159	0xbfe557a24378b850	-0.6669474904827073
160	0x3fad20f28340c056	0.05689199306687047
161	0x3fe8e08715284711	0.7774081624249637
162	0x3fcb457bb6e3050d	0.21305796079654052
163	0x3fd126c8f65e52ea	0.26799224910182196
164	0x3fb4d04a7245b71c	0.08130326547481243
165	0x3f968e0908dec583	0.022026196638483164
166	0xbfe571ef813b3a82	-0.6701581501054792
167	0xbfe91fe5f7036194	-0.7851438354946816
168	0x3f8527fd7cbf4b92	0.010330181474193432
169	0xbf80a9a7d46d169d	-0.008136092348318963
170	0xbfbb70abae277518	-0.10718796731767488
171	0xbfb55c732c700f4a	-0.08344192347436521
172	0x3f691414191bcf68	0.0030613319912564003
173	0xbfae6848b3894eb6	-0.05938937369924473
174	0xbfe2687f17eaf399	-0.5752559153694278
175	0x3fe3237242f567ce	0.5980769450936749
176	0xbfed3bf0fd4577e4	-0.9135670611101401
177	0xbfecc6a6102f7627	-0.8992491069909122
178	0xbfefc2426ef34c1f	-0.992463318538629
179	0xbfe8362101c9923d	-0.7566075358304897
180	0x3faa7e270a5e8d67	0.05174371720866127
181	0xbf7a8a6f4315a4e4	-0.006479677789095837
182	0x3fd6205217e74a7b	0.3457226975853371
183	0x3fda25a97120f064	0.4085486988804006
184	0x3fe2ec3879b53692	0.5913355233294217
185	0xbfe52b248cee9c9d	-0.6615164520816453
186	0x3fba5b93a687b162	0.1029598504607683
187	0xbfd3922a118fc16c	-0.3057961627482857
188	0xbfe42a9577a7a4bf	-0.6301982247361123
189	0xbfefdb52a4a4af4a	-0.9955228057565162
190	0xbf9d85b61dc204e4	-0.02883038097980241
191	0x3fd5c17321942893	0.3399322345654891
192	0x3fc8bd2c7e5a70d7	0.19327312631219826
193	0xbfdffc82600a7df7	-0.4997869432354202
194	0xbfda8c0032be65ae	-0.41479496913378966
195	0x3fb1f5f8c4de25da	0.07015948110906525
196	0xbfd3c99c3152122a	-0.3091803056379684
197	0xbfe83bc0ba73cadf	-0.7572940484663738
198	0x3f953174fdf0a7c0	0.020696475981970996
199	0xbfc82244bfdded85	-0.18854579323292966
200	0xbfe4ae565cffad69	-0.646281415594257
201	0x3fa6281213c64b44	0.04327446452511777
202	0x3fb42460f75dee53	0.07868009604674712
203	0xbfc13af22020dc5d	-0.13461138314025592
204	0xbfbaa8bd1d852dae	-0.1041372487135763
205	0xbfd4426129246b32	-0.316551485231389
206	0x3fcbf0cc9202f433	0.21828610543698942
207	0xbfb67bea9743d265	-0.08782831376067575
208	0xbfe24e666e438e7a	-0.5720703271476417
209	0x3fc74d987705c41e	0.18205552875181835
210	0x3fe8b77428fe828d	0.7723942566554612
211	0xbfec7beae01b00f0	-0.8901266457615105
212	0xbfdebbf66a3e4ae1	-0.4802223241360207
213	0x3fe6474ca2a97733	0.6962035347930623
214	0xbfe4f79ddb84097f	-0.6552266395013219
215	0x3fb096bcc303924b	0.06480006943781651
216	0x3fe2c3644e6bc184	0.5863515407236695
217	0x3fdd8e3c8a73c5b8	0.4618064262459387
218	0xbfe6aad6ecf492d5	-0.7083544376406176
219	0xbfe9d620e1405cb0	-0.8073887252275167
220	0x3fcb171167ce2e78	0.21164147919295195
221	0xbff32de01844ad91	-1.1987000415782385
222	0x3fde298d2d06d511	0.4712861003602749
223	0x3fe42978acb3ef87	0.6300624249556542
224	0x3fe07ed65f0821b4	0.5154830795373102
225	0xbfbf78f58138d8f1	-0.12293943791232544
226	0x3fd840633966e265	0.3789299068990089
227	0xbfe84577fdcb255e	-0.7584800679116304
228	0xbff21d0ab4147916	-1.132090285718339
229	0x3f9338ccaec9773c	0.018771360557699554
230	0xbfe50f7f1c148e67	-0.6581416653102224
231	0xbfe223e9ae009129	-0.566883888099743
232	0x3fde0918c2d52f5a	0.4693052199042903
233	0x3fe79e3f03edf1dc	0.7380671574351783
234	0x3fea4df10dcc1d5c	0.8220143575171437
235	0x3fd832275e1f1a83	0.37806114379456107
236	0xbfc7d08c8fc887be	-0.18605191250486358
237	0xbfb7f8ea4ae11aa8	-0.09364189460857608
238	0xbfde037a4d60cce4	-0.4689622645993963
239	0x3fdaa5d0ac17a6ea	0.41637055211923146
240	0x3fce473a917246fa	0.23654872991442472
241	0x3fb5afb9f02e0759	0.08471262086643828
242	0xbfe4ca6e6cf8a8e3	-0.649710858187316
243	0xbfc0f205e033bacc	-0.13238595435492184
244	0xbf97094e48b54f9e	-0.02249643629814068
245	0x3fc0750b1e1d23c3	0.12857188196565347
246	0xbfb2d4ab82f73df9	-0.07355758616835563
247	0xbfc389afeacbe4b6	-0.15263937916441755
248	0xbfeb62f380a865d1	-0.8558290016982771
249	0xbfedc25f535193dd	-0.9299770953481318
250	0xbfe6f573f760d82f	-0.7174625236136815
251	0xbfe3ac29db4caa0d	-0.6147660525505799
252	0xbfe5678aa324a3e7	-0.6688893495930842
253	0x3faacd48d04fe015	0.052347445896828194
254	0xbfdca86364adcbcb	-0.4477776034538549
255	0xbfd4c1b8686b3f69	-0.3243237514225173

arr_3 f8 [36]
0	0xbfc745c0cbb974c1	-0.1818161959408027
1	0xbfc7cb8d25874d31	-0.18589939434478134
2	0xbfa6fbb8ede04f19	-0.04488923934709827
3	0x3fa17850a6e5b56b	0.034121055958943845
4	0x3fa204d836089b52	0.035193211170102004
5	0x3f7265b9800a1e5e	0.004491543397882573
6	0xbfba26a548208ff5	-0.10215218554418455
7	0xbfc9de6865e43b2c	-0.20209984755680332
8	0xbfc2e6dd327fe509	-0.14767041173744413
9	0xbfd1aabada4a30db	-0.27604552571643887
10	0xbfb9df0dc862d4a9	-0.10105978147733431
11	0x3fa324db48b17abb	0.03739056837433937
12	0x3fd7541698151212	0.3645073399714259
13	0x3fe627882b37366a	0.6923256725364813
14	0x3fd5de087b628b15	0.3416768269473079
15	0xbf37be6b98139034	-0.00036230208213639263
16	0xbfbeef18ce6936d4	-0.12083582915621643
17	0xbfd13d54d0b315b8	-0.2693683660584969
18	0xbfd0075244dc0c0d	-0.250446860547698
19	0xbfad2655d2747176	-0.05693309968976028
20	0x3f970b3bcba7bb6a	0.02250379019272534
21	0x3fd72ae621ea706f	0.36199334442222314
22	0x3fe664e7ba2d14eb	0.6998175274135553
23	0x3fd3b5cf3139ebb3	0.30797176177264446
24	0x3f8211a278fa828e	0.008822697941753856
25	0xbfb6cc1ec3c60504	-0.08905212669016654
26	0xbfd012bd1a6a0469	-0.25114371852402556
27	0xbfc510dd944b3050	-0.16457719555762873
28	0xbfc1d0569cc0e2a1	-0.13917048124291845
29	0xbfa8369649a4dbb8	-0.04729146622633301
30	0x3f9f1f636f3f712a	0.03039317480566798
31	0x3faa03440e9a820c	0.05080616644159272
32	0x3fa2a7041338aa9d	0.03643048033366834
33	0xbfa3051bec9367e1	-0.037148354176409056
34	0xbfcadb2627f6d00f	-0.20981289817211787
35	0xbfc34926939bae42	-0.1506698818915187

arr_1 f8 [32]
0	0xbfe61fb7866d0fd2	-0.6913716912754302
1	0xbfe13aa47eb4240e	-0.5384085154229312
2	0xbfef9765f3d8efb4	-0.9872312319416694
3	0xbfe19f2c8d25bfaa	-0.5506804234300848
4	0xbfe1cf9fe5c420b6	-0.5565947997684109
5	0xbfbb6d35eabd6153	-0.10713517170859647
6	0xbfd7a8bebb0161d7	-0.3696743799423791
7	0xbfb65aecbee6d6f6	-0.08732490215956176
8	0xbfe30817144c2347	-0.5947375675615171
9	0xbff1bf9fd6eda5e5	-1.1092832942616664
10	0xbfb3303017c976e9	-0.07495403843628491
11	0xbfe3b1351b914a19	-0.6153817690304236
12	0x3fd5df2f88ef0544	0.3417471730463897
13	0xbfdf3261b813642d	-0.48745005584857176
14	0xbfaf3acd786389e8	-0.060995503374005555
15	0xbfd9401facf2c9d1	-0.39453880204669384
16	0xbfa4147535c69b63	-0.039218581022672415
17	0xbfbc99788c846b64	-0.11171678000066049
18	0xbfd2cb3868d578c9	-0.2936535857933334
19	0xbfe53d4ce571942f	-0.6637329560586575
20	0xbfedc568621f1638	-0.9303476253923639
21	0xbfd1efddc2ce1045	-0.28026527427596576
22	0xbfc36ac13dc26790	-0.15169539943309163
23	0x3fd121b0ed9edabf	0.2676813431275313
24	0xbfdacd956cdee476	-0.4187978327932521
25	0xbff1ea63504e6d63	-1.1197236191718154
26	0xbfd3c0dcf0ecdb54	-0.3086464264665001
27	0xbfd66ac746ce21c3	-0.35026723780222485
28	0xbff41d04cdb0ffd7	-1.2570846590824567
29	0xbffa39a08874285e	-1.6390691118454224
30	0xbfdf0cfe0b5e91bc	-0.48516799078268114
31	0x3fc6d32c3a06b600	0.17831948121367702
