results/params_5.npz (npz, 98830 bytes, 4 tensors)

arr_2 f8 [336, 36]
000000 32 cd 5e e5 7a c6 96 bf b0 64 49 f3 6e 37 9b 3f
       -0.022241516351369124 0.026578649138490007
000010 f4 fa 62 ab 7c ef 84 bf 39 a2 f9 ef 51 cd 86 3f
       -0.01022241018324397 0.011133804450950456
000020 77 37 44 8c a0 47 9f bf e2 af 6c ed 11 af a5 bf
       -0.03054667335623359 -0.04235130332230576
000030 eb e7 97 c4 8d 14 97 bf 41 f2 22 4e 5d 77 a2 bf
       -0.02253934395228178 -0.03606692866148765
000040 47 30 e5 4d de 1e 7d 3f 7a 5a 6d 58 e9 ff 9a 3f
       0.007109516502463781 0.026366849920430792
000050 2c 05 95 a8 93 9a 77 3f 47 a6 9a b1 2d c9 7b bf
       0.0057626502905930126 -0.00678365563514089
000060 1f d6 f3 43 ae 75 a4 bf ab 2c a9 c2 08 7a a9 bf
       -0.03996033267496223 -0.049759172212895685
000070 03 65 61 63 e9 13 a3 bf 06 93 da 12 25 f5 9e bf
       -0.03726128900661687 -0.030232028270478238
000080 2d ae 7d 9d de ef 9e bf d7 9b 98 b8 31 69 9e bf
       -0.03021190487144858 -0.029698159114697944
000090 9b 7f be 3f df 2d 90 3f 56 f0 98 89 50 29 87 bf
       0.015799988046296325 -0.011309270095004969
0000a0 1a a4 23 ab 5e 91 8b 3f a1 58 c5 90 c6 e5 a5 bf
       0.013460864637140846 -0.04276867406103802
0000b0 dd f2 f7 0d 13 f8 a0 bf 7e 8f ba 14 19 68 9d bf
       -0.03314265771402856 -0.028717414751227015
0000c0 50 3a c1 41 aa e5 95 bf b3 03 1c 91 18 20 86 bf
       -0.02138391519866395 -0.010803405693424617
0000d0 1d 96 33 5e e0 ad 88 3f f3 ad 63 f9 12 d7 72 3f
       0.012050392985155029 0.004599641912345731
0000e0 7f 9b bc 5b 47 fe 8f bf ab bb d3 9b d0 48 a4 bf
       -0.015621716963847508 -0.03961803342996658
0000f0 eb dc 29 af 66 79 54 bf 98 10 6a 6f 28 ec 9c bf
       -0.0012496474052150995 -0.028244621086301963
000100 6f 03 6a b6 62 be 5a bf b1 aa fd 01 19 60 9b bf
       -0.0016323055257602933 -0.02673377108241465
000110 de 7f a9 e5 28 4e 90 bf 83 82 2a 9f ac 97 91 bf
       -0.015923155801260573 -0.017180154051518414
000120 2a c7 16 b1 7b 39 a5 3f e2 b7 bb a5 a1 b5 88 bf
       0.04145418678980513 -0.012065184469488292
000130 16 13 82 e8 6a 61 b4 3f ab f7 bd 2c aa 57 a8 3f
       0.07961147476642014 0.047543828927686015
000140 84 c3 70 b1 cf 83 a1 3f 71 02 30 a3 9f 33 97 3f
       0.034208765421118975 0.02265786584394153
000150 d9 e0 0a d0 ac d8 93 bf 04 58 f0 5e 38 0b 9f 3f
       -0.019381237218767253 0.030316239161116712
000160 dd 21 96 b9 46 9c 9b bf 15 c8 5a 45 d4 91 95 3f
       -0.026963334157274466 0.021064106686658663
000170 c4 30 8b ca 87 37 98 3f 2f c7 f1 ae bf 11 b4 3f
       0.023649331795966302 0.07839582463364246
000180 ee 1d 34 2d 71 ac a4 3f bf 04 eb 13 20 0f 91 3f
       0.04037812878419432 0.016659260955525165
000190 85 8d ee e9 15 e7 98 3f 06 3a 44 ac 2c be 32 3f
       0.024319021609370068 0.00028599348685612346
0001a0 62 3d 57 c9 c6 fe aa 3f 1e 23 44 08 74 27 a2 3f
       0.05272504050992201 0.0354572544184235
0001b0 e6 90 bb 20 8b 14 9b 3f df 54 41 93 d4 26 b3 3f
       0.026445554612011167 0.07481125445459068
0001c0 94 bd e2 84 c6 25 99 3f 50 83 60 5f 3e d1 a3 3f
       0.024558164463710577 0.038705777304363864
0001d0 24 36 4c 8a ce 08 9b 3f 74 49 8e d1 36 89 90 3f
       0.026400782767316625 0.016148430385848525
0001e0 e7 9c b9 58 67 bd 49 3f 64 47 6e 9f c7 de 90 3f
       0.0007855181333526168 0.016474837404138923
0001f0 cf d0 3b 6a c7 64 7c bf 3a 80 04 e1 65 62 a7 3f
       -0.00693204781031316 0.045672591894117834
000200 8d d7 43 a4 bf d0 88 3f d8 6f af 5b 4a fc 97 3f
       0.01211690635725995 0.023423349233652718
000210 41 ab 92 8a 92 9d 55 3f af 44 f9 4f 24 eb 94 3f
       0.0013193064753902058 0.020428244954307114
000220 f2 b9 e2 92 43 f2 80 3f 6f 9c fc db 28 66 81 3f
       0.008274581832975667 0.008495635236228176
000230 36 3a 95 1f 8b ef a2 3f 4e bd 5a 4a 69 5e 8b 3f
       0.036983821492516375 0.01336366899644639
000240 67 de f8 91 13 a2 a5 bf e3 f6 f9 57 ff 30 89 bf
       -0.04225217015158194 -0.012300486442878128
000250 2b 20 71 be c6 1d b4 bf 6b 3e ee 9d 4c ee 8b 3f
       -0.0785793509431875 0.01363811356512131
000260 e9 7d eb 5d ad 41 96 3f 6a 2a ed 20 e3 15 14 bf
       0.02173491369000927 -7.662009032320121e-05
000270 1a 87 2c 33 db ef 9b 3f 68 3b c1 3b 2f f9 79 3f
       0.02728216647950097 0.006341156487976153
000280 26 24 37 92 fb c0 7a bf 22 f1 b0 ce ac b0 a6 bf
       -0.006531698894328952 -0.04431667349897085
000290 ca fb 42 45 03 9e a3 bf 8a 10 64 3f b7 b3 96 bf
       -0.03831491680602246 -0.022169936412880044
0002a0 2f ec c6 09 8f 43 96 3f 42 d7 e1 91 0c 84 9c 3f
       0.021742091151946304 0.027847477344457923
0002b0 34 83 2b 81 14 b4 a5 bf 57 b1 b9 94 a6 71 9a bf
       -0.04238952709943647 -0.02582416804072926
0002c0 ca 51 fb 64 49 6c a2 bf ee 64 50 1d 43 63 96 bf
       -0.035982411934728356 -0.021863030113398567
0002d0 c0 00 67 05 15 ef a5 bf 42 67 ee de a1 5a 2d 3f
       -0.04283967677065581 0.00022395349466535803
0002e0 54 5c 85 37 8b a9 9b 3f 64 cc 38 df 84 d0 55 bf
       0.027013945831040623 -0.001331453092359402
0002f0 ce 01 6d d7 b5 43 7c bf de 42 66 dc 65 f6 ab bf
       -0.006900511091601348 -0.05461424174712247
000300 1d d1 50 3c 71 87 98 bf 63 b2 97 7a 2f fd 94 bf
       -0.02395417147290956 -0.02049707589860573
000310 af bf bc 64 60 6d 93 bf f8 1b f5 05 4c f2 a3 bf
       -0.018971925877110326 -0.03895795414660336
000320 80 4c e1 5b d2 f0 7a 3f f8 e7 9a a6 df 29 5b 3f
       0.0065773217339312184 0.0016579326715331338
000330 31 b6 47 c2 87 f3 87 bf 5f ab ac 92 15 db a3 bf
       -0.011694965950449806 -0.03878085532627184
000340 18 0a fd b9 e3 92 82 bf f9 15 02 64 94 c0 9c bf
       -0.009069232095162014 -0.028078383068097044
000350 6f 59 ed 19 e1 7a 83 3f bd 7b 41 21 09 bf 92 bf
       0.009511717418416691 -0.01830686822392712
000360 dd fa 19 8d 31 06 52 3f 19 07 fb 5a 4c 9d 9a 3f
       0.0011001094721049744 0.025990670254720436
000370 b9 e9 2a 7f 1a c2 8d 3f 40 d2 4d 2e 7e 63 a4 bf
       0.014530379300926254 -0.03982157054170843
000380 74 c5 59 7e f1 a8 94 3f f9 60 a1 4f 54 94 b2 3f
       0.020175717675049623 0.07257582611180514
000390 1d f7 a2 e5 1c 28 9d 3f 8f b1 d9 04 5f 90 ad 3f
       0.028473330989746793 0.0577420895977837
0003a0 f1 eb 62 4e ee a6 a9 bf d4 d4 a8 9d c9 d6 c0 bf
       -0.05010170657029523 -0.13155479620187427
0003b0 9e ba 49 cf 76 02 9c bf c8 eb d6 c5 ec 51 82 bf
       -0.02735314979730196 -0.008945321834166978
0003c0 75 5d 6d 9d 2e 25 86 3f b1 88 d9 7b d8 7c 92 3f
       0.010813106707856271 0.018054373320759157
0003d0 ca 8e df 4e 74 e3 9b 3f 94 4d 5b c0 e6 b4 ae 3f
       0.027234856905024064 0.059973917943035776
0003e0 f1 cc e7 e4 32 ae 7e bf 8d 1e 2d 5a 9f a7 46 bf
       -0.0074903476765826186 -0.0006913688742793009
0003f0 3b 04 43 d8 4d 5f a7 bf 79 98 a5 79 f5 c5 9f bf
       -0.045648987435477704 -0.031028590726599668
000400 b6 41 d0 c8 2d 03 aa bf 8b 11 9e 51 26 2e 95 3f
       -0.05080550266586974 0.020683859569105272
000410 8d e3 ab 51 6a c4 7c 3f b2 89 e9 14 18 6e ad 3f
       0.0070232537352631465 0.05748057608868197
000420 31 73 7f 26 f0 7a 85 3f 7e 9c dc 82 bc ea 70 bf
       0.010488392042981328 -0.004130112048904453
000430 0c d7 d9 cf 28 19 90 bf de 1a 2c 37 d9 91 98 3f
       -0.015720975576605276 0.023993867866944345
000440 90 7b 4f c1 6e 9d 8c bf 17 34 d2 8e ae 09 53 3f
       -0.013972153925292635 0.0011619763056700588
000450 f2 e6 25 84 37 f7 94 bf e4 e2 16 4f 87 88 93 3f
       -0.020474307480504224 0.019075502588495122
000460 60 8d 2c 84 4e 99 90 bf c3 92 ff 2f ea 50 b2 3f
       -0.016209818665754994 0.07154716178736024
000470 f1 65 66 93 a0 f8 a7 bf 43 30 99 fe ff 8f 91 bf
       -0.046818750374949654 -0.017150878824665716
000480 3e f9 97 0b e0 77 97 bf c2 20 8b 23 7a 80 aa bf
       -0.022918225009555863 -0.051761452521135634
000490 42 09 79 18 1a 37 92 3f 6c 6b 28 2d 99 ff a9 3f
       0.017788322204304714 0.05077818561786426
0004a0 e7 2c 64 cb 22 f7 ae bf 85 7e 3e b5 97 29 b0 3f
       -0.06047924740604476 0.06313465285210824
0004b0 3d 3d ea 0b a4 4e b9 3f 8c 85 f2 7a 00 8d a6 3f
       0.09885621348279457 0.0440445089418616
0004c0 c3 72 2e 9f 4f 6b a9 3f 0c 39 5a 47 f2 73 6a bf
       0.049646843129470784 -0.003229115677476751
0004d0 3e 0c cc 73 3f 36 92 bf a2 2a d2 32 75 e3 8d bf
       -0.01778506416577507 -0.014593997586662969
0004e0 00 c7 d3 c6 a0 2a 8e 3f 24 9b 20 6d 72 9a a3 3f
       0.01472974402210836 0.03828771192666228
0004f0 db 06 1a c2 d5 dd a5 3f 73 37 bd 47 95 3c a4 3f
       0.04270809168248287 0.03952471256944436
000500 86 eb d3 1b 2d 5c a0 3f 1f 63 0e 9e 29 6e ac 3f
       0.0319532486409662 0.05552797369381878
000510 6b e4 70 b1 4e e4 b3 bf eb a8 03 5d a7 47 51 3f
       -0.07770244438224132 0.0010546812446202102
000520 68 da 71 3a e9 c0 a0 3f 46 d3 5a 77 8d 19 46 3f
       0.03272179449497942 0.0006744328263353714
000530 10 2f 11 12 b6 20 9c 3f cd 10 33 b6 bf f4 92 3f
       0.02746853337548233 0.01851176786000579
000540 30 d9 d1 18 d1 19 b7 3f 4b 8a b4 6d df 66 ac 3f
       0.090237682876112 0.055472356931450216
000550 38 11 ee b6 46 d9 94 bf dc 7c b1 1c 34 77 b1 bf
       -0.02036009303584871 -0.068225152020648
000560 3b 0e c4 9e 53 9f b2 3f 90 0c 69 b5 e4 c6 94 3f
       0.07274363161200707 0.020289968082817966
000570 17 63 2c 3a 6c 2c a5 3f 29 35 7c 23 e5 b7 9f 3f
       0.04135454378246644 0.03097494153103245
000580 e6 6d 08 b8 d3 21 91 3f 86 57 39 0e 80 2c 89 3f
       0.016730602366903734 0.0122919086781328
000590 9a 03 f4 60 6b 38 b5 3f a2 a0 e0 80 0e b3 a7 3f
       0.08289214245816226 0.04628796885691712
0005a0 d5 85 7c e8 b8 b4 97 bf b7 e7 86 aa 19 2b a2 bf
       -0.023150338353962702 -0.035485078874855906
0005b0 f0 6f 35 50 b3 bc b0 bf d6 75 7e 55 cf e8 98 3f
       -0.06537934025021719 0.024325599282397047
0005c0 b1 32 66 9c 5a d0 9f 3f ec 2b 55 a6 66 5c bb bf
       0.031068244739389687 -0.10687867699486703
0005d0 0d 56 3b db 6b 27 a2 3f 5a c2 b8 68 ac 4c b0 3f
       0.035457010757152664 0.06366994435007581
0005e0 05 b5 bd 76 44 cc 9e 3f 8c ba 6d 70 af 89 a5 bf
       0.03007609343278707 -0.042066080545613976
0005f0 79 8a f4 73 4f cf 95 bf e9 e1 4d 2e a4 bb a0 3f
       -0.02129863877520186 0.03268158974873698
000600 1c 33 8b 81 83 c1 82 bf 6e 7a c6 a6 d7 3c 71 bf
       -0.009158160582410306 -0.004208414448298654
000610 78 26 6a 2b fb 76 b0 3f 02 96 59 29 d7 3c b3 3f
       0.06431550798347441 0.07514710196991106
000620 93 b3 a7 a9 e0 bc a7 3f 55 b9 b4 11 07 54 89 bf
       0.04636289664254103 -0.012367301204531481
000630 d0 58 88 f3 85 8f 7a bf d7 d6 3f 83 02 f2 83 bf
       -0.006484530684721615 -0.009738940840161288
000640 24 6a 44 fc 2d cc 51 3f d2 c2 d2 b0 02 53 af 3f
       0.001086277873645466 0.06118019493567818
000650 e7 5b a6 0c 4d 69 9d 3f 2f 90 e1 77 9f 18 af 3f
       0.028722003838620138 0.060734732994007216
000660 13 38 fe 73 84 02 a0 3f 3b 28 e7 c3 f1 9d aa 3f
       0.03126920619898512 0.05198627010720754
000670 5f e5 ca f0 ea 4b 99 3f 03 ee e8 52 f0 5b ae bf
       0.02470366568261306 -0.059295187111697366
000680 56 8f f6 a4 ff ec a6 bf 12 77 3d 33 18 c5 b5 3f
       -0.044776905905819106 0.08503867388705214
000690 3c 04 2d 27 e4 92 ad 3f c5 60 13 e0 c8 d0 ad 3f
       0.0577613160917356 0.058233525612821725
0006a0 fc 42 a0 34 b5 1a 9b 3f 17 bb 61 81 e6 f8 a3 bf
       0.026469069802319986 -0.03900833443991852
0006b0 f0 9f bd 38 91 7e 92 3f f4 f2 04 8e 20 90 b3 3f
       0.018060940826586547 0.07641795604008533
0006c0 92 d0 4d 68 75 89 72 bf 96 39 22 88 d0 34 b0 bf
       -0.004525622008135015 -0.06330588649345822
0006d0 37 c6 72 8f 52 34 b9 bf 88 82 77 2a f2 43 a5 bf
       -0.09845462801129022 -0.041534011539401894
0006e0 62 c5 16 2f e0 65 a6 bf 4e d2 62 8f db ab 90 3f
       -0.043746000049746284 0.016280584932888247
0006f0 80 41 47 0e f2 c9 c0 bf ed cb c6 8a 50 db 62 bf
       -0.13116288850006796 -0.0023018429839907124
000700 89 6c 50 22 a5 81 90 3f 10 26 7b c7 26 d0 b3 3f
       0.016119556636209374 0.07739488954680263
000710 b8 54 e0 06 c9 fa 84 3f 79 c4 69 6f 8b d6 70 bf
       0.010243959925029564 -0.004110855740337199
000720 ee 8b 0d ad 8d 82 93 3f b2 23 bf 89 3f bf 87 bf
       0.01905270928126506 -0.011595245734399604
000730 9a ef 4a 34 c8 66 ad 3f ab f4 14 66 53 e5 9e 3f
       0.057424789794338696 0.03017168341215341
000740 75 67 1f 4e 46 23 ac 3f 26 24 de b1 5c 36 b7 3f
       0.054956624065836936 0.09067324964975451
000750 bb e3 53 c0 19 d6 b0 bf 18 85 6b 2f 0d d6 a5 bf
       -0.06576691575527509 -0.042648708380293054
000760 ce eb 38 da 13 a0 7c 3f 72 ab 48 1e 98 85 a0 bf
       0.006988599346693781 -0.03226924295116519
000770 2d 36 a1 73 30 f4 9e 3f f2 9b c7 8a ed 9e 91 3f
       0.03022838311908609 0.017207824321214767
000780 ce 58 32 37 8e 76 ae 3f 92 d4 9a 73 4e 57 59 3f
       0.05949825691020437 0.0015466943863604904
000790 fc 2e 1b a1 7e 26 b4 3f 0b 73 2a 79 7e 73 a2 bf
       0.0787123816800736 -0.03603739956927229
0007a0 57 da f9 e8 64 87 a6 bf 60 d2 5e ee e7 d4 a2 bf
       -0.04400172561593212 -0.036780593727063104
0007b0 f9 9a 40 a8 cc cc b5 3f 9b ab 46 db 38 96 b3 3f
       0.08515624149059055 0.07651095727366768
0007c0 9a fc 50 19 08 4d b3 3f 9c 66 87 a2 75 52 68 3f
       0.07539415948939379 0.0029690072590085725
0007d0 67 28 20 73 4e a2 75 bf 29 e1 a5 97 af e7 84 bf
       -0.005281740612199304 -0.010207530799320868
0007e0 60 f8 0b a1 84 cb a3 bf 0b cb aa f2 3d 21 a0 bf
       -0.03866209474470916 -0.03150361621137251
0007f0 f0 7a 50 e4 de 8f af bf bf 89 39 ed 3e 06 c2 bf
       -0.061644521112830364 -0.14081560691108838

arr_0 f8 [4, 2, 4, 4]
000000 15 49 3e 08 1d ce eb 3f 04 71 09 d5 2f 8c ee bf
       0.8689103280069356 -0.954612651908548
000010 3c e0 de 81 94 8d dd bf 86 d6 76 7d cc df ea bf
       -0.461766363932387 -0.8398191881630772
000020 fa 72 fb ea c2 2f c1 bf 07 28 77 a4 a5 59 d9 bf
       -0.13427006219617238 -0.3960966211421923
000030 14 2f 48 9a 88 8d de bf c6 17 d0 88 6a 4d e7 bf
       -0.4773885256442878 -0.7282002136350847
000040 a1 c9 2c 5a 37 d4 d8 bf 37 94 df e9 f9 c2 d8 bf
       -0.3879526501288187 -0.3869004043502317
000050 8c 0b 34 aa 62 25 e1 bf 81 7f 81 94 87 fa de bf
       -0.5358136486323573 -0.48404111387753096
000060 b7 88 97 ec 9a 28 e3 bf 2e 79 21 28 6d f5 dd bf
       -0.5987066861091738 -0.4681046382810504
000070 38 93 62 31 b9 9a db bf 8e 5c c6 73 b9 e9 dc bf
       -0.431318567493054 -0.45176540666711495
000080 f9 fa cd 02 91 be ed 3f 74 4c f5 4d d2 88 e0 bf
       0.9295125059869341 -0.5167018435116817
000090 30 09 72 93 43 e4 f3 bf e7 0c a0 2d 81 a3 da bf
       -1.2432285079563137 -0.4162295289572299
0000a0 c4 08 90 3d ba 87 d2 bf b6 7f 50 f9 ef 33 93 bf
       -0.28953414928413346 -0.018752812950083096
0000b0 6d de f7 51 ea da e5 bf 88 3f 3d 4d 18 20 e3 bf
       -0.6829730606977599 -0.5976678379611124
0000c0 0c 71 a9 cb 07 89 db bf db 92 10 30 9f 3e ce bf
       -0.43023867501121127 -0.23628606650267767
0000d0 80 23 a7 34 57 bf b6 bf 3e 76 8e 2b b1 1c e1 bf
       -0.08885712657423817 -0.53475245005729
0000e0 d8 16 61 be 4c 23 d9 bf 1d e6 7c 8d 4b 93 b3 bf
       -0.39277952758525947 -0.07646629528326128
0000f0 6a c6 ab c4 dc 58 d8 bf b5 83 b0 d6 37 bd e8 bf
       -0.380423729001541 -0.773097914996575
000100 d7 69 41 76 91 02 e4 bf da bf 61 94 7a fd b9 bf
       -0.6253135022810125 -0.10152402994731294
000110 f9 dc a4 2e ce 05 d5 3f 27 ec 37 d6 39 1d ef 3f
       0.3284793334491521 0.972317617793469
000120 20 92 63 79 ab f6 d0 bf 78 9c 69 52 81 f0 d0 bf
       -0.26505553106679436 -0.26467927024936655
000130 23 f0 e5 0c 06 20 ad 3f 5f d1 4a da 81 41 d2 bf
       0.0568849459404819 -0.28524824445346114
000140 ac b1 40 f2 86 1f af 3f 73 99 32 7e 4d aa b7 bf
       0.06078740794359602 -0.0924423630809537
000150 ac 24 4f 36 d4 8b d7 bf 72 68 26 a1 c5 11 bc bf
       -0.36790948203686 -0.10964617904974874
000160 7f db a4 b2 ee ef d5 bf 2e cb a2 c2 f8 ab e7 bf
       -0.3427693123407422 -0.7397426415903732
000170 32 32 b7 7c 9c 7d 5a 3f bc 72 c9 6b c5 3d e2 3f
       0.0016168621249220802 0.5700404267514254
000180 b0 e7 17 10 d5 06 e7 bf a9 46 82 74 2d 38 d9 bf
       -0.7195840181659516 -0.3940538060934196
000190 1e 8c cc 11 59 e5 c4 3f b2 d8 0e 3c 85 58 e0 3f
       0.16324914330570633 0.5108057187087722
0001a0 c7 11 30 01 13 8c d1 bf 3a e4 b4 af 16 75 de bf
       -0.2741744529342011 -0.47589652212952027
0001b0 a1 b6 40 cd 64 ee d3 3f e3 38 80 ef d3 90 b9 3f
       0.3114254002019639 0.09986614796818886
0001c0 df 67 af 99 a8 4d f1 bf ee ab 32 9d 7c 14 bc bf
       -1.0814596179320615 -0.10968760335769875
0001d0 f4 4a 71 7b 9d e2 d2 3f fc fd e3 3b 31 c4 eb bf
       0.2950814919942524 -0.8676992578256768
0001e0 d9 de 0e e9 4e 50 cd 3f cc d5 ba ad d0 48 e7 3f
       0.22901331310071418 0.7276385682259217
0001f0 8b ce 2a 30 38 b3 f0 bf ae 7a d1 31 6f 06 d2 bf
       -1.0437547570735741 -0.2816427217966674
000200 e4 73 04 2e 8f 31 a0 bf 29 ee 7f 4a fb 18 c7 bf
       -0.03162810742126235 -0.1804498780983164
000210 dc 8c f2 4d a2 11 b8 bf c1 21 8d 0b 5f e8 d7 bf
       -0.09401907351507383 -0.37355781677299765
000220 6d 01 de e7 d5 30 f2 bf 6c fd b5 c8 1b 83 fb bf
       -1.1369227464020597 -1.7195089187879047
000230 aa 73 89 b1 d1 38 f2 bf 26 cc 28 2f 3f dd ea bf
       -1.1388718543086989 -0.8395076676446294
000240 b0 70 40 61 56 df c4 bf 66 61 fc f2 34 2b cb bf
       -0.16306571720713725 -0.21225606789154056
000250 08 f2 24 ca 04 a3 a5 bf db 32 15 61 64 00 66 bf
       -0.04225935905057915 -0.0026857338458853137
000260 82 2a f6 af 9e d9 e9 bf 6e d3 9e 67 bc 2a e7 bf
       -0.8078149258374909 -0.723966791518803
000270 a3 68 6d 5c 7a 95 e8 bf 95 b9 cd 74 d5 3e d6 bf
       -0.7682468228552078 -0.3475850716266902
000280 e3 b0 04 bd d1 04 da bf a9 bc eb e5 27 eb e0 bf
       -0.40654414614506446 -0.5287055483476212
000290 24 da 7d e9 38 e5 dc bf 23 d7 e5 7c 6b 3c b7 3f
       -0.4514906196776869 0.09076568412077939
0002a0 52 28 3d f1 16 87 f4 3f 57 ba 4d 43 ab bd f2 3f
       1.2829808638948816 1.1713059071586451
0002b0 3e 85 e5 4b b7 0b f6 3f f5 2b 4d 03 5e 93 e7 3f
       1.3778603520116373 0.7367391647798046
0002c0 01 04 a5 d1 0d 78 e8 bf aa e8 a9 75 9a 46 df 3f
       -0.7646550268765396 0.48868428698154764
0002d0 6d 48 8b c8 25 7d e9 bf 0a 81 43 1b d6 58 df bf
       -0.7965268055797999 -0.4897971407172156
0002e0 ac 3c 8c 06 e2 5b e6 3f f3 43 9a b3 5b 02 ed 3f
       0.6987161758314833 0.9065378673423069
0002f0 59 ce 4a ba 4d fc eb 3f 08 52 84 91 6b 01 d9 3f
       0.874548782207465 0.3907116814673661
000300 75 4d 6d 8d a0 05 c0 3f fc 35 87 53 c3 75 f2 bf
       0.12517172723401485 -1.1537507307833712
000310 81 91 91 fb 66 39 c3 3f 36 96 ec 9f 3c bd a9 bf
       0.15018927844642962 -0.050271887323372885
000320 4a 62 92 7b 72 b1 b4 bf b0 c7 dc 47 02 d4 f3 bf
       -0.08083262936487148 -1.2392599875570163
000330 1a a1 8d b8 06 fb a1 3f 1d 92 06 57 fe ab c4 bf
       0.03511830332610284 -0.16149882554340503
000340 02 95 cb ac 7d 9e 66 bf 4a b7 f8 6d 5a 5c f3 bf
       -0.0027611212338906075 -1.2100471778644128
000350 cd 2f aa 93 99 88 bc 3f 1e 98 53 90 00 45 bd bf
       0.11145934920403917 -0.11433414004895368
000360 df 58 1b 29 2f 82 bd 3f 26 ad 50 60 36 c7 f2 bf
       0.11526770356735792 -1.1736358415899502
000370 29 5a 3e 8c 4d c7 af 3f b1 e8 c1 6f 0e 89 ba bf
       0.06206743561704215 -0.10365381458714996
000380 18 89 71 a5 39 95 de bf 43 60 73 24 1d 32 f7 3f
       -0.4778579822215234 1.4497348235945686
000390 a1 52 99 8e 88 79 d7 bf 30 0b b5 6e 43 cc db bf
       -0.3667928116385984 -0.43434224902391616
0003a0 95 90 b6 80 07 b9 e3 bf 95 42 e2 df 08 c9 f2 3f
       -0.6163365854195201 1.1740807290517854
0003b0 ef b7 d6 47 53 bc da bf 41 5b 58 f2 ac 79 df bf
       -0.41774446502210955 -0.49180148760335746
0003c0 43 79 75 bb a0 f5 e1 bf 78 36 c7 8c d1 d3 f2 3f
       -0.5612338696771889 1.176713514246698
0003d0 9e f2 61 0b 62 51 dd bf 34 88 59 2e 63 1c da bf
       -0.458092223277882 -0.40798263098088516
0003e0 94 4a fe 43 b9 ef e1 bf 1a 41 6e 99 ec 11 f6 3f
       -0.5605131462092054 1.3793760293374988
0003f0 6c 1f d4 0d c1 07 cf 3f 92 22 b2 f1 34 6c d3 bf
       0.24242413687920406 -0.30347941973790526

arr_3 f8 [36]
000000 8b b3 a8 52 23 e6 e4 bf f2 20 0a 73 0d 9c df bf
       -0.6530930151399031 -0.49389969095547237
000010 a3 ce 37 4a 22 06 91 bf 30 39 99 2c 9b ac d1 3f
       -0.01662496164313033 0.27616004329037747
000020 55 11 90 46 0c 6e de 3f 5b 22 28 0e 9f ae cd 3f
       0.4754667939271447 0.23189151946305028
000030 20 93 d5 de 7d 77 c6 bf e9 54 3f cb f4 76 de bf
       -0.17552159672336476 -0.47601051185968274
000040 78 38 3c d8 1d bd e2 bf 72 98 58 23 03 c8 e7 bf
       -0.5855855201096025 -0.7431655588486719
000050 e3 98 34 dc 74 32 d7 bf 44 08 95 76 64 17 cd 3f
       -0.36245461944998975 0.22727638044495013
000060 c9 e2 e0 2b 89 81 ec 3f bc 0a 8a 6b 9d ce ef 3f
       0.8908124787331754 0.9939715481162561
000070 c3 4e 23 ca af f8 eb 3f 0d a6 c2 5e fe 67 d5 3f
       0.8741072605139028 0.3344722676652914
000080 b5 67 8b 58 f3 b2 d0 bf 35 6c ff 96 0f 84 e5 bf
       -0.26092227599076107 -0.67237071506259
000090 02 64 7a 97 46 1b e9 bf 1c 31 80 a0 8b 43 d3 bf
       -0.784579559188501 -0.30099764512921623
0000a0 e8 dd d5 6b 34 ce d0 3f 20 70 0a 20 0d 45 eb 3f
       0.26258574038317173 0.8521791101261478
0000b0 bc 06 3d aa 81 d8 ed 3f 0f ef 3f 55 98 7d eb 3f
       0.9326790165871084 0.8590814271005643
0000c0 bd bf 1b a2 08 4d d4 3f 18 a0 f1 ba 95 49 c8 bf
       0.3172017653550901 -0.1897456324397815
0000d0 35 cf 74 7f de e0 e5 bf 76 a6 22 c2 f6 f7 e6 bf
       -0.6836998452549553 -0.7177690307336906
0000e0 63 33 ba 09 33 da de bf a8 f2 3b 00 47 a4 c1 bf
       -0.48206783246933166 -0.13782584678110266
0000f0 ac 1d ad b2 56 2a d5 3f d7 a6 f0 d1 74 db de 3f
       0.330709146965513 0.4821445512958297
000100 4d e5 1b 47 f2 27 da 3f 6f 8d 7a af ca 1e a2 bf
       0.40868813461527936 -0.03539117233347155
000110 2c 14 a0 24 dd 68 d7 bf 15 96 05 75 e7 94 e3 bf
       -0.3657753808659574 -0.6119267736036728

arr_1 f8 [4]
000000 78 f3 56 26 fb 34 d8 3f 2d 03 5b 1e 0a 3b 92 bf
       0.3782337068949384 -0.017803342917207466
000010 79 27 f5 e2 e0 b3 ee bf c7 0e c4 b2 00 8e f1 bf
       -0.9594578202024727 -1.0971686347046885
