results/params_8.npz (npz, 98830 bytes, 4 tensors)

arr_2 f8 [336, 36]
000000 eb 6f 05 fa 30 1c b1 3f f8 12 46 88 27 d2 91 bf
       0.06683641532930522 -0.0174032380032427
000010 42 a1 a0 83 2e 05 b1 3f 3b 35 86 c1 4f 64 c1 3f
       0.06648531640587854 0.13587376546312577
000020 9d 4d 9e 22 a5 16 b0 bf ce 98 9e b6 73 e1 b3 bf
       -0.06284553618598072 -0.07765887459263185
000030 fb bf c6 4e 44 07 9f bf e3 11 c0 75 e6 0d 6b bf
       -0.03030115824520861 -0.0033025265856869586
000040 11 81 31 e1 98 0e c0 3f c9 36 09 95 6e 5f b9 3f
       0.12544547076959892 0.09911242617200879
000050 e4 52 2a ce 5b ce 73 bf cb 6e f4 8c ad ba b9 bf
       -0.004835470785697214 -0.10050472918777158
000060 4a 6f cf 5a ae e8 93 3f 3e d3 7c 3f 68 ee a3 3f
       0.019442295353527407 0.03892827773089501
000070 73 ef 89 7d 4b fb bf bf 50 d8 e5 74 59 eb 71 3f
       -0.12492820563232758 0.004374837341279372
000080 f2 6d fc f7 27 c5 a5 bf bf 14 e8 fa e4 69 ad 3f
       -0.042519806882605496 0.05744853556465434
000090 65 97 80 85 d5 14 a8 3f 2f fb fc 3a 04 ca ac 3f
       0.047033951327007974 0.05622876377173324
0000a0 08 5b 75 1c 0b 13 b5 3f 5f ec 92 fe 8b c4 8b 3f
       0.08232182926927234 0.013558477121810407
0000b0 d5 27 29 e1 a9 63 91 3f af 8f 9d 50 7f b0 a5 3f
       0.01698174893162004 0.04236219271731955
0000c0 a3 ec 5a 1a ec 93 bb bf ae d9 27 d7 ff 7e 80 bf
       -0.10772586482464645 -0.008054732087640595
0000d0 e2 0d 8c 9a 6c e7 b6 bf 4b 3a d8 f3 42 df a0 3f
       -0.08946875355837094 0.03295335032099852
0000e0 a3 9e c4 71 6f aa 18 bf b9 21 39 1a 93 01 b6 3f
       -9.409241869617417e-05 0.08596152677740222
0000f0 dc a5 66 44 61 59 ac bf f3 56 29 4c 13 c5 be 3f
       -0.055369414901473596 0.12019463166629034
000100 75 9b f7 cb 79 81 bd 3f 80 f0 1b 08 de e7 95 bf
       0.11525689344089847 -0.021392316098158393
000110 87 30 68 5e 57 b6 b1 bf c5 57 fa 4c 95 34 be 3f
       -0.06918855719431082 0.11798985604613595
000120 52 aa 4f 42 4a f5 7a 3f 72 20 b3 00 94 da b1 3f
       0.006581583093956471 0.06974148766596658
000130 ec b2 e7 58 7a 12 b7 bf e5 45 90 93 4b e8 c0 bf
       -0.09012570066961317 -0.13208908753635665
000140 8c 62 66 b9 54 b5 b1 bf 2e 11 72 36 06 2a b5 bf
       -0.06917314077726128 -0.08267248944509184
000150 51 04 cb 73 c7 65 a7 bf ba 92 f8 4d ce e6 a3 bf
       -0.04569838798989479 -0.03887028409761713
000160 08 c4 7c a3 c6 6c a2 3f 51 2c cf 97 65 b9 c0 3f
       0.035986144501642114 0.1306578627830697
000170 5a cd c0 8a 68 47 b6 3f 91 47 e8 d0 01 1b 6e bf
       0.0870271052124755 -0.0036749873609175994
000180 5f 93 34 77 5d e0 9f bf 0c a0 88 d9 c4 14 b0 bf
       -0.031129322434157 -0.06281690894013553
000190 4e d6 ac dc e9 ef ad bf 15 43 69 dd a4 2b a7 bf
       -0.05847101992405311 -0.04525485232136909
0001a0 87 67 ef df 6d 9b 91 bf 74 db ff b9 26 d3 b6 3f
       -0.017194477837484647 0.08915941277505884
0001b0 84 9f 13 d3 a2 b4 bf 3f 7f 16 1c 22 35 d6 9e 3f
       0.12385003712881654 0.03011401196183394
0001c0 88 28 43 d8 46 a5 ab bf 1a 70 f5 89 72 c8 aa bf
       -0.053995336436472974 -0.05231054243151352
0001d0 5e 26 9f 4a d3 0d a0 bf 60 ca da 93 d2 b6 c0 bf
       -0.03135547910603685 -0.13057930201974255
0001e0 c4 f5 4d 69 aa 27 85 3f 7b 95 08 e7 68 f5 ab 3f
       0.010329562510146391 0.05460670299752742
0001f0 bb 55 3f 6f 5d 64 5f bf 78 f4 24 3e 77 dc a1 3f
       -0.001916018719375286 0.03488514550779426
000200 4e 78 b8 8c b2 75 a0 3f cb e1 79 45 cc e7 8f 3f
       0.03214796035557353 0.015578838224642141
000210 36 9d 47 23 93 31 61 bf cb 67 2e c9 6a ef 9a bf
       -0.002098834398782802 -0.026303928879862142
000220 85 1d 11 08 74 76 8f 3f 01 36 54 b2 bc 9a a0 bf
       0.015362650390797547 -0.03243055035464338
000230 c8 eb 47 59 29 f0 8e bf fa 64 e9 21 98 b9 ba 3f
       -0.015106509244096858 0.1043944437782506
000240 f7 d0 39 d8 d5 24 cc bf b9 89 4d ab 7f ed b2 bf
       -0.21987412507917956 -0.07393644268225942
000250 ee 30 dc 79 56 13 be 3f cd 37 42 cc 4e 41 b7 3f
       0.11748257136440873 0.09084026800903118
000260 d6 8b a6 dd 0c 6d a8 3f 2c c5 96 24 2a ce 85 3f
       0.047706987435297485 0.01064713405762293
000270 4e c4 9e 64 6e 2a 55 bf da eb 43 cc ef 4e ca bf
       -0.0012918546731095662 -0.20553395723240336
000280 c3 fe ae cf 65 5c b8 bf 0a 7b 64 48 74 b6 b2 3f
       -0.09515987701797272 0.07309653060336188
000290 f3 50 58 dc bc c0 c2 3f 28 3d 95 2b 00 d0 d0 3f
       0.146506888952565 0.26269535308979863
0002a0 0b 80 0c c8 96 35 ae 3f 42 2d 76 ee 34 bb aa bf
       0.05900260154726319 -0.052209524258695086
0002b0 7f e5 6f 01 ab 8b d6 bf 83 64 fc 5c dc 25 ad bf
       -0.3522746576341759 -0.05692947993356603
0002c0 14 81 8a 72 a7 57 bd 3f 35 10 bc 96 2e c5 c4 bf
       0.11461874529277721 -0.1622675167092226
0002d0 2f 69 41 b3 23 12 ac bf 3c 2f 11 8b c2 3c d7 3f
       -0.0548258930509341 0.36308349209570046
0002e0 42 e3 e9 61 ae b3 c1 3f 0d 02 d5 dd c2 db c5 3f
       0.138295934495341 0.17076907951015166
0002f0 d7 30 f5 62 45 1f b9 3f a8 20 a7 e5 63 e1 b3 bf
       0.0981334082218298 -0.0776579318691143
000300 65 c4 57 cd 5c 3a c7 bf b7 e0 ee 8d 7a 04 c6 bf
       -0.18146858240610012 -0.17201167993858288
000310 61 b7 0f d6 10 c3 d5 bf 54 c2 bd 3a b2 c6 7c 3f
       -0.34003086952622225 0.007025428971119203
000320 c8 e1 67 28 f7 27 c0 3f 0c ca d3 b1 9e 86 a2 3f
       0.12621964905680572 0.03618331833594732
000330 80 73 08 ee 4d 1e a4 3f 00 9c 79 3e a8 57 d3 3f
       0.039293704325451095 0.302225171099451
000340 d8 c2 76 65 10 e3 7a bf 8b fc f3 08 31 1b ad 3f
       -0.00656420140096322 0.056848080008415534
000350 e3 88 14 73 0b 06 a9 bf 57 d9 7a 45 6d 0a a0 bf
       -0.04887424258983388 -0.031329550486975215
000360 62 ff e4 4c fa c9 d0 bf af c6 95 10 63 5d d5 bf
       -0.26232774266462944 -0.33382488841662455
000370 ac dc df d5 ac 0f bb bf 96 74 6a ea f9 b9 a4 3f
       -0.10570793363136727 0.04048138605615141
000380 2e 7c 9d c3 56 11 c2 bf ac 11 01 8b e3 a1 ac bf
       -0.14115414191744108 -0.05592261382892913
000390 5d 9d d2 3d a0 b7 79 3f e7 64 bb 69 42 9a b6 bf
       0.006278634970988986 -0.08829131203983175
0003a0 ba a9 dc 7e 05 09 bc bf 8c 4f db 79 24 a2 be bf
       -0.1095126566621393 -0.11966159796730674
0003b0 71 6d 52 bf 13 d7 99 3f 6f 5d f4 a8 aa bd 93 3f
       0.025234516670577137 0.019278208315055275
0003c0 d8 4f 94 2f 45 a3 d0 3f 6e 21 8d 42 47 e4 bb bf
       0.2599652256624245 -0.10895200133120905
0003d0 89 70 f3 4c 1e ff a7 3f 21 fe c5 b9 69 c5 b1 bf
       0.04686827363340835 -0.0694185331867563
0003e0 cd 70 c4 d0 64 c6 c2 3f c9 ce 57 7c c4 db a7 3f
       0.14667949861257626 0.04659856813296199
0003f0 c3 16 ec a1 50 91 c0 bf f3 27 be f3 d1 42 c2 3f
       -0.12943466097219955 0.14266418839935077
000400 fe 68 c6 11 18 67 a8 3f be 1d 43 70 96 19 9a 3f
       0.047661544961743005 0.025488234140338177
000410 66 ad b7 6d 32 0c c3 3f 57 bc 3e 4c ed 88 c3 bf
       0.148809722493165 -0.15261617873099695
000420 a6 02 ed 18 47 b2 ab 3f 50 9c 5d c8 9b ad bd bf
       0.05409452609319958 -0.11593030587901976
000430 25 e5 f3 57 06 3a b6 bf cb 52 4a a2 a6 f0 b0 3f
       -0.08682288787158095 0.06617204153219373
000440 ff 3e c9 9c 24 09 b1 3f ef 40 4a 90 7b 39 b1 3f
       0.06654576137338707 0.06728336594301586
000450 8a 23 3c cb f7 b3 aa 3f a1 7e a6 2e 13 90 a8 3f
       0.05215429645438181 0.04797420448744317
000460 e3 8d a6 e3 0b fe cb 3f 37 0f dc 79 ac a2 c0 bf
       0.21869038215400768 -0.12996440839935428
000470 7f 9a 90 2e c4 9c a5 bf bb 5d e4 35 8d 2c ad bf
       -0.04221165722292585 -0.05698052676069262
000480 7f a9 ed 8d 18 61 81 bf e4 da c3 ce 67 64 c1 bf
       -0.008485977011976285 -0.13587663265180716
000490 21 20 8e d7 24 ab c5 bf 24 62 27 34 64 f7 c4 3f
       -0.16928539776950038 0.16379978701185494
0004a0 42 31 ba 4c cd 8e b6 3f c7 89 0c 93 93 31 a0 bf
       0.08811648486352389 -0.03162823839217626
0004b0 82 0f fe df 7f 31 b0 bf 9b 46 fa d2 50 7f a1 3f
       -0.06325530260624926 0.03417446685228961
0004c0 76 f7 3f 75 9e 6b ad 3f d3 7f 3a e5 8a 1c c5 bf
       0.05746169263146232 -0.16493354981230243
0004d0 ba c6 0e 37 68 74 8a bf cb 09 ce 3c 5e 42 c3 3f
       -0.012917341404178873 0.1504628941439264
0004e0 f9 2f 7d 97 c3 95 c1 3f 16 cc 1b 72 ea 7a b3 3f
       0.13738293549465633 0.07609429632047723
0004f0 70 68 9e 01 21 f0 9b bf 5e 6c 5a 24 33 72 c1 3f
       -0.027283206676294858 0.13629760050830247
000500 28 7f 81 b5 7e 5b b6 3f 5e 83 6c 99 69 ab bb bf
       0.08733360225005227 -0.10808429713916953
000510 ee 17 6a 82 e6 51 b2 bf 20 91 53 45 11 04 99 3f
       -0.07156220134683597 0.02442957864413231
000520 fc 6c b2 67 7d bd be 3f 46 e3 1c 78 12 57 b9 3f
       0.12007888585724297 0.09898486549799398
000530 14 39 42 d9 b8 88 90 bf 7e 90 5d af 0c ba d0 3f
       -0.016146553287904444 0.26135556340728516
000540 e2 66 d4 07 47 ff a3 3f 58 8c d5 57 31 78 c0 3f
       0.039056987481854724 0.12866799153116193
000550 9f ec 5c a3 bb 74 72 3f 70 d0 c6 22 18 c3 d0 3f
       0.004505856477233255 0.26190760990289785
000560 3e 95 e3 ca 49 00 c2 bf ab 08 4f cf 36 2f 84 bf
       -0.14063379675568827 -0.009855678750572435
000570 e8 6e 11 4c 0a b0 81 bf 1d a6 8a 78 c0 19 a0 3f
       -0.008636551329054012 0.03144647094206852
000580 cc 63 4a c9 6c f2 81 3f 5d 7d f5 36 42 f5 d4 3f
       0.00876317014017216 0.32746940009197606
000590 a7 6c 89 5b 88 3e cc bf 8d d8 c5 52 e2 c6 a7 bf
       -0.22065834493227962 -0.04643924007807341
0005a0 74 98 05 b9 a4 0b b0 3f bc 53 fd 22 fd 02 b4 bf
       0.06267766492018884 -0.0781706056998947
0005b0 69 39 7f 80 7e cf c3 bf 88 c3 39 85 5d b4 cb bf
       -0.15476971887842275 -0.21644181256445116
0005c0 5a 81 9d 4f b2 c1 7b 3f 50 b0 c4 f1 9f f7 c1 bf
       0.006776520278293974 -0.14036940865605851
0005d0 f1 cf 9e 22 2e be c4 bf 3d a6 46 67 c0 78 b2 bf
       -0.16205383959243094 -0.0721550228251084
0005e0 6f 19 c0 b5 31 bb a0 3f b9 a9 70 3c bc af b1 3f
       0.03267817824967067 0.06908775783146028
0005f0 47 60 25 ff 50 6c a2 bf e4 62 d9 bc fc df bb bf
       -0.035982638498069756 -0.10888652430129359
000600 da f2 7d f4 25 c6 72 3f cc 48 58 65 d9 e0 b6 3f
       0.0045835001582161475 0.08936842655410543
000610 aa 67 c1 ba 30 67 a3 bf e2 3d ff 6e 5e 00 af bf
       -0.0378966548893936 -0.060549689340060345
000620 90 a1 ba 7f 47 81 b1 bf 2f 59 00 e1 0a 10 a9 3f
       -0.0683788954580733 0.04895051952932971
000630 ce 73 81 37 b7 0d ae bf db d9 e2 e1 da a4 ba bf
       -0.05869839241561402 -0.10407798781202564
000640 f3 0d a6 b2 ce 25 81 bf 95 ba 57 91 09 58 8b bf
       -0.00837289316837706 -0.013351511714941902
000650 35 6c 96 93 22 8e aa 3f b0 47 93 fd d6 59 7f bf
       0.05186565448385531 -0.00765403729129048
000660 fa 26 bf 81 48 6b 9f bf 23 a9 b5 f6 d8 be ac bf
       -0.03068269054327908 -0.05614355098335213
000670 8d 65 68 1a 73 00 b5 bf b1 23 13 78 08 ea bb bf
       -0.08203811068269413 -0.10903981143486764
000680 10 65 3f 9c 99 d4 c5 3f 12 c1 69 5a 9a 68 90 bf
       0.17055053834227651 -0.01602402855718405
000690 35 72 4d 57 4a ea 26 3f 4d b4 ea 35 a9 29 c1 bf
       0.00017482907756062737 -0.13408389218003194
0006a0 46 d3 00 ce a3 76 a4 bf 4c 65 b6 41 5b 32 a5 bf
       -0.03996765031516829 -0.041399814387839656
0006b0 fc a2 55 47 00 d8 c1 3f 22 76 2a 22 b5 8f b4 bf
       0.13940433009272357 -0.0803178032315022
0006c0 60 6d b7 4b bc 2b b9 bf f0 2e 23 9d 61 08 bd 3f
       -0.09832360123202966 0.11340913854945334
0006d0 5b 77 04 d7 d0 3e 92 3f 7e 03 6a 61 8a b8 bc bf
       0.01781774818765967 -0.11219086530947028
0006e0 92 67 93 f9 f5 75 bf bf c3 0a 88 77 88 33 a2 3f
       -0.12289368956717642 0.03554941615222653
0006f0 10 00 b0 e7 95 08 ad bf 01 50 6a 65 62 55 c5 bf
       -0.05670612767426075 -0.16666822387617233
000700 94 fe 47 96 9c 60 c8 bf c6 d9 d5 7b 53 8c c7 bf
       -0.19044835412932015 -0.18396991297386317
000710 9c c7 12 cd e0 99 7c bf e5 b9 97 29 18 3d c5 3f
       -0.006982687119647137 0.16592695265667526
000720 68 93 e7 35 91 03 a8 bf 9d 17 8d fd b3 72 93 3f
       -0.04690221579566051 0.01899224505475382
000730 6f a8 63 78 3d e4 c1 3f 80 65 9e 03 bc 92 c7 3f
       0.13977783563979382 0.18416547943779094
000740 35 34 9c 1b fa 49 a3 bf 90 6f e2 0a 69 34 c9 bf
       -0.03767377459562519 -0.1969119361064
000750 09 68 e4 95 68 73 c9 bf 8a 22 bd 75 5a 7f bb 3f
       -0.1988344890494889 0.1074120080421698
000760 10 49 5a 00 12 1b a5 bf ee 3d 62 80 80 ef cd 3f
       -0.041222155135203775 0.23387151974428327
000770 83 4c 63 d5 e2 c3 be bf ce 0a d8 c1 fb 5a bc 3f
       -0.12017648420014564 0.11076329691426709
000780 5c 01 a6 2d 0a 1a ba 3f 5c 04 6f e0 f1 95 b2 3f
       0.10195983519043267 0.07260047654473695
000790 7b a3 21 0f 33 d9 bf bf ff 73 44 41 9c 65 91 bf
       -0.12440795058649982 -0.01698917530403676
0007a0 ef 91 aa d4 2b 7a c2 bf 11 70 b5 89 ea b2 d5 3f
       -0.1443533695611587 0.3390451760112692
0007b0 77 22 92 2f 9f 79 ad bf 08 c3 a4 97 51 36 b1 3f
       -0.057568525845515355 0.06723508789287902
0007c0 55 f9 58 1a b0 9d 5c 3f 0e 13 39 89 78 2e 6f bf
       0.0017465801005439225 -0.0038063387126235975
0007d0 d5 d2 1a c8 d5 08 a0 3f bc 2e 1a 25 0e 56 d4 3f
       0.03131740634618089 0.31775239585179427
0007e0 95 b6 8d 7c e1 08 c2 bf 25 d4 b5 00 93 19 c9 bf
       -0.14089602071492338 -0.19609296354943342
0007f0 5f 52 16 01 75 e0 c5 3f f2 1e 35 ed 01 79 6f bf
       0.17091238549314178 -0.003841880572199468

arr_0 f8 [4, 2, 4, 4]
000000 11 59 5e 86 d3 59 d5 bf c2 c4 a6 da 92 bd e8 bf
       -0.33360756036690115 -0.7731413145576413
000010 10 34 2f 9d f7 95 c6 bf 65 af 1a 55 2d 50 5d 3f
       -0.17645163702982858 0.0017891352367013999
000020 ab a5 3b 87 e5 37 c3 3f f0 be 01 19 e6 24 dd bf
       0.15014332869695343 -0.4553771251876091
000030 f4 bb fb d7 dc 1e cc bf 00 1a ad a6 33 4a d1 bf
       -0.21969185396252977 -0.2701539161393214
000040 60 58 ce fb ef 37 a0 3f 57 c9 b0 af ec 7e b9 bf
       0.03167676876835013 -0.099592965024191
000050 a1 d9 62 ad 36 cc b4 3f ba c2 c3 3a 84 92 e5 bf
       0.08124105198917288 -0.6741353175876477
000060 55 34 d0 fb 9a 8c ea 3f 5f f8 68 08 4d 22 e8 3f
       0.8296637457111823 0.7541871227511016
000070 01 f1 db f7 0f 9e e3 3f fc d5 af 00 a5 69 e1 3f
       0.6130447236060094 0.5441460622229779
000080 46 b4 07 35 33 ca f2 bf b6 9f f6 1e db 5f f2 3f
       -1.1743652411926333 1.1484023293978516
000090 69 71 16 31 24 b5 e7 bf 64 8e fd 33 d0 15 e9 bf
       -0.740861984133102 -0.7839127555311731
0000a0 c8 61 30 ac 19 dc e7 3f ea 4c bc 73 08 3a f1 bf
       0.7456177104059458 -1.0766682167930477
0000b0 eb 64 ef e2 75 58 e6 3f 7c d1 e2 5d 02 2c dd bf
       0.6982984001471356 -0.4558111111503178
0000c0 19 4f c6 29 96 a9 95 bf 87 4b 70 13 64 b7 cf bf
       -0.02115473394367404 -0.247784146777658
0000d0 99 79 9c 4e 48 19 d3 bf 76 7b 13 e0 8e e7 da 3f
       -0.29841811825635883 0.4203831852191152
0000e0 c8 38 2a 6c 5d 72 f0 bf 48 7a eb 8b 84 d8 f8 bf
       -1.027921125907186 -1.552860781251768
0000f0 c7 3e 3c 59 73 55 f7 bf 86 d5 80 ef 18 6a f1 bf
       -1.4583619580989067 -1.0884026866527576
000100 d7 74 d0 d6 bc 55 e9 bf 06 f4 da 57 be d5 db bf
       -0.7917160220710241 -0.43492086963289045
000110 2e 80 81 7b fb 95 da bf 77 4d a7 bb 64 77 da bf
       -0.415404196368402 -0.4135372002176249
000120 21 92 12 7a da 27 da bf 3c cd 98 50 c9 4a e4 bf
       -0.4086824600329085 -0.6341291975171894
000130 f4 6c a1 0f a6 5e e0 bf 57 a8 24 a2 29 d2 db bf
       -0.5115537934574648 -0.43470230898185974
000140 04 9a 58 c7 9e f4 da bf ef 14 ad 27 a5 f3 ea bf
       -0.4211804339160212 -0.8422418379711
000150 7f 5d 85 26 79 ba dd bf 8a 8f a1 c9 0a b1 d4 bf
       -0.46450642358600897 -0.3233057946256329
000160 5e c9 f1 bc b0 57 df bf 10 93 1d 7b 25 f6 da bf
       -0.4897271962319304 -0.4212735845851947
000170 d0 59 88 42 e2 41 e5 bf da 90 0a c3 65 a2 d2 bf
       -0.6642924594369166 -0.29116195723532956
000180 9c 1e 66 70 2d 92 da bf 08 0e ee 42 36 f6 a3 bf
       -0.41517196632819675 -0.03898782317176247
000190 a9 ad f9 fa 14 4e e9 bf 73 d3 25 45 a8 8c da bf
       -0.7907814885961005 -0.4148350405951568
0001a0 26 9b b6 6c e8 8c d4 bf 83 bb 3e d4 ed eb ab bf
       -0.32110033623250656 -0.054534370573825285
0001b0 96 50 51 06 c9 1c e6 bf d8 45 5f 86 c8 69 d5 bf
       -0.6910138247863127 -0.33458150026589584
0001c0 16 84 a3 98 b4 80 ec bf 0f 5f ce d4 d1 0f b9 bf
       -0.8907111150002744 -0.09789763875448564
0001d0 8d 52 c2 e1 40 fe db 3f 88 d1 7b 0a 59 23 f2 bf
       0.4373933987310828 -1.1336298379438592
0001e0 30 dc 8c 43 63 58 ea bf e6 f0 b5 49 b4 62 e6 bf
       -0.8232895202007793 -0.6995488586103675
0001f0 69 03 69 2a 88 e2 f1 bf cf 70 12 a5 08 7f d1 3f
       -1.1178056389473687 0.27337852592769435
000200 4b b7 50 49 15 76 bb bf 87 ef 2b 3e d9 c4 98 bf
       -0.10727055587696303 -0.024188417834906353
000210 ba 10 1a 5c 75 09 e4 bf 98 c6 0c 50 29 53 e3 3f
       -0.6261545943130138 0.6039015353655541
000220 86 ce de 26 f2 06 f5 bf 6a 89 0c 1a db ef fc bf
       -1.3141957777378663 -1.8085585610902748
000230 74 ad 57 19 6f f4 00 c0 e8 f0 ac f8 c0 79 f5 bf
       -2.1193525295145097 -1.3422250474823674
000240 44 c3 59 ba e7 d7 b0 3f e5 37 b6 fc b9 e0 d5 bf
       0.06579445170951909 -0.34184121779332904
000250 0c fe be ff d9 4d bf 3f 82 53 99 78 12 bf d3 bf
       0.12228167051124944 -0.30853711869468026
000260 da 7f fe f9 05 de cc bf d3 85 6b fd 63 de cd bf
       -0.22552561480279004 -0.23334932207130396
000270 da 86 b2 42 66 4c e1 3f cc df 96 c2 c3 1e ee 3f
       0.5405761053736697 0.9412554550717629
000280 e7 0a 22 bc e3 4b e5 bf f3 a2 78 29 f8 8c e3 bf
       -0.6655138658973926 -0.6109581766114317
000290 25 50 4c 92 c3 a0 ec bf d5 11 c5 23 00 5c e8 3f
       -0.894624505747292 0.7612305353764507
0002a0 3a 67 a2 1e a4 46 f1 3f 8d 64 6c c9 26 c4 f2 3f
       1.0797463604598776 1.172888552484696
0002b0 78 00 89 5f 4f fc f3 3f d5 fa 93 56 d8 21 e5 3f
       1.2490991336672135 0.6603814784028496
0002c0 15 8c be 6a 59 75 dd bf 1a 53 ea 0a 36 6f e7 bf
       -0.4602874319481896 -0.7323255742254304
0002d0 8b 71 67 cf 61 cc ad 3f f1 e4 f3 a2 19 27 ee bf
       0.058199936454658895 -0.9422729666395339
0002e0 41 02 02 85 27 11 f0 bf 0d 3a 86 76 d8 fc ec bf
       -1.0041880794161815 -0.9058649363449277
0002f0 a7 1d 86 b7 b3 b0 a1 bf ca 10 16 16 bf 9a e2 3f
       -0.03455125441820011 0.5813899451609583
000300 a9 62 d0 bc 4e 06 ec 3f c6 81 94 72 e1 d1 fa bf
       0.8757699668668312 -1.6762403941903457
000310 4d 09 70 81 1b de c0 3f 31 ad 85 37 8a 08 bf bf
       0.13177818126866683 -0.1212240586807425
000320 7e ae 74 7a bc 51 b7 bf 1a 22 2f d1 4b 46 fb bf
       -0.0910909460987401 -1.7046621485952813
000330 35 0f 47 02 37 b3 b4 3f 08 51 a1 80 ac ed 89 bf
       0.08085960202793958 -0.012660358119469098
000340 e3 00 ef f8 7b 27 b5 bf 5f ee 74 44 07 63 f6 bf
       -0.08263373210411688 -1.3991768526165271
000350 18 a6 f3 db 43 41 8f bf 99 ec 76 ef c2 f4 b4 3f
       -0.015261202001471338 0.0818597635870212
000360 3e 99 39 59 f3 76 d4 bf d5 1c cf 03 bc 06 fa bf
       -0.3197601672494733 -1.6266441487112406
000370 0c 6f a2 94 cd 5b e7 bf f9 32 ba e5 16 b8 d4 bf
       -0.729956426908275 -0.32373592790899824
000380 7f dc 4b d5 e5 91 ea 3f 29 bd 4b 59 63 b9 ea 3f
       0.830309788317109 0.8351303810176535
000390 c5 ce 7b c2 56 a0 e1 bf b5 a4 35 cc d7 2a db bf
       -0.550822620249584 -0.42448992674196556
0003a0 e9 23 67 86 d4 34 e5 bf d2 21 d5 0c 73 c3 ee 3f
       -0.6626989960724333 0.9613585711131754
0003b0 19 a6 4b 53 ed cd dd bf 77 d4 55 01 2a 6f e4 bf
       -0.46569378980947956 -0.6385698343352847
0003c0 47 d3 f6 3d bd ed e2 bf 6e 55 1e b1 75 a8 ec 3f
       -0.5915209017026449 0.895563932356408
0003d0 9f a4 8a aa 30 51 e0 bf cd e8 ea 44 6f 8a d9 bf
       -0.5099109011545301 -0.3990743802093107
0003e0 ff c4 57 43 17 2a d0 bf d5 01 9e cb 44 83 f0 3f
       -0.2525690229077355 1.032048030261753
0003f0 c5 d7 41 79 d0 26 e6 3f dd e5 68 b4 af 34 ed 3f
       0.6922380798630391 0.9126814387920451

arr_3 f8 [36]
000000 92 e5 12 a1 47 d8 e5 bf 4a 16 22 31 f8 ed d8 bf
       -0.6826513429615935 -0.38952450559768137
000010 15 33 02 d4 55 c2 7f 3f d7 ff 6b eb d8 c4 e1 3f
       0.0077536919271892395 0.5552792165835808
000020 cf 5e e7 a7 fd 24 e3 3f 47 90 a3 5a 50 84 dd 3f
       0.5982654837962061 0.4612007985254007
000030 bb 8b 75 e0 13 9f 91 3f 8d 2d 69 c0 b8 ed d4 bf
       0.01720839555253993 -0.3270093802463741
000040 1a 82 c5 83 f5 16 e9 bf 75 8f 10 b7 e6 1b ee bf
       -0.7840526174223357 -0.9409059119684416
000050 c7 0d ce 80 e9 26 ce bf 38 92 94 0f de d5 d1 3f
       -0.23556250371266982 0.2786784317161479
000060 8e ef 3b 7f 03 fa ea 3f 69 48 fa 9a f9 88 f0 3f
       0.8430192456284986 1.033441167241586
000070 db b9 3d 3f 25 03 eb 3f e1 32 f6 f4 aa 04 d1 3f
       0.8441339717081137 0.2659098999218213
000080 50 11 50 2d 43 f4 ce bf d9 d0 a1 e4 ab 60 f0 bf
       -0.2418292971853 -1.0236014300290235
000090 5f be 2f 8a 17 7e eb bf 07 97 f7 fb f1 0e c0 bf
       -0.85914208402205 -0.12545609286387835
0000a0 7f 21 13 e3 ee 63 d1 3f 31 30 f7 66 1e 3f ec 3f
       0.2717244355703982 0.8827049265905825
0000b0 ba 5e 4d b3 4e d1 f0 3f 0c 9c a7 d9 71 9a ec 3f
       1.0511004451745252 0.8938531161373944
0000c0 6f 72 2f 42 8f e9 c8 3f 01 ef c9 b5 cd 9b d2 bf
       0.19462767345148133 -0.290759494331482
0000d0 b9 8b d9 5c a3 a5 f0 bf 90 0c 27 73 33 3d e4 bf
       -1.0404389979309896 -0.6324708222458799
0000e0 ad ec e1 f7 30 fc d6 bf cd 05 f8 c4 d3 50 ae bf
       -0.3591425343253814 -0.05921041278271453
0000f0 20 ce 04 e1 97 36 de 3f b7 c9 ef 0a 41 b0 e0 3f
       0.47208210920800475 0.5215153897864216
000100 6f 7e e8 51 10 3c d9 3f 6e e9 d8 d0 d9 a7 c4 bf
       0.394291000355202 -0.1613724012148156
000110 4e 1b a1 11 5f 42 e2 bf 2e 90 3b f7 2a 9e eb bf
       -0.5706019729922021 -0.8630575970423757

arr_1 f8 [4]
000000 e4 0d fc 7e 7c a9 da bf 67 d0 b3 6b c5 7b d9 3f
       -0.41659462357367105 0.3981793929845083
000010 27 53 74 92 d7 2f e0 bf 3e f3 09 d7 1f 28 e6 bf
       -0.5058400974690799 -0.6923979949930084
