results/params_11.npz (npz, 392302 bytes, 4 tensors)

arr_2 f8 [1344, 36]
-0.33216639699626743 0.03486979394358102 -0.050374780715757156 0.006148532159018392 0.037799422033862835 -0.026479908778802744 0.011832772955080477 -0.09461624568353498
0.08036597615525463 0.05368373686344102 0.10792971271879942 0.00618694871325837 -0.0008659044564187659 -0.09716738854785692 -0.08553825582667636 -0.1139886963754869
0.0020084304180976766 0.07072236696934929 0.03808008745830632 -0.11183392106577311 -0.007885351878380398 0.03854276009490413 -0.0015885631276475454 0.08594661990280533
-0.005751485750900773 0.02654698003350944 0.0735269178942838 0.11022080303040811 0.04637383649538898 -0.06747718035410268 0.015351642782849185 0.05995676904253769
-0.037354129035742256 -0.018705897627538784 0.10996028922852269 0.005676584034683286 0.03859463356604832 -0.12460234736026024 0.05613949926951416 0.020427668543565505
-0.17588969713668912 0.031026281224226477 -0.09658502406664082 -0.002596090750091072 0.07465222494470768 0.11994087291225639 0.08319115453246873 0.09452651492845217
0.005391260255384851 -0.07637942117183033 -0.06375717611756203 -0.006699838120370157 0.08568110086716285 0.09672464150681798 0.00429363717866758 -0.05743848593182867
-0.046462091494511235 0.05715455642931759 -0.08063912655352423 0.038698963606161825 0.03179207263840879 -0.09278333217863355 -0.02142653003781796 0.016566917837082442
-0.04391673135504911 0.004385598669575102 -0.043442390091775994 -0.08384742100584945 0.03926567336831149 0.02687959707702466 0.07001612434267615 -0.008203712710048976
0.09838026687370527 0.05730529522178068 -0.01859383457639611 0.17660837423898237 -0.04167226998699528 -0.01751158139557354 -0.01269298780749865 0.009304441680317273
0.02738173066026079 0.11738926658289885 0.12200371048610742 0.10716792046714622 -0.08588610660084353 -0.2063309843842738 -0.04414747068549256 -0.05222335400394528
0.09598623629556455 0.005228250422358683 -0.025600344925412504 -0.04851220435114632 0.042084117811246186 0.052201547555964345 -0.16053361771998484 0.044768522219445515
-0.11958138565159547 -0.058457960010978735 -0.033253472237749944 0.04933360649931491 -0.046910211542925136 -0.08187815122884234 0.01539662157096404 0.02402429690582661
0.0690414994171747 -0.07203602224338776 -0.02016866946828385 0.02569363444874454 0.3266605312150609 0.2964402920894495 0.1923528422805496 0.16651156651631352
0.07315562909165219 -0.029930900756677176 -0.053193871628330634 0.033982781019785656 -0.017836085890248727 0.12093529069960662 0.11651253056005985 -0.05313184215084162
0.05785574269983949 -0.27901494226202334 -0.00017766655754035496 -0.05205452336930815 -0.12114732573602062 0.015577251857151734 0.174828132397363 -0.13069880782893215
0.02325540420773383 -0.03583052178589885 -0.04788389564982775 -0.008369772628026744 -0.09371320514906747 -0.08490817626462957 -0.007436848020278974 -0.13253507640234113
0.04068843231948918 -0.08097244310407245 -0.12177259226901972 -0.03676021623070609 -0.06594960441342022 -0.08082016160272362 -0.1119222395322138 0.04399340677089277
0.14812440334576035 0.26903634056984294 0.2164122322873844 0.18827898753662556 0.09664785682593163 0.0956891865316692 0.0062763756790165165 -0.10781210452020867
0.08874799671926334 0.03547318085034426 -0.08058322709903677 -0.06507330383900241 0.01447718238719051 -0.02018151688935101 -0.10730361040548322 -0.06216617804699583
-0.13726540081275207 0.04663250347868163 0.10598591397784259 0.06947400319615682 0.035768991689950416 -0.0017043843381372048 -0.10709341185776802 -0.02023627262316097
-0.029932702327978424 -0.03933274148003498 -0.05619380949147251 -0.19903669773646082 -0.09305323292700614 0.06080078022930368 -0.15494807736003088 -0.05429458800027275
-0.10499130687315723 0.09512918300071277 -0.036578436961866016 0.030044657233042935 -0.014139338018663922 0.05338129798649634 0.2331459829740006 0.22952317523639232
0.21834872313412276 0.1831228945365453 0.15333594131124742 -0.054658504310148785 -0.10200185503015384 -0.027695286718883144 -0.12032645226428104 -0.04239780459557647
-0.05102403545071627 -0.05011754402575485 -0.020164004091560335 -0.0684069878017728 -0.08843804046003033 0.026563974867497644 0.12815507983888538 0.07984840596186991
0.009374139919675603 -0.13210437893779484 -0.006175260960777638 -0.023101806668220353 -0.012639156419885722 0.11091956852524866 0.16087805916401657 -0.11524270294550802
0.020435117758807225 -0.1578363134593807 0.0104843632212858 -0.04753409426070112 -0.0979318665959673 -0.1131635331869482 -0.015401809641927408 -0.04083200526943725
-0.10416674647941741 -0.07157255379063082 0.0919538112118198 0.16712636115241972 0.19793639433955182 0.19995778676706233 0.185421674859513 0.16222206579052456
0.05833454489696888 0.17744048219924508 -0.12672060424396 -0.13008019620042927 -0.049477566458888456 -0.05647418655776988 -0.1601664108045205 -0.059500327198852836
-0.10161053034805026 0.051731851382452954 -0.05861597926982489 0.023088719796273933 -0.05874186172685411 -0.025456929440514645 -0.04709271679987684 -0.12494531845055534
-0.014614746929129029 0.0807557704945368 0.11625186608557996 0.021589744044111656 -0.07615672132880104 -0.02189566359565167 -0.17358474122639755 -0.054692731427361994
-0.08149794324696287 -0.11173776580832487 0.043999850055992586 -0.07606419207822514 0.04355737252905923 -0.045274343048455276 0.01035602382388866 0.06158705387573631
00000000: b976 fbd8 3642 d5bf af3d 3621 74da a13f
00000010: 4c48 6f27 b9ca a9bf be86 a908 342f 793f
00000020: 99e3 e222 725a a33f 31f7 d298 8c1d 9bbf
00000030: 0f8e e7e6 c73b 883f b78e e130 c538 b8bf
00000040: 6f45 4c57 dd92 b43f 18a4 4f4c 6f7c ab3f
00000050: dcd7 641a 48a1 bb3f c4e6 2a66 7c57 793f
00000060: 0c10 30a9 bb5f 4cbf 4aff 0c44 f6df b8bf
00000070: dd1b 55cb d5e5 b5bf 37e0 0bfb 5c2e bdbf
00000080: 88e0 c8de fb73 603f 0fa4 3a6d dc1a b23f
00000090: 0845 86b4 3b7f a33f d499 8fd9 25a1 bcbf
000000a0: 9a13 7b03 3226 80bf 15db 356c e0bb a33f
000000b0: fb7f 93ab ea06 5abf bc2d af01 9900 b63f
000000c0: 70a7 41b3 de8e 77bf 47b9 34ac 212f 9b3f
000000d0: d94b bbfb a8d2 b23f edbd 5a38 6e37 bc3f
000000e0: c486 46be 4fbe a73f c9df d83a 2f46 b1bf
000000f0: 47a6 899d ae70 8f3f f44c 6c54 a7b2 ae3f
00000100: c87c 2895 1420 a3bf 94dd 358a a327 93bf
00000110: 6c5f 1886 5b26 bc3f f4e8 826c 5440 773f
00000120: 823f ef01 adc2 a33f 52ca ea7e f0e5 bfbf
00000130: c7b4 c002 51be ac3f 6704 50a1 fdea 943f
00000140: f4e4 73b8 8d83 c6bf a5bd b27c 5ac5 9f3f
00000150: e04b a6cf cbb9 b8bf 4994 cf9b 6544 65bf
00000160: 3f0e b680 681c b33f 1ea1 9cee 71b4 be3f
00000170: 388f 08f8 034c b53f 8df9 38c2 e332 b83f
00000180: 9498 b267 2515 763f 543a 050c 9a8d b3bf
00000190: f76b 4fea 6352 b0bf af05 d919 4a71 7bbf
000001a0: 0818 1c56 32ef b53f 2436 fd33 f2c2 b83f
000001b0: 6c57 3674 3496 713f a2c9 37c5 9368 adbf
000001c0: d603 f216 e1c9 a7bf 16d4 5cad 5c43 ad3f
000001d0: e04c 530b c4a4 b4bf d9b5 27be 59d0 a33f
000001e0: 320f 82f0 0c47 a03f f035 5201 a6c0 b7bf
000001f0: ede3 1d17 d6f0 95bf 8720 3909 ebf6 903f
00000200: 2b95 d5f9 407c a6bf f94e bf2d a2f6 713f
00000210: c393 68b9 143e a6bf 0bf6 124b 0677 b5bf
00000220: 68d3 f15d a11a a43f 557d 8039 5386 9b3f
00000230: 2a95 3ea4 93ec b13f 960f 5dae 1bcd 80bf
00000240: 5058 cbfc 722f b93f f8f7 baa1 1e57 ad3f
00000250: 8bc3 a61d 430a 93bf 3130 c76b 1a9b c63f
00000260: 550b 7d59 1156 a5bf 47b7 9455 8eee 91bf
00000270: 9682 2cfc c7fe 89bf b1c7 cb05 350e 833f
00000280: 7259 c6d6 f409 9c3f 71fe df14 390d be3f
00000290: b44a 879a a23b bf3f 6b33 9659 5b6f bb3f
000002a0: 5a09 08c3 a1fc b5bf 197d 0abf 0d69 cabf
000002b0: c632 974d 7f9a a6bf af99 11fb 04bd aabf
000002c0: 8e6d c1d1 8d92 b83f 34ee 44c9 376a 753f
000002d0: fb44 e210 fa36 9abf fd42 4a76 97d6 a8bf
000002e0: 0c52 5cab 0c8c a53f 885e 1b47 29ba aa3f
000002f0: 0b09 0297 5d8c c4bf d341 a555 e6eb a63f
00000300: cf7e 95bc e29c bebf 6645 e0a4 33ee adbf
00000310: 39aa 7a5f 9906 a1bf aa3e 0425 4142 a93f
00000320: 99c1 d980 9d04 a8bf f8e9 c86d f7f5 b4bf
00000330: 18ef ed90 4388 8f3f b865 1446 d399 983f
00000340: 0546 1026 b4ac b13f de55 abe7 f370 b2bf
00000350: 7698 147f 18a7 94bf eae1 b09e 6e4f 9a3f
00000360: 729c 9d92 01e8 d43f 776a efb3 e0f8 d23f
00000370: 189d 7197 049f c83f 19f1 4b42 4050 c53f
00000380: 308a 77ca 53ba b23f a81a 8fbf 34a6 9ebf
00000390: fb8b fb25 3a3c abbf fbd6 36ea 3066 a13f
000003a0: 155c 5976 9f43 92bf 30b0 7c7e 9df5 be3f
000003b0: 7164 54e4 c3d3 bd3f cb04 d4c8 1834 abbf
000003c0: 0d2e 9095 449f ad3f 0316 077d 61db d1bf
000003d0: 20de c31b 8049 27bf 9fc8 f5f6 e3a6 aabf
000003e0: a9b8 08da 8203 bfbf 75de 4d5a f7e6 8f3f
000003f0: 9ea1 88ab c460 c63f 972f a010 bdba c0bf
00000400: 1623 1cc2 43d0 973f 10c1 89ce 6058 a2bf
00000410: 7f65 a4eb 3c84 a8bf 83da b2dd 2b24 81bf
00000420: b28e 51af 96fd b7bf e236 38d0 8abc b5bf
00000430: 66cb 84b0 1976 7ebf fe46 5ccd e8f6 c0bf
00000440: a482 463c 1dd5 a43f b65b 022b 9cba b4bf
00000450: 8936 5815 7d2c bfbf 5a71 022d 3cd2 a2bf
00000460: 6fc8 23c2 12e2 b0bf 16ee f04e a1b0 b4bf
00000470: 5766 7c96 efa6 bcbf eb26 a4c6 4d86 a63f
00000480: db05 0e8e bdf5 c23f 2ab6 0b33 e437 d13f
00000490: 4d78 1062 65b3 cb3f c934 ff9e 8619 c83f
000004a0: ecbd 4bf8 e9bd b83f 35ff bb26 167f b83f
000004b0: 07e8 75c4 41b5 793f 8cf8 06f7 9299 bbbf
000004c0: 06a8 7e4f 30b8 b63f 144f 466f 8a29 a23f
000004d0: e11a ff34 1aa1 b4bf a5c8 d4df a4a8 b0bf
000004e0: f232 2187 36a6 8d3f 25ff 17ac 76aa 94bf
000004f0: b22c 6fd9 3f78 bbbf 4b21 42cb 3ed4 afbf
00000500: 207a aea3 e991 c1bf fe3a be2a 37e0 a73f
00000510: d51a 5f92 e421 bb3f 4852 a65b 0cc9 b13f
00000520: e2d8 0933 5050 a23f 4dcb 7ebf b4ec 5bbf
00000530: f2d1 8b4d 796a bbbf e10a 7044 d1b8 94bf
00000540: e77a 51a6 ada6 9ebf 3336 a3cc 6b23 a4bf
00000550: 88ce 015c 6fc5 acbf 18b0 bdd5 087a c9bf
00000560: 4d64 3530 56d2 b7bf eff1 4fa5 4721 af3f
00000570: cf71 6bae 56d5 c3bf df36 9f0f 80cc abbf
00000580: 456f 62d5 b5e0 babf 5c1d e2d9 625a b83f
00000590: dfe2 faac 68ba a2bf 9c19 f1d0 06c4 9e3f
000005a0: 2a9c 04d3 15f5 8cbf 4adb 2322 cb54 ab3f
000005b0: e996 0842 bad7 cd3f ac3d a8f1 0361 cd3f
000005c0: 5701 7ed8 d9f2 cb3f 0077 972d 9270 c73f
000005d0: f1d8 9d1a 83a0 c33f d7b4 eb10 33fc abbf
000005e0: 4360 7c27 cb1c babf 4b02 d83a 275c 9cbf
000005f0: 5e9c 51e1 b6cd bebf a905 5240 2ab5 a5bf
00000600: 193c 2487 d21f aabf 3fc9 17b9 01a9 a9bf
00000610: 12c6 8468 dfa5 94bf 212e 6dcf 1e83 b1bf
00000620: 1787 7f1b e0a3 b6bf 670d 3b2d 9633 9b3f
00000630: 43b5 5cba 6267 c03f 5774 3ef4 f170 b43f
00000640: f8a8 10c3 bf32 833f bd1d 99d9 cbe8 c0bf
00000650: bed1 eefd 3a4b 79bf 9b5d 7900 00a8 97bf
00000660: 608d c7db 8ee2 89bf 6168 4d8f 3965 bc3f
00000670: 8d6f 60f9 a697 c43f ebeb 40b8 8b80 bdbf
00000680: 1b1f db89 f1ec 943f 7ef1 36f6 fa33 c4bf
00000690: d50b 3d69 d378 853f f3e1 9688 6356 a8bf
000006a0: f712 4414 1012 b9bf cb43 230a 49f8 bcbf
000006b0: cbbb b0e5 fb8a 8fbf 7750 86be eee7 a4bf
000006c0: d3b6 7501 acaa babf fc6b d231 9452 b2bf
000006d0: 09b7 e5f3 488a b73f 037d b987 6564 c53f
000006e0: 4932 30d2 fa55 c93f 985e 5f7d 3798 c93f
000006f0: 20de bebe e5bb c73f 3443 a151 b1c3 c43f
00000700: 117a 1e85 06de ad3f 0a20 04a6 5eb6 c63f
00000710: 7384 7a79 6138 c0bf b2e0 44c6 77a6 c0bf
00000720: 2037 a7a3 1f55 a9bf 0aeb aa40 2fea acbf
00000730: e25b 293c 5580 c4bf 073b d7ae d376 aebf
00000740: da2a c6d0 2503 babf 20c6 b2e3 987c aa3f
00000750: 834c f9e3 e902 aebf 45dc b9c1 91a4 973f
00000760: acc5 0bce 6913 aebf b146 9d9d 6111 9abf
00000770: b40d 125d 891c a8bf 908f 8898 6afc bfbf
00000780: cca5 cc20 56ee 8dbf d4c0 3c01 69ac b43f
00000790: ebc0 efaa aec2 bd3f 69d5 6432 9f1b 963f
000007a0: 3150 7ac3 017f b3bf a629 451c d16b 96bf
000007b0: c074 5359 0638 c6bf c36d 9e89 af00 acbf
000007c0: 3ddd ef98 0cdd b4bf faf6 dfa1 d89a bcbf
000007d0: bded 09fa 2587 a63f 4965 5f61 f178 b3bf
000007e0: a124 06e5 264d a63f 6664 7bdd 322e a7bf
000007f0: 7920 1ffd 8935 853f 97ad 819c 5688 af3f

arr_0 f8 [16, 2, 4, 4]
0.4741259252042692 0.49898382397598584 0.6093323863160193 0.3545626065545214 0.105405794275648 -0.14163303608329517 -0.01712544170917801 -0.15733348898171354
0.5769193788142775 -0.20856150722433922 -0.6608150230585556 -0.04159441987585984 -0.11268361899767639 0.5555841370089263 -0.9642398752701629 0.004656347961369093
-1.3950521691871263 -1.823727359074869 -1.2545311148782297 -0.9631475715009179 0.40543101890783856 -0.8627476369369638 0.3680793180485885 -0.44736713742056566
0.4105069734122542 -0.5013546628372237 0.15827923183244233 0.6209374553547389 -0.38509413341118354 0.4298643707778799 -1.0599068714970572 0.3910026317542639
-0.6276806892901485 0.23118120159189245 -0.2360490307475809 1.8989551826371407 -0.07369341911008064 0.18786901803923423 -0.07487520741892639 -0.020902077393727018
0.001142914709516804 -0.06823610574345734 0.027034415560183343 -0.18120725207423669 -1.2032391512666196 -1.3396918484694706 -0.9366612842638727 -1.312321544238378
-0.5372681462604465 0.1731156996250879 -0.1403641364582904 1.8676640059211176 0.10423611699467408 -0.21971515712862746 -0.4031911994364628 -0.14786062411418377
0.3129740575266964 -0.2327725039412701 -0.08079110457403757 -0.04156786658848479 0.5691185596726949 0.5721240435796408 0.7993110091714302 0.5398601854135844
-0.7009660786833634 -0.631292536359794 -0.6556015510828527 0.3061615405059027 -0.2017376197123144 -0.17825139872844364 0.10126098384958448 0.022082902254743696
-0.6816599847956999 -0.3574714798380254 -0.29903534798250625 1.5356839470054433 0.9380972824342452 0.30006373546705084 -0.6064748462608143 0.4451787462256129
0.7782440444744114 0.6267543000275914 -1.12650628926893 0.7885691815629665 0.6387216277408622 -0.2652217528422357 -0.2016635608547884 -0.5739793771744902
-0.93008911528447 -0.18657753597283092 -0.031229003359205507 1.4924451502778242 0.8433754944571813 0.34642232130871564 -0.5490912025129165 0.4223398297322909
-0.6992661428707263 -0.14269773313875814 -0.5186429450296243 -0.14219841636832273 -0.32594253275239493 -0.7646143882784598 -0.05650167517907923 0.48007160651457087
-0.6753820682662013 -0.6186487252233719 -1.2591820598972978 -0.5598157056403916 0.22906009576177044 0.21850754334587089 0.5387168698986199 -0.8824666395651988
0.739059384129831 -1.48283562151237 0.6127436793515677 -0.7259737625337644 -0.7746575361173208 1.0287511854222076 -0.8641914251923976 -0.760161654809384
0.7015067688326327 0.4358189401260772 0.9513268467624254 -0.5306624047556388 -0.6952517526286253 -1.0678557098884862 -0.929204522099777 0.4610666842575281
-0.7647273128586307 0.14747758008930312 -0.1778809435693681 1.7114057287686033 -0.40414464367547237 0.19630008203096325 -0.11327165445307402 -0.2431500818247538
-0.26943990560848424 -0.09807111314375758 -0.27178368100574557 -0.36764154366035445 -0.42744904240969944 -0.35885297975844577 0.02369363522966366 1.2001191018756374
-0.4858261242912193 0.14018313652862782 -0.23866968940206662 1.5520088224028217 0.0931948129220328 0.31863245921879896 -0.33677186828611116 -0.24588621528353957
0.5879179647962179 0.18146094587206124 -0.360791281320929 -0.46569589277723633 0.2922328699878553 -1.1531472953543769 0.20532733766872627 1.1476822509480655
1.146892815549682 0.01857113363788537 -0.42606208795200046 0.4292423639385499 0.07060701061044508 0.0875939359890316 -0.015704409663247362 0.22186304095071613
-1.2939607341247414 -1.8633302518139974 -1.800674231952827 -1.5497611980074208 0.15335674398818155 -0.1966820998715203 0.02685382526684214 0.34199314545126364
0.7660106346954246 0.40175987975894756 -0.5970559522046037 0.2112945822895077 -0.6680905487588608 -0.5436586411520911 -0.8713866256385477 -0.5034000826694054
0.669497696135383 0.8800883324142339 0.8457192617929052 0.5301593603129382 -0.47839147200640014 -0.797592893307453 0.42083266805035235 -0.3346457419901165
-0.20010214293867346 1.5658233096840217 -0.30313955101228046 -0.007163099363105097 -0.08053834924055592 0.006107591588348327 -0.40713727931663946 -0.36251825751240985
-0.015348998267119636 -0.1024563005806757 -0.23501882269296698 -0.09018855271868355 -0.04945369824575468 -0.04940786661514179 1.1150555570096465 -0.14450038544769486
-0.12113498048829555 1.5139473842950484 -0.23361394460617202 0.18544770919297768 0.035874794080050856 -0.030839825289144474 -0.2706346290409898 -0.29614185736575704
0.07204355371304531 0.0369837934966571 -0.1671008176425628 0.04036495756431761 0.23660782061574945 -0.24558234304672444 1.108719168097146 0.0028296566030171404
1.6226557103683468 -0.09314253154655693 -0.0975318298269085 -0.766854260693078 -0.08613607281929278 -0.23003525567297356 -0.10251232410738395 -0.07999884113467308
-0.12971957380778273 0.17001090165211077 0.012758986882667082 -0.25767856116377624 -0.5124026961677468 -0.007567750793199824 -0.006444773755295927 1.1495808000747991
1.4201834344289854 -0.0508652818042991 0.028529707675351464 -0.8007475252809882 -0.05002218775773296 -0.6133117081376913 -0.1588310146165143 0.10130735858770154
-0.457918021367443 -0.001274240591220884 -0.0016471858204394957 -0.17450052451308942 -0.6106565141075199 0.036834736616169164 -0.04337617605181345 1.0703965567075346
00000000: 7a09 bc43 1458 de3f ac6e 4dd9 59ef df3f
00000010: bfde f3a1 a67f e33f d950 e25b 27b1 d63f
00000020: 380a 39c7 dffb ba3f 8166 0105 0821 c2bf
00000030: 4f2a 48f0 5489 91bf 09fb def6 8023 c4bf
00000040: 5cf3 0da1 1f76 e23f 19d3 5dba 24b2 cabf
00000050: 51be 178c 6525 e5bf ca35 2022 dd4b a5bf
00000060: 65d3 636a d5d8 bcbf ae26 5462 58c7 e13f
00000070: 5e1a 3995 0ddb eebf 37f1 67e3 8812 733f
00000080: 08f6 2d39 2252 f6bf 8fc0 40bd fc2d fdbf
00000090: 7076 e337 8f12 f4bf 382f 1adb 1ad2 eebf
000000a0: 598f bff1 94f2 d93f ac0e abee a09b ebbf
000000b0: 2692 568e 9c8e d73f a4b1 21c6 a9a1 dcbf
000000c0: 087a 650a bf45 da3f cba7 12ef 180b e0bf
000000d0: 9d9c 2d6e 7e42 c43f a485 f339 b8de e33f
000000e0: c97a 38dd 61a5 d8bf 2339 8dd9 e582 db3f
000000f0: 272b 5ee8 60f5 f0bf 2935 02e7 2f06 d93f
00000100: 229f 1ad0 f515 e4bf b3c1 247a 5897 cd3f
00000110: 211c a8c9 da36 cebf 8bf0 5fd4 1e62 fe3f
00000120: 8f1a 0269 92dd b2bf a27f 348c 170c c83f
00000130: d83f 2587 052b b3bf 914e 4cab 5a67 95bf
00000140: 8ce0 2a53 bbb9 523f 8415 93e2 eb77 b1bf
00000150: 3633 caea e8ae 9b3f df7a ba9a cc31 c7bf
00000160: 944f 3fb2 7740 f3bf 7f4e 3eb8 606f f5bf
00000170: 57f7 ea15 21f9 edbf d970 25e0 44ff f4bf
00000180: 90e0 abf7 4c31 e1bf 452e 28be a728 c63f
00000190: 5150 cfb7 73f7 c1bf 918f 15a7 f3e1 fd3f
000001a0: 1add 8dd9 37af ba3f 45c7 2653 a01f ccbf
000001b0: f555 e775 e2cd d9bf 78e1 77d0 18ed c2bf
000001c0: 98b5 6457 c407 d43f 0bfb ea49 7dcb cdbf
000001d0: 6605 f4cf b9ae b4bf d3c2 1f27 6248 a5bf
000001e0: 3ce8 2a20 3836 e23f 37c1 0d15 d74e e23f
000001f0: 682b 77ae f493 e93f 6371 18de 8846 e13f
00000200: f29c f169 506e e6bf 7ff9 bb67 8c33 e4bf
00000210: 7d72 a31a b0fa e4bf 6203 f192 2698 d33f
00000220: 70c5 84cf 89d2 c9bf 44a1 001c f1d0 c6bf
00000230: e8a7 fe65 3dec b93f b386 f07b e69c 963f
00000240: 780f b699 28d0 e5bf fc0c ca0e d0e0 d6bf
00000250: b7b3 fb27 6523 d3bf d716 9654 2992 f83f
00000260: 9bb0 9097 e404 ee3f 25fb a286 3e34 d33f
00000270: ac2d d1ef 3d68 e3bf 5b73 fafe ce7d dc3f
00000280: 3661 ea0d 60e7 e83f 39de a708 5f0e e43f
00000290: b95f 7275 2b06 f2bf 2249 ae6f f53b e93f
000002a0: efa2 cc56 6870 e43f ea4a a9a8 64f9 d0bf
000002b0: c346 558f 1cd0 c9bf 4f5f b1ff 095e e2bf
000002c0: 5b65 903f 4ac3 edbf 15f6 95cf c5e1 c7bf
000002d0: 7935 75f0 7efa 9fbf e145 782a 0ee1 f73f
000002e0: 2320 de9a eefc ea3f 8805 2887 c82b d63f
000002f0: a90e aab6 2792 e1bf c0e5 1fa3 9d07 db3f
00000300: fe8d da63 6360 e6bf adab 8558 eb43 c2bf
00000310: f181 e616 b998 e0bf e726 ecc5 8e33 c2bf
00000320: 2601 a311 3edc d4bf ff9f f697 b877 e8bf
00000330: c170 209e c9ed acbf 03f8 6d42 7eb9 de3f
00000340: f642 f0da ba9c e5bf b47c 5169 f8cb e3bf
00000350: 3c80 6f16 9c25 f4bf 9667 70a0 02ea e1bf
00000360: 7cc6 0e5a d751 cd3f d5c6 4c20 0ef8 cb3f
00000370: f193 4029 2b3d e13f 26cb 97ad 2a3d ecbf
00000380: fe76 94dd 5fa6 e73f d7d4 3bd8 b1b9 f7bf
00000390: 86a9 f4a1 989b e33f 55c5 fa53 2d3b e7bf
000003a0: a129 e799 fec9 e8bf fac0 91cd c375 f03f
000003b0: 57eb 95c6 74a7 ebbf a38b e288 3e53 e8bf
000003c0: 9be1 c152 be72 e63f 9768 b41f 75e4 db3f
000003d0: 70d8 d4ff 4471 ee3f c48c 34b9 2ffb e0bf
000003e0: 22da 809a 803f e6bf 2b16 6dde ef15 f1bf
000003f0: dfd7 361f 0bbc edbf c751 8ad6 1d82 dd3f
00000400: b4be e269 a578 e8bf 403a b09b 8be0 c23f
00000410: b324 9b81 cdc4 c6bf 9ef8 33f9 ea61 fb3f
00000420: 7d24 dc7e 81dd d9bf 9f36 4370 5c20 c93f
00000430: 7c94 7003 5fff bcbf 5780 bab8 8a1f cfbf
00000440: 5dd9 b4df 803e d1bf 467f a23f 301b b9bf
00000450: 2665 6061 e764 d1bf f904 ab65 7087 d7bf
00000460: 97cb 763a 535b dbbf 829e 087d 72f7 d6bf
00000470: 6e31 bdf1 2443 983f a7c5 5d16 b033 f33f
00000480: cee2 d774 c617 dfbf 1dab 6b61 85f1 c13f
00000490: 1aa1 4377 ba8c cebf 6e2d f533 07d5 f83f
000004a0: 202f a881 9ddb b73f 9f7b f265 7964 d43f
000004b0: 501b 2098 ab8d d5bf d30a 9712 3379 cfbf
000004c0: f7fa f055 39d0 e23f 06c8 02be 1c3a c73f
000004d0: 0f24 7d50 3417 d7bf 3006 5725 f6cd ddbf
000004e0: ef7f da7e f1b3 d23f 5349 1094 4a73 f2bf
000004f0: dd86 218c 2a48 ca3f 8058 6010 e85c f23f
00000500: 17da ec47 ac59 f23f 0f59 7fae 4f04 933f
00000510: b36f 74eb 9944 dbbf 911f cbf6 b478 db3f
00000520: 12b0 7011 4d13 b23f 5d9b 6662 8e6c b63f
00000530: 9c64 a017 d114 90bf 1287 8914 0266 cc3f
00000540: 8ffb b52b 10b4 f4bf 5b04 d361 33d0 fdbf
00000550: 06cc 8fc8 8fcf fcbf 92d3 e065 d2cb f8bf
00000560: b86f 069c 31a1 c33f 8c11 5409 e12c c9bf
00000570: aba1 2cb5 917f 9b3f 9bd6 ca37 37e3 d53f
00000580: 2ff6 0cbc 2883 e83f 6e36 1a12 6fb6 d93f
00000590: ac3a 9315 151b e3bf 7cb1 606c b30b cb3f
000005a0: b7f3 356e ff60 e5bf f7f3 7dce a665 e1bf
000005b0: 6b42 6934 66e2 ebbf 26cd 7b7d da1b e0bf
000005c0: 19c3 b46e 866c e53f 12ee a901 af29 ec3f
000005d0: e6ed 5fd7 2110 eb3f 92cb 46c3 10f7 e03f
000005e0: 7bfa bc43 f79d debf 82e1 0888 e185 e9bf
000005f0: 0a57 9724 ecee da3f 0ff7 65f9 d56a d5bf
00000600: bcfb e36f f29c c9bf 8584 26be 9c0d f93f
00000610: 1733 6e6e a366 d3bf f461 0ad8 0d57 7dbf
00000620: 28e0 0f48 299e b4bf b488 1122 4604 793f
00000630: bc6e e984 890e dabf 4aff 0dc7 7f33 d7bf
00000640: 314b abac 4b6f 8fbf aa5d 437c 933a babf
00000650: 5692 b4c6 1815 cebf 397b 66d4 9816 b7bf
00000660: 3777 43c1 fe51 a9bf 78e8 8de6 fc4b a9bf
00000670: 9d45 e97e 44d7 f13f 5ded e016 fd7e c2bf
00000680: c24c 99bb b302 bfbf 7597 76e4 2039 f83f
00000690: 608d fccd 0fe7 cdbf f30c 0d23 c0bc c73f
000006a0: ca2b a656 2e5e a23f 90fa 1fa4 7994 9fbf
000006b0: 685a 39e8 1352 d1bf 3835 17fa fcf3 d2bf
000006c0: 53cc 1543 7271 b23f 89ae 192f 8aef a23f
000006d0: f86f 7441 8f63 c5bf d64d 4939 b7aa a43f
000006e0: 93e0 c241 2a49 ce3f 8c2c ee01 3e6f cfbf
000006f0: 21cf 764f 50bd f13f ea2c 3452 382e 673f
00000700: f631 8bd5 65f6 f93f a7ee db5e 30d8 b7bf
00000710: bcf4 6c93 d8f7 b8bf 6f33 4ff2 118a e8bf
00000720: cec5 c37f 030d b6bf 046e 0596 cb71 cdbf
00000730: 1e69 7a67 3f3e babf 932d 64d6 cd7a b4bf
00000740: efe6 93a7 a69a c0bf c196 47cf eac2 c53f
00000750: 4212 213b 6221 8a3f 510a 4538 ce7d d0bf
00000760: bc86 cd56 9a65 e0bf 81bf 93a2 5cff 7ebf
00000770: e455 25c8 d565 7abf 76e4 46d6 ae64 f23f
00000780: 6218 d343 12b9 f63f 16dc b3a3 030b aabf
00000790: 8265 b845 e436 9d3f b3e9 2d46 b99f e9bf
000007a0: e5d7 fc18 829c a9bf aa91 16e0 3fa0 e3bf
000007b0: 9d28 af1e 9354 c4bf 5e73 fa6f 47ef b93f
000007c0: ac6b 8163 874e ddbf ef6a a86a 8de0 54bf
000007d0: 1c95 ab4e ccfc 5abf 8d93 f57e 0856 c6bf
000007e0: 11cc a587 7f8a e3bf ba16 3faa 00dc a23f
000007f0: 03db 22f3 6635 a6bf 3bf5 cc23 5820 f13f

arr_3 f8 [36]
0.2278093648349526 -0.5374088670587849 -0.3851933327709787 -0.15466922583158194 0.20976962762507714 -0.10896172808378263 -0.39191826494108906 -0.5137986405001372
0.18978598149814652 -0.6515044719506842 -0.30038169758191136 -0.05294893463698317 0.8191705340067112 1.8481508577025565 0.7866456528021302 -0.05464977151513352
-0.2936699993382987 -0.713290022411502 -0.6980979878790695 -0.2540184046235894 -0.03290624418634867 0.7995874922323639 1.8185986714284827 0.7943857055595783
-0.0639170576137609 -0.3684762276668837 -0.7138102512425326 0.23709319159730738 -0.5000326170100066 -0.2695929763967439 -0.029395407065473264 0.20750570891455813
-0.07816018519977772 -0.391658293760315 -0.5674481061206642 0.1874059271841395
00000000: cf25 d875 db28 cd3f f021 9314 7432 e1bf
00000010: cdde b8ef 01a7 d8bf dc77 5281 33cc c3bf
00000020: c901 2c2d bbd9 ca3f 8caf a272 eae4 bbbf
00000030: 7021 a858 3015 d9bf dbac b5d8 0971 e0bf
00000040: e40b e333 e84a c83f e23a 07e8 1fd9 e4bf
00000050: f499 db27 7439 d3bf c56d 3f6d 1f1c abbf
00000060: 56fb ac1f a536 ea3f 6082 3ea2 0692 fd3f
00000070: 4c6c 0a81 332c e93f c261 c80a 0efb abbf
00000080: 7f5b be40 7dcb d2bf 9a41 da98 45d3 e6bf
00000090: 1d02 6b97 d156 e6bf b42f 1c69 d641 d0bf
000000a0: 4da7 3a55 16d9 a0bf 8fb7 2d82 3896 e93f
000000b0: a259 a5eb fa18 fd3f 8b39 3992 9b6b e93f
000000c0: 028f 1b48 de5c b0bf 9eb1 cb50 1d95 d7bf
000000d0: ec5b 9498 88d7 e6bf 99e1 01d8 1159 ce3f
000000e0: 7fb8 1f67 4400 e0bf 7bbd 36e6 0241 d1bf
000000f0: 5cc9 fe5f d419 9ebf b5ba c20c 8c8f ca3f
00000100: fe47 484f 4e02 b4bf fc17 baf2 ed10 d9bf
00000110: 7ae4 3eee 8828 e2bf 488d 2adc eafc c73f

arr_1 f8 [16]
-0.16964408601560907 -0.5797636290991844 -0.6176174174231599 -0.4831877708572474 -0.2236412953228652 -0.4938033860380068 -0.05417772043699533 -0.0012302458775738595
-0.3352433596188388 -0.3635808389751679 0.09733802142060999 -0.6126585295228745 -0.2694196790407114 -0.2461062687996774 -0.0006885547174036192 -0.16149812641044753
00000000: 0bcc b2bc e5b6 c5bf 4b85 4c74 6c8d e2bf
00000010: eeb7 289a 85c3 e3bf 602d 6a66 8cec debf
00000020: 3630 b928 47a0 ccbf c2fc 6b84 799a dfbf
00000030: 62bf e5a2 2ebd abbf e49e da73 0628 54bf
00000040: aee6 7090 a074 d5bf 0a70 3691 e844 d7bf
00000050: 88ab a802 25eb b83f 7b51 7d0f e69a e3bf
00000060: 2a3c 9809 2c3e d1bf d2e7 ea03 6980 cfbf
00000070: 1899 12ff 0390 46bf a629 a679 f8ab c4bf
