results/params_19.npz (npz, 783598 bytes, 4 tensors)

arr_2 f8 [2688, 36]
0	0xbf94cf90ed885ad6	-0.020323051927415424
1	0xbfa817e94bf6593d	-0.04705742885851059
2	0x3f7898a603cf52af	0.0060049519497239875
3	0xbf97709dbc55109d	-0.022890534038439204
4	0xbfa0dc992051bad6	-0.03293303031465704
5	0x3f985d0633f41fe1	0.023792359276768486
6	0x3f76fe2b96c7e0a8	0.00561348940799903
7	0xbf9610729852ea3e	-0.021547117755043248
8	0xbf5ff128dfc2ef1a	-0.0019495867882559138
9	0xbf9d21059b466188	-0.028446281053761818
10	0xbf94ca9145103fe4	-0.020303983536052686
11	0x3f951df769c3fd21	0.02062212546388509
12	0x3f8f9e91000e118d	0.015439160169770339
13	0x3fa3666279985bcd	0.037890508025320103
14	0x3fa1c209d2519cf3	0.034683520244294906
15	0x3f973b19b110c72c	0.022686387474272582
16	0xbf782dcc62ad1e78	-0.005903051739387537
17	0xbf52ac6ad899dd55	-0.0011397403162883475
18	0xbfb0f25bcd9a2002	-0.06619809884625741
19	0x3f94a1711bda3099	0.020147101712198
20	0x3fa549d94f91702d	0.041579047167687434
21	0x3f9a4a96162e0dcd	0.025675149062875314
22	0x3f8f5161ba3f01b4	0.015291942116051206
23	0x3f785cc633b9b0a8	0.005947851397291405
24	0x3fa15d85e0926cc1	0.0339166485439022
25	0xbfa696407f99b63f	-0.04411508138296626
26	0xbf93ee1a824c0d21	-0.01946298046369777
27	0xbfa3463b9d931d07	-0.037645209298313324
28	0xbfa4a2956c3cc6c7	-0.040302915060590964
29	0x3fa5bf234bb15f89	0.04247389124856144
30	0x3f88b784aec2ee0b	0.01206878336267094
31	0x3f76f89f89fa750d	0.005608199309475437
32	0x3f8cd7470ec8eb8a	0.014082484377572663
33	0xbf927fe57b718ade	-0.018066011104006623
34	0x3f92e945e608a98c	0.018467991032744588
35	0xbf55facecff6337d	-0.001341535535036103
36	0x3f867431c479a8d4	0.010963810738037351
37	0x3f9393a03ec5871d	0.019117835837625486
38	0xbfa25f157bf27c9c	-0.035881682758593686
39	0x3f8cf35d665d5934	0.014136056600972148
40	0x3f9b5ea1b1da266b	0.026728178482278524
41	0x3fac17436fcbbca5	0.05486498584456826
42	0xbf93a5f8cc16e243	-0.019187819916370207
43	0xbf7c597c2fc0b78f	-0.006921277145051876
44	0x3f76bd5b241ffddc	0.005551677722905404
45	0xbfa2615607625eed	-0.03589886512889771
46	0xbf93efb90772d100	-0.01946915729486509
47	0x3f8e09572786e925	0.014666252988594206
48	0x3f99b48427767fc1	0.025102677258132425
49	0x3faae9874a8d2a9c	0.05256293091823247
50	0x3fa5cf15998e5df5	0.042595553393024156
51	0x3f93864e113f0ee4	0.019067020228034873
52	0xbfac28389be66809	-0.05499436286045529
53	0x3f80ca15c9859fac	0.00819794675108184
54	0xbfb414a10e0ab9c7	-0.07843977539844281
55	0xbf46aff28a5f9a69	-0.0006923612861527542
56	0xbf8ef46f2f0c29e3	-0.015114658950115384
57	0x3f607898941d9027	0.0020106296587290187
58	0x3f71be43c5098a43	0.0043318412068367755
59	0x3f51a3311bb871dd	0.0010765056202962566
60	0x3f8227bee1f4d18d	0.008864871283187603
61	0xbf84b7a551e78325	-0.010115901529333346
62	0xbf9ca8f41632f7b1	-0.027988256316113517
63	0xbf878f9a386b5d99	-0.011504368635924677
64	0xbee6871c589290dc	-1.0742080819810635e-05
65	0xbf750c0eba806d45	-0.005138452084817506
66	0xbf9844a8fc446ff6	-0.023699417493034468
67	0x3f95522548221bbd	0.02082117321745235
68	0x3f73b25ce0a0a976	0.004808771898789357
69	0x3f9752d03b570c91	0.022776845571354235
70	0x3f79a694bd66aee9	0.006262379660636455
71	0xbf933d789210c0ec	-0.018789180674674208
72	0x3fa5dd6bdd8b30ff	0.042704935830984773
73	0xbfc238eb3b553490	-0.14236202618704796
74	0xbfb62f1f27535cbc	-0.08665651998613816
75	0xbfa91e576bae5b38	-0.04905961217371274
76	0x3f9a0202099dc1d4	0.025398284756592407
77	0x3f9f1925541d7000	0.030369361170741627
78	0xbf93f7f3eea0d5da	-0.019500552596772504
79	0xbf80ef8cbe0720ba	-0.008269404935063885
80	0x3f86f3f2698df194	0.011207479330317217
81	0x3f8de1523beb6318	0.01458992238387817
82	0x3fae3e44ffd79861	0.05906882880280829
83	0xbf8e50275263b5ea	-0.01480131836111816
84	0xbf92760bf86155e3	-0.018028437647748318
85	0xbf9bce79874c0984	-0.02715482605254628
86	0x3f90523bc5abe609	0.015938695850286098
87	0xbf942eacebbb78f0	-0.019709302795370698
88	0xbfa8e563b00090a7	-0.04862510226692623
89	0xbf9ec6f3c8997bbb	-0.030055817717194105
90	0x3fa7240fc7718084	0.0451970034562246
91	0xbf8fe944203b0296	-0.01558163855895715
92	0xbf9c171bdbb39b25	-0.027431903156777033
93	0xbfa6e12e78bf5e73	-0.04468674873322422
94	0x3f9de85bbe5ba930	0.029206689351590487
95	0x3f94d42d599c3498	0.02034064158856505
96	0xbf99d4c86cf48c3b	-0.025225764894582375
97	0xbfb970cf3665409b	-0.09937758520141175
98	0xbfb3d12551eabb27	-0.07741006135868798
99	0xbf8e7d9277e36ce9	-0.014887947353079816
100	0x3f9ace328605dcea	0.026177205495938084
101	0x3fb051b2b9db2354	0.06374661481380645
102	0x3f9b4f662ae7ab9c	0.026670070999823645
103	0x3f73f188c2359365	0.004869016850851481
104	0x3faf24dd0ef65107	0.06082812125819897
105	0x3fa046d04d546eb8	0.031790265502619375
106	0x3fae1b433841aed0	0.058801746957070855
107	0x3f4f363748889cb1	0.0009525079668194683
108	0xbfbe9ca85c813ae7	-0.11957790621202556
109	0xbf5a0c6a28e9ba5e	-0.0015898739544827549
110	0xbfb8e2adf10d0cae	-0.09720885405572474
111	0xbf9439798be14b36	-0.019750498926735825
112	0x3fa803c9a0690009	0.0469038971245937
113	0x3fb2fabb5d6d9ac5	0.07413836508713263
114	0xbfaf9e5d9c224644	-0.06175510912829599
115	0x3fa6f51a95e65473	0.044838743971163185
116	0x3fa7a63b68dde2f9	0.04619012503730419
117	0x3f88b6265d995525	0.012066173297322689
118	0x3fbca9925f404b77	0.11196245980708662
119	0x3fb6592c8a29f7a8	0.08729818699973058
120	0x3fa6f00d6d4cd6ef	0.04480020484190372
121	0xbfa65cb83c266fa6	-0.04367614492659237
122	0xbfaae519411e8632	-0.05252913398659266
123	0xbfb50caba44a7ded	-0.08222458611498214
124	0x3fa94b621faebbce	0.04940325390577237
125	0xbf7884e95bb3fd53	-0.005986129336860674
126	0xbf93f4f84a42e97e	-0.019489173443369527
127	0x3fb921dcc5f6cffe	0.09817294915302452
128	0xbf93aaa3785dd467	-0.01920562193068456
129	0x3fb60411d7aee155	0.08599959865285219
130	0x3fa525dd21b945bb	0.04130450283686168
131	0x3f9f3f0f6012c40f	0.03051399253735459
132	0x3f4614eda7a67444	0.0006738815712200659
133	0xbf71828864e06fd5	-0.004274876393562684
134	0xbfac2d058aa07f72	-0.055030987903818565
135	0xbf8be4d7f375c6ec	-0.013620078198730089
136	0xbfbf2b41c8b0e8ac	-0.12175379895862432
137	0xbf8803bc2cfc11ef	-0.011725874064276246
138	0xbf8a850fdf2f828d	-0.012949108122428466
139	0x3f8af4b7f896f19a	0.013162076257565759
140	0x3fba4d3b157a671f	0.10274094843262248
141	0xbfa916c9564f18e3	-0.04900197199417435
142	0xbfa0b4698a738832	-0.032626436377328
143	0xbfac9af2ec8f2785	-0.055869666458945345
144	0xbfa8c24c31afdab8	-0.04835737329988404
145	0xbfc62ebeaaa658ab	-0.17330153782376576
146	0x3f8e6253c9eab634	0.014835981940758726
147	0xbfc48197a7a11bfe	-0.16020484623933834
148	0xbfb9e556f15f0764	-0.10115569489337656
149	0x3fa991baaef96917	0.04993995080868013
150	0x3fbc988678d4ae46	0.11170235109300916
151	0x3fac535c08be78dc	0.05532348257769268
152	0xbf9a13d1e90d3467	-0.025466232156123782
153	0x3fb8b33b2e6cf528	0.09648485072553525
154	0x3f6156c59e1b0fb3	0.0021165713995702994
155	0x3fb70cfd34d22322	0.09004194774219035
156	0x3fb8cb4c04e38774	0.09685206527094953
157	0xbfa7a5d3c5b0dbde	-0.04618703640192455
158	0x3f546e992f668c83	0.0012470718334973991
159	0x3faa9ca9d6c824a2	0.051976497143251935
160	0xbf9e935b4eaa6501	-0.0298589960826563
161	0x3f7e294d37425eb8	0.007363607048453673
162	0xbfb2523695b66ad3	-0.07156697421161633
163	0x3f8e3cff5a9d447e	0.014764780953244957
164	0xbf84d39d83590dc4	-0.010169249125403186
165	0x3fab3b5841d1b27b	0.05318713954406903
166	0x3fb44c9efd086748	0.07929414441642024
167	0xbfa730d33acc1858	-0.04529438107242417
168	0x3f4a514239687ac9	0.000803143821773344
169	0x3f90560bbc51ad3f	0.015953238839228275
170	0xbf6f8e3d0375d1e2	-0.0038520042104954614
171	0xbfa0f67befdfdb70	-0.03313052466540156
172	0x3fa7ec42cd1e43ef	0.04672440294155666
173	0xbfb2a545086a2714	-0.07283431487499242
174	0x3fb23b8d324aadeb	0.0712211845190535
175	0x3fa5d7f96ceb185e	0.042663378282256956
176	0x3fbcbae4959fef9d	0.11222675946186063
177	0xbfbef7d807dd7f7e	-0.12096929733297476
178	0x3f9370115b828e9c	0.01898219224007268
179	0xbfa051867ca35408	-0.031871988978004195
180	0xbfba7a4d2cb3e48c	-0.10342867223143254
181	0xbf9c37a0f9d524de	-0.027555957077571296
182	0x3f7b8567c2ca78f3	0.006719022098563554
183	0x3fa3649e0bcaf519	0.03787702459292514
184	0xbfc128346bca48e7	-0.13403945220176824
185	0xbfb4b756ff9dda2c	-0.08092254391326809
186	0x3f7c2c23f9d5b5db	0.006878033190657241
187	0x3fa1e27d9e2fd0fa	0.03493111186972615
188	0xbfb61a31a2a6cdcc	-0.08633718701349052
189	0xbfab24a74e8d00bd	-0.053014019335479536
190	0xbf95aac7d97dc085	-0.021159289025888945
191	0x3fbf00eb8e07ab64	0.12110779016044898
192	0x3faae42cefb77182	0.05252209116199237
193	0xbfa4417970c7a306	-0.039562029854840516
194	0xbf6cf83eec9c747a	-0.0035363415708063424
195	0x3fb86cb9f7ae763a	0.09540903374587453
196	0x3fa86130ff5ed9f3	0.04761651151004633
197	0xbfb025204d0eb61c	-0.06306650048528478
198	0xbf8c31e1e9627375	-0.0137670182560272
199	0xbfa115b79a6d398a	-0.03336881408778243
200	0x3f9a690373254ce0	0.025791219618736316
201	0x3fbb4973bd341e96	0.10658954018810571
202	0xbfb07c11c71b0cf7	-0.06439314948061169
203	0x3fb5804d852ce24d	0.08398899556494506
204	0xbfad53b81d6b2b84	-0.057279351798192685
205	0x3fad950742d1b8ca	0.05777762118019465
206	0xbfc6cdaa54376888	-0.17815140831118392
207	0x3fc26cd32e719bf2	0.1439460732246683
208	0xbf8146f2277fe732	-0.008436099844391618
209	0xbfa80c174b9591c7	-0.04696724698695536
210	0xbf7801fdc538e142	-0.005861274042722466
211	0x3fb1f222e3067112	0.07010095636946215
212	0xbf90f8f4370b3352	-0.01657468400917434
213	0x3fc365012d3a1a14	0.15151991566035916
214	0xbf9c98bad1bb533a	-0.027926367808350984
215	0x3f8922bb63a2bd4b	0.012273277261867796
216	0xbf95841938bfb7f3	-0.02101172837131311
217	0xbf6ceb66fbfb3f6d	-0.003530217305389208
218	0xbfc14fcf4ad00e1b	-0.1352480998321973
219	0xbf7dee2c5c8346bf	-0.0073072178713162175
220	0x3f7bd458edf67c0a	0.006794307118439322
221	0xbfb9c0768e185b8e	-0.10059300393218804
222	0xbfa233b7254bfade	-0.03555080728800929
223	0xbfa8a7e67c9febd9	-0.048155977929091605
224	0x3fb2cc805186f93d	0.07343294134532115
225	0xbf680faee814b443	-0.002937165846239627
226	0xbfa3d7a9d518d3ed	-0.03875475622445621
227	0x3f819ee7cc5b42a8	0.008603869365658781
228	0xbf9817641f0796b4	-0.023526729959391715
229	0x3fb461ac409701a6	0.07961536957646462
230	0x3fa3c831a82fae23	0.03863673379950352
231	0xbf8003dba29b11eb	-0.007819858455499115
232	0x3fa5ab0ddaf95a40	0.042320664386967355
233	0x3fb9924089a0dd8f	0.09988787994449509
234	0xbf9ee30d5ed632a2	-0.03016301051461546
235	0xbf9b2cec7edc4fca	-0.0265385582379876
236	0x3fa244b1eba81adc	0.03568035127323352
237	0x3f94e07dab357787	0.020387614798316214
238	0x3fb3f6b44c30c600	0.07798315868492267
239	0x3f9db07472918676	0.02899343442221044
240	0xbf904d03850ad1e7	-0.015918784137015776
241	0xbf7b9532c5cdd1ff	-0.006734083491086284
242	0xbf83e6a4b078d7e7	-0.009717260966777231
243	0xbfa1b870fca22127	-0.034610300864246483
244	0x3fa4585368204944	0.03973637243338371
245	0x3fa6d5819684f579	0.044597673057505234
246	0xbf9078e9e84f50b9	-0.016086249164644715
247	0x3fa2cf520de9ce59	0.036737980078126405
248	0x3f971c1f7185dce2	0.022568217567337075
249	0x3fa91c54293d5559	0.04904425624287496
250	0x3f7b0de42aad367c	0.00660504462832778
251	0xbfb15ddcaceb04f5	-0.06783847066528266
252	0xbf8c887cf3d57b24	-0.013932205382557301
253	0x3fa55613b17b0c61	0.04167233983528074
254	0x3fa5b94130db8b78	0.042429005827009314
255	0xbfacf569f2cbfd25	-0.05655985916927823

arr_0 f8 [32, 2, 4, 4]
0	0xbfced5d2e21d1d20	-0.24090038338383923
1	0xbfa091c27fdd9102	-0.032362058743077085
2	0xbfd9861a0e0a8ddc	-0.3988099228974684
3	0x3fa2e5d69e3134d2	0.03690977746064451
4	0xbfddb1e720efa0e8	-0.4639833280221084
5	0xbfdeea1b3910a446	-0.4830387170100646
6	0xbfc837d85a6d390f	-0.1892042581116091
7	0xbfb80aa164ab02b6	-0.09391220767703143
8	0x3fb94f19a479c103	0.09886322274701702
9	0xbfdcb5475781224c	-0.44856437249521686
10	0x3fbd91f75223a0ec	0.11550851588583883
11	0x3fd2fe72087860fa	0.29678011729403375
12	0xbfd69bef91c1b566	-0.35326756700563633
13	0x3f9bc4a05d50da8a	0.027117257781549976
14	0xbfe2fbfc8efcc689	-0.5932600777361624
15	0x3fd32172f05506a0	0.29891656370100783
16	0xbfe40309559aee44	-0.6253706619240309
17	0xbfe5b40cdf93eab5	-0.6782287947420033
18	0x3fe334a249e5e119	0.6001750415153168
19	0xbfe87e4c63ac3e31	-0.7654172846541255
20	0x3fd54d8e8a2271d3	0.33285869111730654
21	0x3fe397fded8c0903	0.612303699454316
22	0x3fd97a20f4cf3c2e	0.3980791464536563
23	0xbfedc557bd031f4c	-0.9303396884579143
24	0x3fdc012734e1237e	0.43757038272865845
25	0x3fc6e0480bb6abbb	0.1787195260233981
26	0xbfe2ba9f0a3c62d8	-0.5852809142989726
27	0xbfe8c164fe97cfe7	-0.7736077282447668
28	0xbfe6f9b3f74727c6	-0.7179813222548936
29	0xbfe250dfd8b4de81	-0.5723723633336278
30	0x3fd973fae51e97ef	0.39770386099769345
31	0xbfdf347ca4ea50ae	-0.4875785456181444
32	0xbfe196075b58a817	-0.5495640548808777
33	0x3fc2388872e38ff1	0.14235025033769902
34	0x3f9b316549bfb2bb	0.026555616976042567
35	0xbfdca233ea285dd5	-0.4474000727363692
36	0x3fd578207472297e	0.33545695659326913
37	0x3fd84386f37cd961	0.37912153032393375
38	0x3fe1be70d450e9ed	0.5544971606062156
39	0x3fab40007950572e	0.05322267037278859
40	0xbfe749cc23bcf49c	-0.7277584741601859
41	0xbfe2d6c45cab90f3	-0.58871667956967
42	0xbfe274f9e4417fb8	-0.5767793138620538
43	0x3fc7d704ab167af2	0.18624933580300468
44	0xbfdc6a44f7acbc40	-0.4439861696909624
45	0xbfc5669dcbe1ecaa	-0.167194103767405
46	0xbfdde9b7427f49cd	-0.4673898839365876
47	0x3fc455c1c8ea3ed9	0.15886709509185584
48	0x3fac3988f88b24f3	0.055126457538401306
49	0xbfddb48d3e50532a	-0.4641450031788731
50	0x3fb16d4512d5364a	0.06807357511316883
51	0x3fd174e5a181c364	0.2727598263946247
52	0xbfec9f3ec75f7b74	-0.894439114952418
53	0xbff12184e4efd964	-1.0706833784912186
54	0xbff1d78854001c9f	-1.1151202470080432
55	0xbfe4abe3c1c59175	-0.6459826264004237
56	0x3fdf07e5ee606b06	0.4848570659539039
57	0x3fe01a951841c4ad	0.503244922043583
58	0x3fd95615f02db18b	0.3958792539113111
59	0x3fb248b118bc7078	0.07142168859394527
60	0xbfd11333f1078f26	-0.2667970517925248
61	0xbfd4ba981ae1e490	-0.3238888037227037
62	0xbfde98ad8775e7bb	-0.47806871632166875
63	0x3fd6b70c8d519be8	0.3549224262300741
64	0xbfe0ef132e9b7827	-0.5291839514063711
65	0xbfe7d78d1bbc7321	-0.7450624028893779
66	0xbfcb63b07068c50c	-0.21397977341397512
67	0x3fd9bfc40d62cbf5	0.4023294573518677
68	0xbfa344cba6c9b04c	-0.03763424311623051
69	0xbfee1aa3759f472a	-0.9407517716701694
70	0x3fbf09b512416450	0.12124187179269197
71	0x3fd6c586d96c548a	0.3558060763619514
72	0x3f78ab5a82da01f9	0.006022790488373613
73	0xbfebfe7957f1951c	-0.8748137204790143
74	0x3fd3d983727c6004	0.31015096836335965
75	0xbfc17b2b22783322	-0.1365713041599515
76	0xbf80f6b0fb5f7680	-0.008283026381771252
77	0xbfeb1589ac285a20	-0.8463791239217393
78	0x3fc0ee95b49403f1	0.13228102986616322
79	0x3fd964b0370629fe	0.3967705285400881
80	0x3fce86faecdf88fe	0.23849426809380952
81	0x3fe7648b549773ef	0.7310234691791474
82	0xbfc873ece8139a63	-0.19103776294578542
83	0xbfe19946feb4a1df	-0.5499606108397151
84	0xbfe18a199e934a03	-0.548107919423558
85	0x3fdefe7328ad5f50	0.48428038570772447
86	0xbfd58e90a5378b13	-0.33682647833318063
87	0xbfd654d904dce049	-0.34892869448549796
88	0xbfe46f8b5da5d3ca	-0.6386162594850415
89	0x3fe0b4ebf88b5a71	0.5220851759321034
90	0xbfe1f0176804130b	-0.5605580359993793
91	0xbfdef88f59e43ba6	-0.4839208963248275
92	0x3fd459cf7d792872	0.31798159840821605
93	0x3fe32926bb087273	0.5987733510006151
94	0xbfd6c24bc5ba5203	-0.35560888585430933
95	0xbfe4126e6998e105	-0.627249914402484
96	0x3fe19b7709de5fdf	0.5502276604411199
97	0xbfe82b0639ac33b3	-0.7552519918841568
98	0x3f813976ac24519a	0.008410384300568553
99	0xbfd585a636c52141	-0.3362823042739543
100	0x3fb881836fb9043f	0.09572621801000113
101	0x3fdd920041f528f0	0.4620361942403539
102	0xbfde225e4cd174b6	-0.47084767820144735
103	0xbfe0fa6f134d6a7d	-0.5305705430030937
104	0x3fe05b9906f3fbbc	0.5111813674737884
105	0x3fd2e5fc0ce18a26	0.29528714425956293
106	0x3fd0cd91c9097b39	0.26254696495555013
107	0x3fd03438b4c91cb5	0.2531873479351348
108	0xbfe2f00f630566ea	-0.5918042119985476
109	0x3fb79f9d1906c6b5	0.09227926121709625
110	0xbfd1750ef6b27c1d	-0.27276968089603476
111	0xbfdacf9eb16cba56	-0.41892211271889346
112	0x3fd8485520deeee2	0.37941482744257204
113	0xbfc071f5dbe32915	-0.12847779499708936
114	0xbfd7611de394374b	-0.365302536244475
115	0xbfe0c4d8704c57cf	-0.524028987247897
116	0x3fbe9650c2d4d7af	0.11948113209368104
117	0x3fc2aed134963436	0.14595999782287244
118	0x3fd5e33b87038bb0	0.3419941729063636
119	0xbfc6d25951fc5df6	-0.17829433921063725
120	0xbfe5bd19ecd2c78e	-0.6793336511093331
121	0xbfebeb5d777915a7	-0.8724810918289919
122	0xbfe2b25c56cace09	-0.5842725463066368
123	0x3fc57be80f5e7c85	0.16784382582133986
124	0xbfd58520188a6a4c	-0.3362503280310747
125	0xbfe09f6ea6fb430f	-0.5194619428021684
126	0x3fc504f2267e329e	0.16421343688525253
127	0xbfd6e334a184219c	-0.3576175286584886
128	0xbfe2f03a297232d8	-0.5918246087545311
129	0xbfa5eb8b9167dd28	-0.042812692165109134
130	0x3fd7332f0118474e	0.36249899966161514
131	0xbfe8f8e2ff81685b	-0.7803816786138315
132	0xbfca48477adeeb99	-0.20533078670072483
133	0xbfb1288e303a779d	-0.06702507665110465
134	0xbfe72ae809e438af	-0.7239875977700388
135	0xbfbc59850765152a	-0.11074096136606629
136	0xbfd161f5c3ee47eb	-0.2716040051828929
137	0xbfe47db1ab60c82c	-0.6403435084560036
138	0x3fd27f47178c3ad3	0.2890184144934384
139	0xbfd307c42cf4f8d1	-0.2973490180046499
140	0x3fd9ea20c27e61eb	0.40491503709338755
141	0x3fd89bf94e2f3461	0.38451988825983646
142	0x3fe5ee70b09a421e	0.6853564690846417
143	0x3fe3ad5d6622be6c	0.6149127001608128
144	0xbfc2448ca7e3c398	-0.14271696279277246
145	0x3fd6e8f338bf79d7	0.35796814481537126
146	0xbfc0b40ac8f556ad	-0.13049444973392124
147	0x3fe24fa8e1bc1477	0.5722240837936984
148	0xbfd48ef7220151d6	-0.32122591324630656
149	0x3fb2bb95a5b5302b	0.0731748132286049
150	0x3fdc204e2a302337	0.43947176093984147
151	0xbfabd895e7cd9675	-0.05438679175021558
152	0xbfdac0a64275671d	-0.41800838937852963
153	0x3fe5eaef946fe16b	0.6849286936913307
154	0x3fa66f098471e8ac	0.04381589643249248
155	0xbfd9b6079de282be	-0.4017352144092391
156	0xbff0167c9dc9171c	-1.0054899371620598
157	0xbfda2046354e8f84	-0.4082198639464354
158	0xbfec841b9da15474	-0.8911264494623894
159	0xbfe8c6650ef08304	-0.7742181102549641
160	0xbfd138cd41528676	-0.26909190539490824
161	0x3fde6fdc998b4cc1	0.47557749743027605
162	0x3fdee96de177c849	0.48299738901471706
163	0x3fe1b355f23a8c73	0.5531415682820707
164	0xbfd63318e8526a9c	-0.346868731381315
165	0xbfddefc3b2cb2969	-0.46775906048119126
166	0xbfb46a06269d7bad	-0.07974279825928816
167	0xbfde36802e1e617b	-0.4720764589669881
168	0x3fe09b6d3cb81b83	0.5189729867860112
169	0x3fc731abc27b4e5e	0.18120333667922045
170	0x3f5dbc99cec65eb8	0.0018149854687176514
171	0x3fdd84b09edccb05	0.4612237502471291
172	0xbfd1db3f7f6dd4b7	-0.2790068382667629
173	0xbfc6b71bb6c69ddf	-0.1774630205593288
174	0xbfd4f22537474065	-0.32727938078187996
175	0xbfd2f6ccf9e1a8c8	-0.29631351854790156
176	0xbfd4589d9e2f9e2a	-0.3179086727891184
177	0xbfe55dad1d0ca123	-0.6676850859994697
178	0xbfebdce20da5b502	-0.8707132593678184
179	0xbfe96517a70f47e6	-0.7935903799900614
180	0xbfda2647e8fe0bb5	-0.4085864806476665
181	0x3fa5089d1ad2c4e6	0.04108134224350994
182	0xbfd958bd1f0893c0	-0.3960411837636535
183	0xbfc865a5c3ef3589	-0.19060203616247076
184	0x3fe36ef4cf8bcd5f	0.6072944692263426
185	0x3fd3d1af82ab27c4	0.30967319260218695
186	0x3fe04b5f8f0b13d9	0.5092008394063853
187	0x3fdecf1576613f9d	0.4813893943837629
188	0xbfe1029b960355d1	-0.5315683298055608
189	0xbfea059bec54c92e	-0.813184701523175
190	0xbfd11af189b372d9	-0.2672695011840865
191	0xbfe31e85fe74a6a9	-0.5974760026776568
192	0xbf6fce871f5ad855	-0.0038826598273216475
193	0x3fbb15d608e17623	0.1058019420319956
194	0xbfd33005c6dc97b7	-0.2998060647972766
195	0x3fb2e73ec3f7d1ed	0.07384102138878008
196	0x3feae60096e871da	0.8405764529630304
197	0x3fe0d0edf6cb5c8b	0.5255040950968505
198	0x3fe6b91753c2e3ab	0.7100941310846925
199	0x3fc1cd40621966c6	0.1390762785911674
200	0xbfcb671054734a7d	-0.214082757220769
201	0xbfa9faee74b1250d	-0.0507425801702742
202	0xbfc92e16601b1f15	-0.19671897595093726
203	0xbfced07a7d270fed	-0.24073725806203985
204	0xbfe20f9c33864aea	-0.5644055372561898
205	0xbfe496d3b4d0213d	-0.6434114963058516
206	0xbfeea7b2410d8820	-0.9579707403720512
207	0xbfdf968142ed5cf9	-0.4935610917650162
208	0xbfe20294eac4f6a9	-0.5628151498164772
209	0xbfdc5bc06f456008	-0.4431000792151285
210	0x3fe68bf3a28cb4e6	0.704583947639233
211	0xbfe95361fb0f2353	-0.7914285567759215
212	0xbfec021ecd8d1377	-0.8752588286084649
213	0xbff1503c469228e5	-1.0820887333562095
214	0xbfee1fb90847afb3	-0.9413724099845154
215	0xbfe328f222e1a774	-0.59874827206407
216	0xbfcba7f178fec9ae	-0.21606272132846754
217	0xbfc626323082e9c8	-0.17304065102309907
218	0x3fd4f1c0dd398571	0.3272554550549876
219	0xbfcd6280cf208880	-0.22956857789637652
220	0x3fdc619173560635	0.4434550882652702
221	0x3fe4b32e4163fca1	0.646872642246212
222	0x3fdcc872b28be348	0.4497343772523448
223	0x3fe1c6b78c6fada5	0.5555074446578386
224	0x3fd2801383f19ada	0.28906715283521367
225	0x3fdf362119034ec6	0.4876787895457081
226	0xbfe04638341e479b	-0.508571721833721
227	0xbfe24d00ab0941d3	-0.571899732642175
228	0x3fdf26751eb69fb4	0.4867222595153138
229	0x3fd0027aa1722edf	0.25015130773748057
230	0xbfc6425b8e4dd851	-0.17390007446710112
231	0xbfe37eac766a5117	-0.6092130959318948
232	0x3fccb18d5c6434da	0.22416846286106457
233	0xbfd558de59b88c96	-0.33354910623365563
234	0xbfe91d2439a81e34	-0.7848073125941881
235	0xbfc6feee9ae656f0	-0.17965490878548662
236	0x3fd2f83bb2ff5780	0.2964009521505133
237	0xbfe56073dfcd0eff	-0.6680240031350592
238	0x3fd4bd0e1277e147	0.3240389995912846
239	0x3fd20fbd4d8f507b	0.2822106606884131
240	0x3fca5aa8f0b77b47	0.20589172128435448
241	0xbfc5195698fe2e73	-0.1648357626948954
242	0x3fa73938ce613cd9	0.04535844344410984
243	0x3fe1ecfc394e4278	0.5601788634540545
244	0xbfdd761995bdf05b	-0.4603332483600348
245	0xbfd7f907b7b76cee	-0.37457459393563297
246	0xbfe9c2272c8b005b	-0.8049503202419247
247	0x3fe65f1281f16fd5	0.6991055047942561
248	0xbfd4edc0d0bcf9d1	-0.32701130280102314
249	0xbfcf43c5b02db48a	-0.2442557440039404
250	0x3fe386f44f06d2ff	0.610223917340221
251	0xbfe1461628057586	-0.5398054868380064
252	0xbfe62bd99729824d	-0.6928527786622652
253	0x3fe76a161ba5f841	0.7316999950414883
254	0xbfce67cf37b3f75c	-0.2375430128085395
255	0xbfe14a0041a687ee	-0.540283325408607

arr_3 f8 [36]
0	0xbfc04bb409c8fd6e	-0.12731028058804433
1	0xbfce342bfad68517	-0.2359671568674819
2	0xbfc476ba32368f5f	-0.15987327052891495
3	0x3fc249f6c7c4b426	0.14288220171275262
4	0x3fca84b8c9d1a767	0.20717534880105434
5	0x3fc2ec7e71d20314	0.1478422218097185
6	0xbfc39416bf397e86	-0.1529568132127574
7	0xbfcd833677531d64	-0.23056679560088889
8	0xbfc3041215018bfb	-0.14856172586141256
9	0xbfd391bc295d6e8a	-0.30576995887324954
10	0xbfc43f7a5170d92a	-0.15818718887903432
11	0x3f9c26a96752faba	0.027491232806591916
12	0x3fd5821fe3edd69e	0.33606717356392746
13	0x3fead202047e8557	0.8381357276704574
14	0x3fd40aeec00d3433	0.313167274046296
15	0xbf8b5eaf8cdd4cc4	-0.013364192472783983
16	0xbfc5a10628a187c5	-0.1689765642541358
17	0xbfd0f5feaf96c547	-0.26501433513029266
18	0xbfd450bca0189e9a	-0.3174277842940484
19	0xbfc8938e7e1f4589	-0.19200307043369616
20	0x3f9b02c352efec3b	0.02637772744854437
21	0x3fd6e4145297cd2e	0.35767086091728373
22	0x3fea8b003e89ee91	0.8294678899250859
23	0x3fd7a3986381309a	0.36936006276369826
24	0x3f9a46ef481b3fee	0.025661219383266536
25	0xbfcacc63f8031791	-0.2093625031467892
26	0xbfd18b45e993af83	-0.27412555513614495
27	0xbfc591f45efeee2d	-0.16851668013065205
28	0xbfcbf9e425ad390b	-0.2185635742157007
29	0xbfca13d215094268	-0.20372987773091045
30	0x3fc1f25d42e353e9	0.14020887151733
31	0x3fc6a2ff42881f63	0.176849277006336
32	0x3fc50808119b27c7	0.16430760249778428
33	0xbfc32503743c1186	-0.14956706214446686
34	0xbfce438e79e6df7b	-0.23643666221846246
35	0xbfc54c0f22847498	-0.16638364015026208

arr_1 f8 [32]
0	0xbfa7dd18236e6740	-0.046608690571885436
1	0xbfaeddda06e2f6e9	-0.0602863438993902
2	0xbfd0a3b766f049a0	-0.2599924569377894
3	0x3f6fc0cc4d615c0f	0.0038761129645013058
4	0xbfd82b7dca462c0e	-0.37765450242358234
5	0xbfc50cd28c3fbf4c	-0.16445381019684147
6	0xbfdc9ce39cfcec54	-0.4470757515989068
7	0xbfde9933d3e4409d	-0.4781007355932248
8	0xbfeaaff9982f4113	-0.8339813206057748
9	0xbfd90b3fc9b06d11	-0.3913115949269051
10	0xbfd5c9a470aeaa4d	-0.34043227199677945
11	0xbfe68c2d2f3655ef	-0.7046113893617852
12	0xbfb3bc681ba088d3	-0.07709360765923927
13	0xbfb1f0f0d5b227b2	-0.07008271424470428
14	0xbfdccbafe956cba2	-0.44993207728401263
15	0xbfa2191dcf45e4ae	-0.035347873260385895
16	0xbfd63ec2428d8b10	-0.34758049487406684
17	0xbfdf3cf8203ebade	-0.4880962672131498
18	0xbfc3c2cb7155b1cd	-0.15438216241763172
19	0x3fd4a9c0b7c337ff	0.3228608889156703
20	0xbfc24f287205edd8	-0.1430407101396287
21	0x3fd75003c2dcc1df	0.3642587092354272
22	0xbfd23565583db6d0	-0.28450902573864045
23	0xbfe524551fde5ed1	-0.6606851217684043
24	0xbff969e2c54d166e	-1.588351031024469
25	0xbfcd38c11b0ec02f	-0.22829450436756946
26	0xbf823805b218a52c	-0.008895916459624141
27	0xbff16270e0f5805f	-1.0865334308109806
28	0xbfea41c8ff25bbeb	-0.8205304129932051
29	0xbfbeee0e12802e6b	-0.12081993056943367
30	0xbfdcf3a781cafc8d	-0.45237147975053277
31	0xbfe83c28a4fdc017	-0.7573435995564094
