results/params_10.npz (npz, 392302 bytes, 4 tensors)

arr_2 f8 [1344, 36]
000000 d6 c6 e9 36 9a 84 a4 bf ac a8 6f da f2 8b 78 3f
       -0.04007417602850942 0.0059928404288972885
000010 0f 2f 78 00 54 2d a8 bf fe 7f 0d c9 1f 3a a3 3f
       -0.04722082620364009 0.03755282716042528
000020 06 0f df aa d2 38 9c 3f b6 44 89 dc 3e 1c ad bf
       0.027560512236745736 -0.05685612146465628
000030 c2 ea 3d 8c e9 b2 61 3f 15 5c 68 a9 ad c7 8c bf
       0.0021605073433737807 -0.014052731258784626
000040 a5 b7 53 d4 2d b9 7c 3f 53 b4 0e 58 67 24 a6 bf
       0.0070125379763633965 -0.043246488093566036
000050 53 8a 12 2c f4 7e 50 bf b6 a6 2b cd ef 85 a2 bf
       -0.0010068306440095445 -0.03617810611269816
000060 8b 88 38 d7 bf 55 ae bf 33 97 73 1b 7d 5e a2 3f
       -0.05924796583373489 0.03587714157201418
000070 bf bd 1d f1 98 dc 99 3f 7a 8a d4 0f 06 3e a7 3f
       0.02525557490974761 0.045395078117754076
000080 92 4a 67 bf 04 2f 92 3f 22 7b 63 29 40 ea 93 3f
       0.017757486517278105 0.01944828274360611
000090 87 8a 89 33 85 46 97 3f 20 7e 95 d4 11 48 5b 3f
       0.02272995116289647 0.0016651319623050068
0000a0 30 b0 13 a7 13 26 91 bf 59 04 d5 37 f1 bf 9c 3f
       -0.01674681384331239 0.028075951607437897
0000b0 ad 89 1a 25 0a 45 8c 3f 14 90 83 1b 53 de 92 3f
       0.013803557641328757 0.018426226190868603
0000c0 2d c1 90 26 63 ed 8e bf aa 2c 14 9d cc 3b 75 bf
       -0.015101217855857907 -0.005183982154686332
0000d0 3e 8a 5a d2 7b 3b 72 3f 04 57 d4 5f f5 b0 a2 bf
       0.004451259306423481 -0.03650633616250157
0000e0 9a 0c 20 9b 1d b4 85 3f 77 87 81 5a c6 17 a0 3f
       0.010597449585480857 0.03143138747033352
0000f0 38 37 c6 98 fc 43 a9 3f cb 72 c3 96 97 92 9a bf
       0.04934682240410243 -0.02594982965171048
000100 af 9c c1 36 2d 68 87 bf 4e 23 14 b5 42 60 99 3f
       -0.011429169877557347 0.02478126745430425
000110 45 88 44 67 21 fe a1 bf e5 77 ca fa f1 08 81 bf
       -0.035141986709519325 -0.008317842927961958
000120 58 c3 f3 e5 18 7c ac bf 32 a4 51 77 35 c8 a3 bf
       -0.05563428694757161 -0.03863684731988605
000130 16 10 ea 72 64 cb 91 bf 3f 9e c5 38 7d f5 a7 bf
       -0.01737744284993433 -0.046794808559579064
000140 12 30 a7 ed ff 73 b1 3f f3 3e 9c 85 5c 2a a4 3f
       0.06817626525952417 0.03938569193826238
000150 b7 51 bb 9f a8 3d a4 3f 5a b5 86 2a 6c 1e a4 3f
       0.03953291845178646 0.03929460543745718
000160 9c d8 9a 21 e4 e7 a1 3f 7b 91 75 68 fc 66 90 bf
       0.03497231397834463 -0.016017860294043267
000170 99 7e 6c b4 20 04 a1 bf 36 45 df 2a ce 7b a3 3f
       -0.03323461725653693 0.038053934796730735
000180 77 c9 71 28 af e9 9f bf d3 a4 15 e7 45 6d 9b 3f
       -0.031164872020278147 0.026784031132966412
000190 a3 11 a1 09 89 4f a2 bf 5a b2 ee 17 e6 95 a1 3f
       -0.03576305620711941 0.03434676210540451
0001a0 63 4a 2a 54 4b 1b 60 bf 78 f0 cf 56 74 5d ad bf
       -0.0019661399140400867 -0.05735362586708076
0001b0 aa f7 f2 b4 d4 87 82 3f 5d dd 55 13 f6 a2 a5 3f
       0.009048139354827917 0.04225892053630773
0001c0 fb 10 c1 56 f9 cf 9a 3f bf 92 67 bc b9 9b 99 bf
       0.026183982772878683 -0.025008108257582814
0001d0 e0 c9 60 74 56 51 99 bf 09 18 9e 82 b5 31 9b 3f
       -0.024724341252474136 0.02655681237913402
0001e0 15 f2 fd 65 29 9b 92 bf 91 6d c1 c4 b9 18 a7 3f
       -0.018170019960495127 0.04511051680375567
0001f0 2e 50 ae e2 66 4c a3 bf 9d b9 8b b4 5b 97 ac bf
       -0.037692275210389745 -0.055842271603853556
000200 bc c8 54 9d 87 35 ab 3f 51 9d b7 06 ba f1 8c bf
       0.05314277453943947 -0.014132932023996377
000210 e7 bd 3b ed 8d 3b 9b 3f 64 16 05 3c 5b aa 6b bf
       0.026594369511199558 -0.0033771306918051625
000220 69 ef cc dd a1 18 a8 3f 20 67 01 13 d2 a5 a7 bf
       0.04706292946363428 -0.046186985797886715
000230 b1 02 ba 6a 92 ef 9c 3f e2 f4 6b e4 14 5e ad 3f
       0.028257644428324628 0.057358410724171596
000240 19 a4 ca 55 8a ff d9 bf ca 9c 88 5e 59 45 b0 3f
       -0.40622194650728854 0.06355818326902632
000250 6e c0 b1 c0 ca 3f df bf db 97 2d 67 73 ec 74 3f
       -0.4882685548573197 0.005108309548495139
000260 25 f9 4d 42 f8 cd 7f 3f 8e 52 dd a2 9d 18 53 3f
       0.007764787446715969 0.0011655368247904005
000270 56 dc e9 44 e9 07 99 3f 99 cd 0c 8e 75 bb a1 3f
       0.024444241362712248 0.03463332518586099
000280 fd b9 52 7a a5 90 b6 3f 37 29 98 39 c4 f3 5e 3f
       0.0881446288719658 0.0018891731509734341
000290 cf 7e 8c a2 7c b5 94 bf 46 32 42 da 4f a1 97 3f
       -0.020223567410652173 0.023076293655821332
0002a0 64 ce 98 a9 d3 08 7c 3f 74 26 f1 03 58 36 a8 3f
       0.006844355398743927 0.047289610367966
0002b0 0f 5e bf 13 b0 fb a1 3f c3 66 1f 9c 0e 68 84 3f
       0.035123350534998925 0.009964098109708336
0002c0 c5 e6 72 54 d7 5f 7c 3f 5f db 69 81 b8 a1 a0 3f
       0.006927338726365033 0.032483831212565255
0002d0 7d 23 ac 56 af 39 a7 3f 54 c8 8f 5a da 7e ae 3f
       0.04536197598469636 0.05956156115998171
0002e0 62 09 43 de f4 dd a9 bf c7 aa ff e6 a6 3c 91 3f
       -0.05052151883275503 0.016832931374589657
0002f0 47 90 8d c9 0e a8 a3 3f d1 0d 34 a1 1c f4 8c 3f
       0.03839155397761878 0.014137481374297519
000300 4e 75 79 fb d7 c5 9e 3f c1 a8 53 23 b0 e2 b0 3f
       0.030051588748724094 0.06595898497076559
000310 29 47 7f ca 79 45 a8 3f 0e 7f 20 f8 67 fd a9 3f
       0.04740505787743949 0.050761460341389605
000320 4f 20 5c df ab c8 9d 3f 51 b8 84 5d 12 c7 a2 3f
       0.029085813052944606 0.03667504684050072
000330 a4 0a 08 ee 07 48 9b bf 35 59 a4 90 56 d1 a6 3f
       -0.026641963866505095 0.044565873295299964
000340 c0 4d 28 44 83 e9 b0 3f 66 40 4f 9d b9 92 54 3f
       0.06606312192916786 0.001255685104514037
000350 b6 c9 5f c6 61 cd 9c 3f 9d 4a 42 cb f0 d0 6f bf
       0.028127219898985444 -0.0038838103301455777
000360 07 83 94 04 18 80 a6 3f 0e 59 ac 77 8c ce e1 bf
       0.04394602828893395 -0.556463464485917
000370 03 4d f1 b2 0c 12 a7 3f e7 d7 46 af f2 de e3 bf
       0.04505958256108935 -0.6209653304456396
000380 af 48 bb 62 13 7f 9c 3f 01 3e 30 c4 78 e0 9a 3f
       0.02782850542173126 0.026246916746513808
000390 ad a3 8b 99 5e 5d a0 3f 7b eb 55 8f e1 28 9b 3f
       0.03196235298475556 0.026523136495125037
0003a0 a3 09 c2 ea 07 01 af 3f 5d 10 4f f4 fd 8f b3 3f
       0.060554740340211376 0.07641589369365094
0003b0 8f c3 87 c4 eb eb 5c 3f 2f e2 2c 17 5a 1c 95 3f
       0.001765232316867069 0.02061596647692648
0003c0 59 58 d1 a1 97 63 65 3f ff 10 28 70 3f 00 b6 3f
       0.002610965877958765 0.08594128120609311
0003d0 e7 45 fc c4 29 85 a5 3f 9f b1 21 b8 bf fe ae 3f
       0.04203157929999773 0.06053732989025495
0003e0 99 3c 1f 07 68 d0 98 3f 53 88 61 66 1d 3d a3 3f
       0.024232507166570192 0.03757564425247097
0003f0 78 6b 3e c7 73 4e ae 3f 34 80 95 f2 f6 58 a2 3f
       0.05919229323554637 0.035834996330550345
000400 a0 d3 c8 0a 0a 79 74 3f e6 9f de 65 34 db a5 bf
       0.004998244502122967 -0.04268802398229336
000410 2f a5 80 a0 33 82 a5 3f 7d 7a 4c 8d 1e f1 a3 3f
       0.04200898489245685 0.03894896960104164
000420 c2 4b 50 a3 06 a7 ac 3f 0c 0e 9e 3f c7 94 97 3f
       0.055961806712864895 0.02302848172941023
000430 ff 72 b0 f0 f3 44 a4 3f e0 b2 38 c2 67 c6 90 3f
       0.039588568812382256 0.016381856183374732
000440 9f b1 fe bd 8c 98 a8 3f 70 bc 18 92 f4 82 79 3f
       0.04803886241220145 0.006228404382951344
000450 28 16 a1 c8 e4 5a 99 bf bd f0 fe 39 ab 04 ac 3f
       -0.02476079439681747 0.054723120526860104
000460 4e 26 08 db 40 b4 98 3f 48 3b b1 75 64 25 a3 3f
       0.024125111931459657 0.03739465653108326
000470 9d 07 8d 3a cd a2 b0 3f 2a 95 3b 12 f5 d6 97 3f
       0.06498415641274709 0.02328093456062167
000480 25 76 62 f7 5d 8f ad 3f 48 e2 08 4e 69 3b ad 3f
       0.057734428833310404 0.057093897605629496
000490 8d 3f a1 c4 42 0a e3 bf a9 f5 c7 41 c0 6f a1 3f
       -0.595002540629126 0.03405571749679421
0004a0 ac 35 8f 71 31 f1 e6 bf 97 b9 5e ce 76 cf 81 3f
       -0.7169425218541412 0.00869648759166068
0004b0 8b d7 f5 c3 41 54 93 3f a3 d6 ee 60 70 7c a8 3f
       0.01887610205218197 0.04782439406646446
0004c0 73 69 b4 01 33 46 b1 3f df 19 5a d7 e8 8b a7 3f
       0.06747740546817287 0.045989300048905106
0004d0 4b 74 94 34 b1 d2 9f 3f 24 ed 8c 56 c8 4a ac 3f
       0.03107716449186552 0.05525804573559359
0004e0 72 b2 1c f4 39 e4 85 bf e4 46 db d6 c1 d2 a7 3f
       -0.010689213525972383 0.04652982471237779
0004f0 00 aa ef 63 5e fa a0 3f d2 b8 0b 72 0d 0a 8f 3f
       0.0331601616852204 0.015155892413045189
000500 75 a4 4f ec 18 c1 a3 3f 81 b7 b8 ff 4a 3f aa 3f
       0.03858259091050168 0.051264136997231986
000510 44 de 2e cc e2 5f a5 3f 4c 80 47 ae c7 84 ad 3f
       0.04174717657536722 0.05765365602906111
000520 0f 4c f9 f6 d5 7f b1 3f 43 31 3a b0 cf 56 a2 3f
       0.06835686950334739 0.03581856752598125
000530 8b d6 5a 4d e8 8c 8b 3f 62 d6 77 d6 a4 4b 9b 3f
       0.013452353344614273 0.02665574606904498
000540 0c fd 94 e8 b3 b6 9e 3f 9f d0 e6 37 ef 2a a8 3f
       0.029993830748250835 0.047202563833168336
000550 e5 2b 2c 38 5d c0 ac 3f 71 58 c9 1b b3 1d a6 3f
       0.056155121905326934 0.04319534029188866
000560 63 83 40 17 d0 a1 8c 3f 9e ee 76 fe 77 50 a1 3f
       0.013980508527369378 0.033817052662439936
000570 86 c6 56 27 19 fd 92 3f eb 6b 8e cb 03 7a a4 bf
       0.018543618227062207 -0.03999339923685582
000580 77 6f 08 b1 a1 b9 8c 3f 40 06 f5 20 fb cc a5 3f
       0.014025939192883403 0.04257950570400881
000590 cc bc e7 ea fb 02 b1 3f 11 af 90 52 c5 e6 aa 3f
       0.06645178303709826 0.052541891411548865
0005a0 5f ed e4 89 46 49 92 3f c3 db 27 1f ab d6 a9 3f
       0.017857649008175765 0.050465915253816294
0005b0 3c 6d 35 d9 cd e5 9c 3f e0 cc 61 19 7c 92 e4 bf
       0.028220383055083106 -0.6428814407103367
0005c0 47 a2 88 fa 24 d9 90 3f 57 26 e9 ca 1b 7a e7 bf
       0.016453340331425783 -0.7336558306789794
0005d0 d4 5b 3a 3e 41 30 ad 3f e6 14 c2 e6 e5 b8 ab 3f
       0.05700878033274362 0.05414503518935891
0005e0 3c fd d1 9e 7a c9 94 3f a3 c1 82 33 75 23 8b 3f
       0.020299831336612714 0.013251224169238912
0005f0 20 e1 56 0f fb 8c a7 3f 70 af 79 f0 2f e8 ad 3f
       0.04599747240303231 0.05841207323541553
000600 ca 1b cf 4c 96 ef 96 3f 52 95 08 89 9f 41 b1 3f
       0.022398327291536714 0.06740758033318642
000610 cc 31 07 36 a5 af 9e 3f c9 eb 2a b1 c5 fb 9b 3f
       0.029966908857930893 0.02732762235494216
000620 16 9f 71 c2 2b 61 a0 3f a7 d0 27 d6 86 0f 9d 3f
       0.0319913554056354 0.02837954218007668
000630 df 0a 04 1a 33 8b a8 3f 62 41 14 70 ed c9 99 3f
       0.04793700878692219 0.025184354749457134
000640 c0 26 eb ce c1 41 97 3f 1f a4 8a 40 db 4f 97 3f
       0.022711780790621416 0.022765565695099462
000650 52 47 55 78 37 f5 9f 3f 3b ac ea d1 0d 7a a1 3f
       0.031208864898253204 0.034134323000522625
000660 38 f4 c1 93 a4 d8 96 3f 77 23 3e 87 c3 94 8b 3f
       0.022310802000436974 0.013467338146954095
000670 5f 11 17 c0 3a 26 aa 3f 36 f6 0b 13 bd d0 9d 3f
       0.05107291788911782 0.029116586959380984
000680 e0 9a cc ff 2e cd 97 3f 6c b0 32 60 7f a4 87 3f
       0.02324365078234336 0.011544222949247472
000690 4e 31 bb 2c 84 91 91 3f ef f9 07 f8 ff 8a 6e 3f
       0.017156663160492962 0.0037283896820092736
0006a0 de 1c 6d 42 53 e9 a0 3f ca c6 88 84 21 af 90 3f
       0.03303013025156941 0.016293071474314393
0006b0 32 53 31 23 2a 8e a3 3f 69 ed cd d4 59 8d 9e 3f
       0.03819400481794445 0.029836085904645957
0006c0 0d d1 12 30 31 9f b2 3f 93 44 50 27 f5 cf a4 3f
       0.07274157928151599 0.04064909081365289
0006d0 91 08 50 51 d0 d1 9b 3f 0b 9d 48 0a f1 97 80 3f
       0.027167563403061982 0.008102305532772044
0006e0 e5 23 d5 60 29 ea e4 bf 39 57 a8 44 25 67 a2 3f
       -0.6535841838132198 0.03594318831544147
0006f0 32 20 0a 8f d7 eb e4 bf 91 c5 24 33 d1 ef a8 3f
       -0.6537893098584446 0.048704659932251045
000700 3d 54 0b b4 b5 87 96 3f c6 d1 1b 88 f6 c9 99 3f
       0.022002066720990355 0.0251844902586116
000710 1b 42 ee 31 cc 36 a3 3f 3d eb 33 c0 d8 04 9f 3f
       0.037527447791152656 0.030291926127556257
000720 7e 4b 5c 88 52 d3 7a 3f e9 d4 e1 39 54 8c 91 3f
       0.006549188988873021 0.017136875183912634
000730 49 92 95 df 50 f3 95 bf e1 6f 00 76 e5 11 9d 3f
       -0.02143598904275937 0.028388581588032372
000740 93 fe e5 53 4e 9d a2 3f 51 14 ef d7 00 8d a1 3f
       0.03635639928961356 0.03427889476692115
000750 74 40 6a 12 43 01 ac 3f a5 5e ae 72 e0 34 a7 3f
       0.05469712829392473 0.045325292586480694
000760 7e bd 5f 68 ff 7f a2 3f 32 5d 7d a9 c7 df 79 3f
       0.036132794848408686 0.006316928796727782
000770 60 b0 2a 3b b1 7c 8b 3f a5 98 5d c0 9d 4f 8e 3f
       0.013421425455213576 0.014800293381722016
000780 2b 3d fc a1 ca 34 a4 3f c9 0e 9e 4c 02 fc aa 3f
       0.03946526744231912 0.05270392594596058
000790 16 ff c9 63 d6 4e a2 3f 62 94 35 61 cc 03 9a 3f
       0.03575773208740267 0.025405114587006124
0007a0 ae b4 d1 33 a8 5f a0 3f 6d f2 00 83 0e 39 a4 3f
       0.031979805303174444 0.03949780797163247
0007b0 0d 9c bc 8e 8a e9 93 3f 58 4b 5b 7e 89 0f a2 bf
       0.019445576631508078 -0.03527478854598226
0007c0 d7 ab bb 7a 2a ac 8a 3f 52 51 dc 68 92 68 a6 3f
       0.013023692961231887 0.043766570377700945
0007d0 6e e2 91 08 10 9e 90 3f cd b3 ca 09 dc 6d a5 3f
       0.016227961085379432 0.041853786654747795
0007e0 4a b6 2f d6 aa 7f b0 3f 81 d2 95 94 eb 96 a4 3f
       0.06444804886970093 0.040213930023047524
0007f0 0f 54 9e fa 2f b8 a7 3f 59 e9 3a ca af c6 a4 3f
       0.04632711347873208 0.04057835906629021

arr_0 f8 [16, 2, 4, 4]
000000 11 b5 4e fb d3 f6 f8 3f 21 40 d1 0a ef 77 a2 bf
       1.5602607552239685 -0.03607127196357874
000010 f2 f8 65 02 42 6f f8 3f f5 de 69 9e 64 2b a2 bf
       1.5271625608143578 -0.03548731263884789
000020 72 e4 71 d9 50 5d c6 3f 51 5d 31 dd 23 a5 a0 3f
       0.1747227727644574 0.032509918929174327
000030 6b 72 aa 04 e7 97 9b bf bf 49 16 10 ab 7e c0 bf
       -0.026946649226930946 -0.12886560712338554
000040 38 5f b9 95 81 ba 5e 3f 84 0f 60 1b eb 38 78 3f
       0.001875521228518152 0.005913656603301013
000050 9e c2 bf 1b 57 e7 97 bf aa cb 9a 2b 77 c5 8c 3f
       -0.02334343058459131 0.014048510568818024
000060 02 0b f3 d1 d4 0f f7 bf 20 66 fd b0 ac 4f fb bf
       -1.4413650704524916 -1.706951800695954
000070 fe e5 dd ba 84 7b fa bf fc a6 87 cc 52 f8 f8 bf
       -1.655155878017808 -1.5606258382271667
000080 99 2a b9 3d a4 38 fc 3f 74 30 b0 6b 3d 15 d5 bf
       1.7638285075251245 -0.3294213821070635
000090 9b b8 76 3b 7e be f7 3f 19 18 e6 03 0c e0 b6 bf
       1.4840071032336144 -0.08935618491349863
0000a0 54 bf c1 c2 ba 34 c1 3f 06 71 eb 75 3d 6c 9d 3f
       0.1344216776810706 0.02873321563934985
0000b0 9c dc a9 54 03 b0 c9 bf 53 6b b7 fa 69 36 c2 bf
       -0.20068399080239352 -0.1422855829431123
0000c0 0e 20 da c1 fb 71 c4 bf 8a 0d c6 a3 b6 6d d0 bf
       -0.15972849812919815 -0.25669637673873835
0000d0 82 ae d7 0a 6a a8 c8 bf 35 26 b4 8b e2 0c d0 bf
       -0.19263959435862793 -0.25078643458309396
0000e0 01 d3 fd bd 90 a7 ef 3f 45 16 da 31 4c 0d f4 3f
       0.9892047606250288 1.253246493085855
0000f0 b2 27 b0 c0 20 51 f4 3f 60 c7 21 36 00 14 f0 3f
       1.2698066260222558 1.0048830141572225
000100 9c 09 99 d8 c8 b7 c6 bf 06 43 f4 58 92 51 cb 3f
       -0.17748365951599687 0.21342686980690234
000110 39 8a 5f fd 53 aa ee 3f 83 23 d2 9b a6 96 c1 bf
       0.9582920025534981 -0.13740999802055506
000120 b9 fd 66 86 b4 cf c8 3f aa 00 01 ca dd 89 d8 bf
       0.19383865892994637 -0.38341469504303893
000130 40 2e a8 57 07 83 b5 3f e7 f1 4b 85 a7 9c d1 3f
       0.08403058900892635 0.27518642441989843
000140 24 77 a9 8b e6 01 d8 3f b7 34 14 fe 16 a4 dd bf
       0.37511600149979274 -0.4631402474631829
000150 74 61 2a f3 62 f2 9c bf d6 45 8b 9b e8 96 8c bf
       -0.0282683812061761 -0.013959710356547566
000160 d9 3a d5 25 2a 2d c4 bf 62 9d 96 32 a5 88 f5 3f
       -0.15762831542311664 1.3458606697184554
000170 87 1b 4b 04 fe a8 a4 bf bc 8d 85 13 1a 8f cd 3f
       -0.04035180857095271 0.23092962220390045
000180 60 7c ed 5b c8 e7 e5 bf 49 9e 68 d5 cf c7 e0 3f
       -0.6845437808477861 0.5243910949838632
000190 28 c3 e5 46 a9 2f ef 3f 2b 9a 66 3f 52 f0 d6 bf
       0.9745680222241377 -0.3584180468700732
0001a0 9d 22 f2 9a 77 74 f4 bf 3d 0f 2e 2a c5 a5 f2 bf
       -1.2784343769618893 -1.1654712340977789
0001b0 49 91 e8 fe 47 fa ed bf e0 24 4d 31 e6 bc e0 bf
       -0.9368019083672517 -0.5230589831272958
0001c0 ce de 44 13 8d e7 9a bf f7 ba 76 24 9a d3 c1 bf
       -0.026273922253692565 -0.13927008419474138
0001d0 df 77 67 dd d4 27 a8 3f 33 6e d6 55 e6 ca 68 bf
       0.047178890253902976 -0.003026437638892232
0001e0 aa 8d 11 7e fe c5 d2 bf ba d8 5e 2f 38 34 f5 3f
       -0.293334601510845 1.3252488947305623
0001f0 fb 46 70 05 02 dd cf bf 7a 27 a6 06 ca 36 d9 3f
       -0.2489321257167417 0.39396906518287944
000200 24 b1 e5 03 f0 9e f5 3f 67 46 1b 23 65 4b c2 bf
       1.3513031151042663 -0.14292587484537764
000210 04 34 12 bb d1 3d c3 bf 90 d3 ac 64 53 68 d8 3f
       -0.15032407411891324 0.38136753875306173
000220 d0 cf 1b 6b 45 ab ba bf 63 e2 05 9f b7 1f b9 bf
       -0.10417589058835053 -0.0981402171363555
000230 4c 96 a0 c8 3b 36 68 bf 0e b0 8c d3 aa ea a0 3f
       -0.002955548062362456 0.03304036934272868
000240 bf b1 9f 20 2c c0 cd bf 0e 43 ac 6d dc 95 aa bf
       -0.2324271354003837 -0.05192459906368728
000250 6f 86 ee 01 00 d4 b3 3f d1 f0 40 09 df 4d cb 3f
       0.07745361373101799 0.21331394149627284
000260 ed 9a 14 9e e3 15 f8 3f 5c 10 a9 69 41 1b 95 bf
       1.5053440260905362 -0.020611784051894552
000270 10 cc 1c 48 18 e2 c7 bf 32 36 d4 07 48 f7 bb 3f
       -0.18658736725919356 0.10924196425568125
000280 ee 36 ff 64 9d 29 f2 3f 79 1b a4 9c 1f b4 d0 bf
       1.1351598687355664 -0.2609938649842927
000290 81 e8 7b 45 55 79 9e bf cd 79 d1 23 b5 31 d9 3f
       -0.029759724012344172 0.39365890977742596
0002a0 17 98 46 6f 3a 2d c8 bf 15 b1 c5 85 1f 4e c1 bf
       -0.18888025697123176 -0.13519662887427644
0002b0 21 47 c9 3b 2c b6 af bf 45 df 71 33 cd 3a ad 3f
       -0.061936743066907114 0.05708924534786645
0002c0 87 82 bb 34 81 38 da bf 0e e9 08 bd 60 a4 c9 bf
       -0.4096987738576349 -0.20032891493048804
0002d0 ce b0 42 0f ef 54 c0 bf 77 05 49 17 27 3f a1 3f
       -0.12759197468893152 0.033684941856800536
0002e0 63 10 30 87 fb fa f3 3f 23 01 1f 0a d0 d2 c1 3f
       1.2487750321170317 0.13924599165148618
0002f0 7d 8b 1c d4 5f 5c de bf 87 d7 2a a4 e9 21 c8 3f
       -0.4743880816842461 0.18853493228897042
000300 5e 49 89 f3 d7 5a f4 3f e1 40 88 cf b0 15 cd bf
       1.2721786034713527 -0.22722444661531596
000310 1a 3f aa 6b 6c f8 ca bf de 6a 71 e9 51 5d 8f bf
       -0.2107062841137058 -0.015314712463966481
000320 f8 5b e6 62 fb 50 c2 3f 2b 5a 98 d2 08 3f bd bf
       0.14309637383550444 -0.1142430795810944
000330 f0 eb 78 09 cc 66 dc bf 93 5a 79 04 ed a3 e4 bf
       -0.4437742321494502 -0.6450104796775399
000340 da 62 01 89 2d 77 d2 bf 88 25 04 dd f2 7e b5 3f
       -0.28852404002604504 0.08396833320525421
000350 48 62 ea 6e 74 a5 e1 bf 4a 3e ff 36 83 9e a0 3f
       -0.5514471212691854 0.03245935484266889
000360 c2 af 71 a9 d7 a9 df bf 96 43 a7 75 d7 b5 e7 bf
       -0.4947413592078612 -0.740947465698002
000370 b2 ac 48 7b 32 1b f4 bf d0 ea 9d f3 3c 0a e6 3f
       -1.2566399398590815 0.6887497671262626
000380 7f c1 28 18 8b be ed 3f fe cc 06 8f c4 32 dd bf
       0.9295096847400116 -0.45622362105787306
000390 83 33 df 62 ca d9 e1 3f d2 c8 9b c0 69 28 e9 bf
       0.5578357630816843 -0.7861832391629611
0003a0 83 7f 6e 46 26 9f e4 bf ad fd 42 85 b2 77 fd bf
       -0.6444274306886516 -1.8417229848417762
0003b0 ca 7f 0f c7 bd 2c cc 3f 92 b0 07 45 d5 2e e8 3f
       0.2201153966880141 0.7557169292681627
0003c0 89 83 29 f6 1d 0a dc 3f 61 63 38 15 1d 7e e3 bf
       0.43811749495767366 -0.6091447271784142
0003d0 80 2b 3f 60 36 6c de 3f bf fe 37 2e 0c cd dd bf
       0.4753547611150495 -0.46564011109874665
0003e0 c6 f1 d3 b3 b0 1e d8 3f bc 02 3b 6c cd b5 e6 3f
       0.37687318383521207 0.709692679774967
0003f0 79 bf 44 11 73 8d f0 bf ee 50 4a 3e 9a 83 ea 3f
       -1.034533565001736 0.8285647598845836
000400 a8 fb d8 99 73 80 c2 bf 87 ba 82 c0 4e a3 ec 3f
       -0.14454503070916513 0.8949350128148844
000410 e4 b2 ed 79 fa 60 a4 3f 02 46 7e 3a e9 cb df bf
       0.03980238664994376 -0.4968207427237702
000420 c3 26 2e 8e ae c8 e3 bf 24 f5 10 e0 3b 30 ca 3f
       -0.6182472969969343 0.2045969814370575
000430 c9 12 f2 a7 5d 3b ce 3f 4b f0 5f e4 8c 70 ba bf
       0.23618670177906712 -0.103279882197911
000440 cb 35 6b 14 bb 20 d8 3f 9f 3c cb 73 29 8d 93 bf
       0.37699772829077166 -0.019093177502153776
000450 de 63 d4 96 f7 e7 d1 bf 8a 86 f6 74 e6 1b c0 bf
       -0.279783150953845 -0.12585144721110836
000460 61 38 0e bb 24 28 e5 bf f1 b6 47 40 f3 44 cb bf
       -0.661150327055804 -0.21304169310263135
000470 21 a2 3f e5 0b ba a8 bf c8 b0 8c 7c 88 62 ee 3f
       -0.048294421896404545 0.9495279724701726
000480 6e 08 ec 8d a7 81 cf bf 5e c0 65 73 9a 64 d8 3f
       -0.2461442416170629 0.3811403395584473
000490 20 ba cf 04 f8 06 d9 3f 76 2f e7 b2 8d 0d f6 bf
       0.3910503432261141 -1.3783089626694767
0004a0 eb 46 5f f7 98 4d fc bf 40 bb be c7 18 90 c6 bf
       -1.7689447081542606 -0.17627248528648387
0004b0 ae cf c7 7a 9c 69 df 3f 38 e5 b6 09 8f 69 eb bf
       0.49082099905285304 -0.8566355886206685
0004c0 8c 6f ef 52 86 68 e3 3f 0e 25 f7 34 3a 17 db 3f
       0.6065093631582257 0.4232926861992191
0004d0 9d 2b 5a f2 87 90 f0 bf 03 7f 7b e6 34 ff ef bf
       -1.0352858988651186 -0.9999031545266636
0004e0 c1 5e 82 6f 4c f7 c6 3f ed a0 63 db c0 12 f2 bf
       0.17942195362842564 -1.1295784540071125
0004f0 18 e0 6a 88 89 dd ca 3f e8 dd a7 40 56 11 d4 3f
       0.2098857799626337 0.31355816186939345
000500 fb 07 0b d7 36 7a e3 bf c8 5f 53 86 8a ec d6 3f
       -0.6086687278805124 0.3581873237394544
000510 9d ea 9f 84 66 7a d0 3f 5b 83 66 68 39 40 e0 bf
       0.2574707312739209 -0.5078398741789941
000520 58 7e 43 6d 2c 3c 7e 3f 2f 30 ac 6c a5 09 c4 3f
       0.00738160471175283 0.15654437834052845
000530 4f a5 05 62 e7 42 b3 3f b1 25 6d 3d 7c d8 ee bf
       0.07523962157360596 -0.9639264297231219
000540 bc fe de 74 f6 bf da bf f4 68 6e bd e5 7b cb 3f
       -0.41796647465887893 0.2147185492475
000550 17 b8 0c 99 9d f8 ae bf e4 28 32 18 2c 29 f2 bf
       -0.060490536625693085 -1.1350518174318092
000560 0d c8 1f 79 76 da b3 bf 13 bb d4 ec d4 e6 cb 3f
       -0.07755222756512144 0.21798192562115357
000570 58 3c 04 c0 d2 91 ac 3f 64 cf 1e 6d 38 98 ef bf
       0.05580004304840064 -0.9873315936333538
000580 83 33 ff df 61 7f e6 bf ab 44 0b f7 f1 ca ea 3f
       -0.7030496001185472 0.837273581035466
000590 dc 08 91 5c 2f b0 e4 3f d2 41 ad 74 88 09 e5 bf
       0.6465069587650549 -0.6574136999934643
0005a0 26 6b 79 7c 65 17 e3 bf e4 0b 7d d7 6c 3a df 3f
       -0.5966060095919132 0.48794098895831284
0005b0 1c 7b 8f c2 09 7e f7 bf 64 c4 03 69 0e 99 cc 3f
       -1.4682710266130874 0.22342090728446629
0005c0 ce 45 9a f1 fa dc e1 bf d2 09 6a 46 9c 3d f5 bf
       -0.5582251280595132 -1.3275416136317415
0005d0 34 27 14 68 f4 26 d4 3f f2 fa 57 f6 d6 2c e5 3f
       0.3148776070016652 0.6617235957527028
0005e0 f6 a1 4d 6f ec f8 cf bf 4e 71 f3 f8 28 d0 e2 3f
       -0.24978404459694986 0.5879101621936031
0005f0 82 b2 56 d5 6d 93 f7 bf d0 ae 53 c4 19 e5 df 3f
       -1.4734934171239336 0.49835819408938864
000600 8e 36 d6 31 43 00 fe 3f 02 4e 12 eb 70 c3 d3 3f
       1.8750640818356348 0.3088037772770066
000610 8a 5a 26 dc 18 22 c0 bf 2f 28 f8 45 3f 5f d3 bf
       -0.12604056119444734 -0.30268842537828083
000620 1c e1 0d 19 c3 bd de bf 99 7d e8 87 27 4b ab 3f
       -0.4803321594877319 0.05330775770220981
000630 da 0d 45 ac a9 99 a2 3f de 72 e3 9b e9 91 d0 bf
       0.0363286040106023 -0.2589057943676333
000640 81 7e d8 ed 1a 17 b5 bf cd ad 0d 72 a4 f5 a4 3f
       -0.0823838072469645 0.04093660251859497
000650 90 9c 26 e6 c4 fa b3 bf 6b 38 bf 59 8a f1 e1 bf
       -0.07804518336216604 -0.5607349160070617
000660 12 d0 60 db cb eb e9 3f 7c 18 55 eb 22 15 d7 bf
       0.8100337300043086 -0.36066506368332063
000670 8e 44 0b 1d 1d b8 e4 bf 4b 49 03 fd 21 46 7a bf
       -0.6474748198762812 -0.006414540068549644
000680 10 fa 4b 20 e7 c9 f9 3f 93 7e 8a da 5f 5a d3 3f
       1.6117926847069874 0.3023910173596757
000690 31 5c 55 6f 19 de d8 bf 16 a0 27 b1 6b ea cd bf
       -0.38855586883932164 -0.23371645116935785
0006a0 c8 18 c5 e6 e5 d6 db bf ff c4 6b af 61 35 93 3f
       -0.4349913362133404 0.01875832207855854
0006b0 0f e0 17 61 ce ec c9 bf cf 04 70 cd 20 19 de bf
       -0.20253925076372112 -0.470283699629431
0006c0 96 04 14 88 27 a4 ad 3f 34 43 f8 aa f0 b3 b4 bf
       0.05789302383528498 -0.08087066816393645
0006d0 a9 22 a2 ec cf 58 e7 bf cf 2b f3 1b 3d 46 df 3f
       -0.7295913335556935 0.4886620305011861
0006e0 c7 7d 71 7f a3 28 e1 3f 9d 96 de 47 c9 ae eb bf
       0.5362107743384791 -0.8650862125111477
0006f0 73 c9 39 98 b7 69 e0 3f 7b d1 82 7c d3 da e8 3f
       0.512904927554969 0.7767121726852076
000700 6f af 1e 80 19 8b d6 3f 3c fc 03 ad 44 35 e1 bf
       0.3522399665041495 -0.5377524737558654
000710 fb 76 2a 59 2f af d8 bf 37 b2 4c 3a 89 ea de bf
       -0.38569244105916284 -0.4830649442035652
000720 07 83 3a ec 0c ce d7 bf a3 8d 34 35 d1 e8 c6 bf
       -0.3719513232154416 -0.17898001764215818
000730 2d 1b f7 f1 03 98 d2 bf 07 6c 93 61 bf 79 be bf
       -0.29052828435344474 -0.11904522068236655
000740 47 50 ad 4c 63 b9 dc bf 10 2b 5a 40 15 5e d5 bf
       -0.44881517875660787 -0.33386737141033596
000750 d1 14 40 15 88 57 dd bf 47 3c 24 1f 72 94 d5 3f
       -0.45846750331140834 0.3371854118458412
000760 61 21 b3 25 74 33 d7 3f cc 9f f4 f1 92 52 ea bf
       0.3625154846345336 -0.822579834527454
000770 99 d2 e4 ba 82 58 d2 3f 6c 14 27 40 e4 90 e3 bf
       0.286652262223734 -0.6114369633657026
000780 61 48 88 d2 a0 05 ea 3f 59 81 17 31 6d 3b f4 bf
       0.8131870376548812 -1.2645084302567595
000790 35 49 45 fa 1e 98 e3 3f 31 c3 17 e7 95 d3 da 3f
       0.6123194587801551 0.4191641575589982
0007a0 cf 59 b7 bc 10 03 ca 3f 70 a1 31 e5 c0 67 e1 3f
       0.20321854796084302 0.5439152218287244
0007b0 61 b5 db 7e d3 9b f8 bf a6 9b 0c 75 c9 b3 e2 3f
       -1.538043494739519 0.5844466482275166
0007c0 64 5c b2 c4 a6 b8 ef bf 79 c8 5f c3 8a 7b e1 3f
       -0.9912904588444573 0.5463308158780499
0007d0 c0 19 51 b1 5d 28 b8 3f 8c 04 88 c5 91 0a bd 3f
       0.09436593607924859 0.11344252655546166
0007e0 09 af 97 80 89 5b f0 3f 70 3f 5d 72 1e 29 e6 bf
       1.0223479293007947 -0.6925194009472602
0007f0 65 44 d5 cd 43 d2 ea 3f 14 51 14 df a1 41 ca bf
       0.8381670971085781 -0.20512793915316563

arr_3 f8 [36]
000000 4a 36 78 c5 5a bd d5 3f 79 3d 5d 63 5f 7e e0 bf
       0.3396822861112453 -0.5154263439853103
000010 6b 3d 84 ca 6c 8e da bf 09 99 10 bf 28 c6 ba bf
       -0.41494293000228905 -0.10458616890591456
000020 38 f9 9d 30 4e 23 d2 3f 4a fa 13 cb 88 e3 c4 bf
       0.2834048723961078 -0.16319379726333444
000030 9d d7 ac 47 ee 61 e2 bf ed 6d 6d 9d c5 9a e2 bf
       -0.5744544410615507 -0.5813930582766581
000040 09 4a 7c d5 ae bd d2 3f 53 cc c6 36 77 9a e9 bf
       0.29282732818788354 -0.8001056737761111
000050 21 ce 07 24 8c a8 d3 bf 19 b8 ce 1e 17 59 a8 bf
       -0.307162318407082 -0.0475547051531608
000060 c7 1f a6 5e 70 69 ed 3f b1 38 1c d0 e0 e3 00 40
       0.9191209648715749 2.1112686403858665
000070 fd 1a 43 40 90 2c ee 3f a0 66 66 69 e8 aa 9f bf
       0.942939877998327 -0.030925399239640883
000080 a9 2a db 7d f1 9f d4 bf 3e c2 67 78 c1 12 eb bf
       -0.3222621659339589 -0.8460395194688954
000090 51 45 3d 7f b7 14 ea bf 25 57 0c da f4 8b d5 bf
       -0.8150289044516886 -0.3366672639252662
0000a0 bf 6f 35 4c cc 8b 90 3f 08 23 f1 ad 4b be ed 3f
       0.016158287192737705 0.9294794461539775
0000b0 3a 93 4b bb df e9 00 40 56 e4 e5 74 83 40 ed 3f
       2.114196265453214 0.9141251834072459
0000c0 78 04 9c a8 e0 68 aa bf 69 50 3b 8d e3 56 d6 bf
       -0.051581402380187436 -0.3490532759872225
0000d0 fb bf 8e 8b 76 02 eb bf 17 f5 9b de 7d 52 d3 3f
       -0.8440506673559861 0.3019098924558689
0000e0 04 7a 87 90 09 87 e2 bf 5d d6 db b0 c5 72 e2 bf
       -0.5789840529285475 -0.5765102819702396
0000f0 85 fe 6c 00 78 af cb bf a6 e6 10 ff 97 cd d0 3f
       -0.21629238148488042 0.26254844578543624
000100 5d 61 38 db 79 6f c9 bf a2 d4 b2 b3 8b a6 de bf
       -0.19871447757828778 -0.4789151434773179
000110 53 a5 41 23 83 4d e3 bf 2e cc 72 0b ce 14 d5 3f
       -0.6032119454004409 0.3293948280144744

arr_1 f8 [16]
000000 0b 98 c8 81 c8 ee f9 bf f9 22 d2 0a b2 0a cf bf
       -1.6207966870947554 -0.24251390007363918
000010 36 a3 80 90 c4 8c c3 bf 7b 02 df bd 8d 43 db bf
       -0.15273339324746765 -0.42599814931967445
000020 8b 2a 27 2a e0 ee c1 bf 9f e0 a4 b4 8f 88 d2 bf
       -0.14010240610362631 -0.28958504334469554
000030 15 f8 4c 79 f6 c1 df bf 84 ad 40 a0 87 e7 da bf
       -0.49621354909675236 -0.4203814568488371
000040 c4 2f fa 36 f7 f1 7e bf a6 18 af ca 67 0b e7 bf
       -0.0075549752069825095 -0.7201422651931082
000050 a9 4c 4d 7f a5 24 a6 bf 66 b2 9a 12 de 99 ca bf
       -0.043248340406216564 -0.2078206625787004
000060 1e b4 63 c3 98 e6 b3 bf 9e 9d f4 5d f4 11 f0 bf
       -0.07773737688303625 -1.0043834371698277
000070 32 75 63 22 8a d9 d0 bf 2f 54 d9 85 72 84 af 3f
       -0.2632775626969589 0.061557368124944715
