results/params_2.npz (npz, 49918 bytes, 4 tensors)

arr_2 f8 [168, 36]
00000000: 0314 515f 309b edbf cc89 8484 6f07 b03f
00000010: 2662 acb0 c81d 90bf f38d 321e b5d3 7a3f
00000020: 46b1 561b 4fb0 94bf 20ba e2a6 b37a a2bf
00000030: e170 6075 e549 abbf 78a8 19c1 007b 9abf
00000040: 3f96 ea2d 0200 a03f c965 1b43 50ba b93f
00000050: f6b3 a546 bb32 a73f 26df ff85 7da4 83bf
00000060: 08eb 8035 e93c 9fbf 761c 6dbd f828 94bf
00000070: 30d9 0ed3 6861 a4bf 0f2c 7c32 13c9 b0bf
00000080: 503d d4a4 adf0 883f 9fae 75d0 768c a43f
00000090: ca39 c66c bdcd b23f d6d7 3a4e 347c a1bf
000000a0: 2837 3910 a865 993f de7e e5a6 5a04 98bf
000000b0: c9ae 6f70 2461 96bf 0fb9 d800 5a8d b1bf
000000c0: e1ee 4406 aada 98bf 5bca 70a4 73eb 88bf
000000d0: 87f9 70c3 482c aa3f 68a1 1625 7a5b ac3f
000000e0: 5471 2fa7 c582 943f ec6d 896b f773 a4bf
000000f0: bdbe 5ca0 3d6e 613f d50c d0ac 9039 99bf
00000100: 0f80 b6f6 2a43 a0bf b3b9 b0b4 6352 a7bf
00000110: d34b 19a3 9283 8b3f bef7 4506 5271 aa3f
00000120: 3737 128b 5ec2 b33f 5056 b441 b2be ecbf
00000130: 5c0b 6db7 4267 b43f 4bd1 ae12 d2cd 95bf
00000140: 1eb6 dbb4 5cb4 893f 5cce 090e ab9a a9bf
00000150: fcf4 18e5 5406 95bf eaa1 f754 f59e 95bf
00000160: 65bd eeb0 9afe a53f 53c7 dcd2 b6c4 c23f
00000170: eaf4 e85f ebb7 ad3f e2a5 830d 93e9 97bf
00000180: a059 fd00 df55 b3bf 9bff 7fff 1c3f c1bf
00000190: 9330 1886 91ec 95bf b45e 9e00 1a02 9dbf
000001a0: 1d26 9a37 de0e 9fbf 8840 115e 85ea 87bf
000001b0: da60 be1e 0a97 b93f af55 32e0 31fa a13f
000001c0: c6ac 77d2 20bf 9a3f 8863 1ce9 42b9 b8bf
000001d0: 2c10 2db4 751e b7bf 6f2b f820 19fa bbbf
000001e0: fa4a 99d2 aef3 84bf 73a2 639e b71f 88bf
000001f0: 3302 0e8d c016 90bf 06e3 365b 2ae7 a63f
00000200: f0b9 fff6 ba61 b83f 7f91 5565 0c93 95bf
00000210: 742c a629 5efa 953f f0c9 18fe b672 9fbf
00000220: 280c d72a 3135 b2bf 1fb5 368d ae86 8bbf
00000230: e72f fbbb 6f86 7f3f dc0c 8f07 605d 90bf
00000240: 065b dc21 277b c33f 22d6 50d2 6651 c63f
00000250: cdeb 3cbd bfb3 f0bf 7da3 7260 11cb a73f
00000260: 4ead 4cfe 9076 77bf 224a 1cd1 4421 b73f
00000270: c67b d656 d353 a63f 5063 fcab f41b ac3f
00000280: 09f6 5bc5 490f b53f adf8 ff53 5953 c23f
00000290: eef0 ea89 dc82 be3f 3c32 53dd f6c1 ac3f
000002a0: 23fc db04 1a3a b6bf 1671 72f2 210e bebf
000002b0: caf5 e4be f932 563f 8e59 b1d4 8c32 973f
000002c0: f8bc a157 b39f b63f 198e 64bf ee78 ab3f
000002d0: 290d b4f0 68c2 6ebf 5ee8 d865 e6b1 aa3f
000002e0: a897 e13b cc42 a63f 3495 73ca 4f4a 893f
000002f0: 28e3 404e 7d27 bdbf ba7b c770 385f 7d3f
00000300: a512 65fd 419d 973f 59b2 7c01 c565 853f
00000310: becb e017 03c9 afbf bca6 3993 a40f ad3f
00000320: f7cc 6144 a4a1 b73f dfd9 d787 23f8 c03f
00000330: 34a6 4d53 aaf3 b03f aaf3 af64 8937 b13f
00000340: 48de 3ae4 aaee 9b3f 341b 82dd 8104 ad3f
00000350: 7797 2012 1eec a43f e3b7 8ded cc39 b43f
00000360: ea54 e716 e276 c2bf 799d d2eb 15fb b33f
00000370: cb43 cbe5 aaff aa3f d201 d569 c0f8 c6bf
00000380: 3816 1058 0bfe 0dbf 99ec b8ea d1e7 973f
00000390: ed37 4e01 0c17 783f 88a5 86bc 51a9 993f
000003a0: becb 5909 18c9 913f fbb1 e59e b1c2 a93f
000003b0: 20fd a07d 75f0 a93f 78c9 001e b862 9f3f
000003c0: dbd5 bd50 58c8 843f 56ef 33ed f952 9dbf
000003d0: 0153 18d9 857c 70bf b73a 546e 6612 7ebf
000003e0: 6c51 ba24 3274 853f 569d 1c50 dc16 a23f
000003f0: 698e e023 bfbd 9a3f 80d8 c360 3388 80bf
00000400: 49b9 fba3 ab1f a03f 2364 f3f1 4606 993f
00000410: 73d2 3ff0 4d91 6a3f 89f9 ea15 800a 783f
00000420: a415 344b 58dc 5bbf da1f 06a1 f113 a03f
00000430: ee14 a255 4cd7 a53f daff f859 63ec 993f
00000440: 8584 171f 2818 983f 793c 75f9 465a 633f
00000450: 637f 089d 554b 813f 5224 6052 23d4 953f
00000460: c6e1 575b 0dc4 593f beaf 8dc5 d3a6 ae3f
00000470: 129c 5b75 c132 7a3f d8cf 8a78 85fb a93f
00000480: 4cee f69d 5bc5 873f 7e90 9074 9b6e d2bf
00000490: e2a7 1c64 3cc8 b73f b1aa 3ed7 a9f5 b43f
000004a0: 64a7 976b 79c4 c7bf 3834 8f2d 3fc2 903f
000004b0: 17bd 5dfc c34c 9e3f 3ebf cc62 1a1d b03f
000004c0: 9de1 6cb1 cd9a 953f fe98 8bbf d92a ab3f
000004d0: 4055 c0a9 42e9 963f c7ac 9f6f c3ee 8fbf
000004e0: f987 9efd 632c 9fbf 6525 c8f8 0030 92bf
000004f0: b792 f331 e574 61bf 0853 9672 e241 98bf
00000500: b49e 7980 b34e 883f 1ea7 7278 c681 a53f
00000510: 354c db39 53d0 af3f adfa e9a9 0271 913f
00000520: f263 5035 e1e7 9a3f 814e 1f49 669e 56bf
00000530: 0f75 e349 4b21 a3bf 63e5 2cd8 0142 9dbf
00000540: 8150 448f 1129 9a3f dfd5 419d e2dd 7fbf
00000550: a43f 799a 8465 a63f 9fb2 4c00 5096 a43f
00000560: 98db d656 be50 a63f 7982 6661 fa05 91bf
00000570: 0077 c40b 4c17 94bf 6493 3d39 aea4 55bf
00000580: 5b69 4d4c 9e40 753f 16e7 ae84 bacf 8c3f
00000590: 3b79 d259 5cfb ac3f 2098 4669 dc59 8cbf
000005a0: f8cc 81ed f2e8 a03f e1e3 254d d56f b23f
000005b0: 9f38 3260 89fe d4bf 4013 be32 a86a b83f
000005c0: 0a8f 9bd8 b8eb b03f 68a9 be85 6f10 b1bf
000005d0: 715a 1998 b5c8 a23f 55a6 17c3 1a8a af3f
000005e0: f34f c4aa 3f22 ab3f 0a3c 500b b55c b53f
000005f0: 6c20 d161 5173 a73f c69b 5525 4e7b 9a3f
00000600: bd1f 9d05 8ffb 94bf b426 570b 0510 6b3f
00000610: 7264 7294 98b3 7e3f 3cbd 5236 aab9 a73f
00000620: 1118 7f52 1905 853f 4639 a618 b71b a63f
00000630: 2ef1 7980 43de af3f 2660 1ba1 7348 ae3f
00000640: 5682 5de8 a756 a53f 2224 e6cc d9fc 9a3f
00000650: d7c3 e629 cf7c 803f 39aa fccf 310d 8b3f
00000660: f666 6449 05de 9d3f 6847 0b30 e9f5 a33f
00000670: 0e69 16ff 4bd6 933f 5522 9f1b 731e b03f
00000680: 4131 205c 3613 a63f 6b33 61af 3f8d ae3f
00000690: 4eca 9131 295a 953f d145 bf32 3da0 a23f
000006a0: 01c2 f8c0 6bfe a53f 89dc bae6 c084 9e3f
000006b0: fc36 2cad b067 a43f e0f5 0062 252f b33f
000006c0: d13b 62bd bde5 a33f 8f19 02fd bfeb 9e3f
000006d0: d5c5 166b ab6e 713f 4e2f ff39 fde8 ddbf
000006e0: 7e8e faca 7912 a33f 5d07 2ae1 cc10 9f3f
000006f0: 9221 7494 ca7c b6bf d281 5c09 8493 913f
00000700: 87c4 952d f63d 99bf be4e bd84 df7f 82bf
00000710: a9bd 2f6d 1960 6cbf d897 57c3 e996 97bf
00000720: de74 13e8 483c 9ebf 9442 e308 a69b a8bf
00000730: fae0 203c 8fb7 a9bf 3806 9d97 62b8 a2bf
00000740: 795a 9906 5434 93bf 6b5c b388 387e 43bf
00000750: 9b57 8da9 a1f8 7fbf 9214 338d 299f 87bf
00000760: 161f d9ce bc75 7cbf a6a7 afda b476 a4bf
00000770: 9d97 884d 3fec 9fbf 528c 2541 92e8 8abf
00000780: ce50 9f13 402b 89bf 5bf7 5424 ce00 8ebf
00000790: a84f e1de 9638 863f c2f5 178d da30 913f
000007a0: 2369 8209 f810 7c3f b526 0753 dd61 93bf
000007b0: 2e51 eaba 4001 78bf 063b 1ccf 7574 88bf
000007c0: bdf4 1f55 0407 a1bf 19d2 bda6 c288 843f
000007d0: 6abd 8c63 f0a3 733f f1f5 0fc7 d162 79bf
000007e0: 89a8 dec5 bc50 9b3f 56ca 5539 70dd 953f
000007f0: 5135 63f9 db75 963f ba36 b850 4621 913f
-0.9251939641623043 0.06261345849319538 -0.01573861673668566 0.006549556247736887 -0.020203815501802745 -0.036092390176566846 -0.053298159197056945 -0.025859844003584403
0.03125006495001203 0.10049916876177813 0.045308925985274515 -0.009591084148254558 -0.030505794420814275 -0.019687544404657996 -0.03980567528144474 -0.06556816084427929
0.0121778074194753 0.04013415617631932 0.07345184236166982 -0.03415072874979301 0.024801851263240554 -0.02345410960822291 -0.021854943621220344 -0.0685631038729506
-0.024271637566228747 -0.012167838531330568 0.05111911187894962 0.05538541510333311 0.02003010590475303 -0.039947254063658594 0.0021277621880456386 -0.024633656070375338
-0.0317624498522947 -0.04555045681660221 0.013434548952465796 0.05164581610277662 0.07718459029476042 -0.8982783587732204 0.07970063188717574 -0.02129295577079064
0.012551044720988943 -0.050008149589214596 -0.02053196571636294 -0.021114190398209866 0.04295810136624815 0.14662823959366253 0.05804381891037187 -0.023351953220218997
-0.07552903913651798 -0.13473856425843853 -0.02141024952838728 -0.028328329360731444 -0.030330154555974532 -0.011677781995018913 0.09996093035295264 0.03511196004653116
0.02611972126571229 -0.0965768641584771 -0.0903085293658143 -0.10928494505803397 -0.01023041324802908 -0.011779245873598776 -0.015711792573258342 0.04473240245301295
0.0952412465119108 -0.021068757710410942 0.02146288994985608 -0.030711039790000727 -0.07112414642237808 -0.013440478977680357 0.007696567976108049 -0.015981197797157218
0.1521958270393144 0.17435918111157017 -1.0438840286358186 0.04647115995732685 -0.005728308086683965 0.09035139184224097 0.04360828814537103 0.05490078544079913
0.08226452892628101 0.1431686077266411 0.11918428771145148 0.05616733028145801 -0.08682406061778684 -0.11740314644925251 0.0013549269602458496 0.022653770906197183
0.08837433709571829 0.05365701757753189 -0.0037548112501341224 0.05213851922276612 0.04347837668392113 0.01234876953680928 -0.11388381157383931 0.007170887442469126
0.023060828295700237 0.010448016269571857 -0.06208047548752614 0.05675997063810942 0.0923102061222386 0.13257259495703885 0.0662180379273643 0.06725367267786334
0.02727763193135349 0.056675012864664615 0.040863933289343395 0.07900696563385128 -0.1442530261835267 0.07805001265898238 0.05273183875181749 -0.1794662968404866
-5.720588797690187e-05 0.02334526057368844 0.005881354231759045 0.025059964305602672 0.017368674822545442 0.05031352104819927 0.050662681184343805 0.030650021392099686
0.010147752727543249 -0.028636841871942785 -0.004025004237992348 -0.007341766472804315 0.010475532289355903 0.03533066251685095 0.02611445099331747 -0.008072282209905746
0.03149162651776522 0.024438007848264342 0.0032431146846597036 0.005869388899269253 -0.0017004835361274862 0.03140215960144106 0.04265821976972882 0.025315811506743426
0.023529650590607538 0.002362383481944227 0.008444470267079124 0.02131705465584261 0.001572621387252325 0.05986654078046126 0.006396060654629403 0.05074708076918427
0.011606899030872551 -0.2880009306266017 0.09289910740031318 0.08187352662086302 -0.18568341973815017 0.01636599269459202 0.029589712408264548 0.06294407760719609
0.021098340944463712 0.05306129897307875 0.022374192820355576 -0.015592123836503892 -0.03044277415722971 -0.017761244949757855 -0.0021309353320354235 -0.023688829654548577
0.011868860586403109 0.04200573177634069 0.062136269390656564 0.01703266298363342 0.026275175932912682 -0.001380538833918005 -0.03736338879546441 -0.02857211000375538
0.025547289246859343 -0.007779965602926236 0.043743270737308465 0.04020929340035661 0.04358477411317735 -0.016624366946077693 -0.01962012121031531 -0.0013210011865904753
0.005188577987463051 0.014068085836572968 0.05660523029767935 -0.01384327121997947 0.0330272593427256 0.07201893933769511 -0.32803568262250765 0.09537745703535183
0.06609683311722506 -0.06665703788045152 0.03668754083326043 0.06160052901743699 0.052995671840250134 0.0834458496685643 0.04580168074659316 0.025860997227393566
-0.020490870206486756 0.0033035372277695155 0.007495494856947992 0.04633838570713997 0.010263631658641999 0.04318020034689822 0.06224261229815152 0.05914651242864037
0.041676756968403936 0.02635517418960743 0.008050554720144305 0.013208760413893393 0.02916725407076278 0.038985526194337095 0.01937216514998235 0.06296462463718318
0.0431153285463517 0.059671392592099824 0.020851749086839448 0.036378776974412504 0.04295670252429674 0.029803289492261107 0.039853593005416216 0.07493814127607079
0.038862161033754845 0.03019618970622556 0.004255933382795137 -0.4673455301642563 0.037250333812406375 0.030337525599413485 -0.08784166454655054 0.017164290496227093
-0.02465042737225478 -0.009032961119067703 -0.0034637924777524876 -0.02303662543081217 -0.029526843228144688 -0.0480625043725286 -0.050228572931191054 -0.03656299687146397
-0.018754303839467277 -0.0005948806805474832 -0.00780547284451485 -0.01153404676586892 -0.0069482207596321035 -0.03996815843113603 -0.031174649340890082 -0.013138907063597358
-0.012289524649454011 -0.014649973377000405 0.010850123097192313 0.01678792463461832 0.006852120299436745 -0.018928011124251316 -0.005860569812871126 -0.011940880187038438
-0.033256659880842566 0.010026474679514273 0.004795016306885594 -0.006197757190418583 0.02667517621709029 0.02135253286309998 0.021933972450644493 0.01672849528954743

arr_0 f8 [2, 2, 4, 4]
00000000: a470 5597 0124 e73f fb47 c1a3 6628 d7bf
00000010: 8585 9803 3551 e2bf ecfb aecb 7ea2 f53f
00000020: bd29 cb3c 1850 b8bf 215a 05fa ac97 c0bf
00000030: c018 c9f0 3fa3 bdbf 5f5e 5de3 488d c5bf
00000040: 3447 0245 f507 c6bf 6b38 acb9 c0b5 e0bf
00000050: c6cd 20d5 cb7c c13f 9bb0 ecf3 ceec b13f
00000060: 1d5c e480 8e2f fb3f bda5 72ee 765e e5bf
00000070: c4f8 8bc4 3a4f 93bf d76c 3a7f 18fa e4bf
00000080: 1b46 8e92 3006 e73f 722b bce7 049d cfbf
00000090: acb7 3047 154f e0bf f1b8 fd87 5fb8 f43f
000000a0: 2aa1 ac44 6f48 c0bf 897e bc65 e47f a0bf
000000b0: 1edc 9afc 472e 85bf b807 3d4b a871 c2bf
000000c0: 5a3a 53ec 3288 babf 7186 17ae d8c6 e0bf
000000d0: 6886 fbea 5a42 c43f 4e83 65ca 29e8 c13f
000000e0: cd31 7461 8cdb fd3f d82a ccd5 65e1 debf
000000f0: 3aa5 8ae2 34b0 bd3f ab6e c2bd 491b e3bf
00000100: d6dd 0977 5194 b4bf 5b09 7a11 3968 b8bf
00000110: 4478 feae b159 dd3f d118 55e1 dca4 b53f
00000120: be0e ec84 d8aa e3bf a31c e1b6 5619 fa3f
00000130: ac4d bd94 7209 dbbf d7fe a0e0 1797 dbbf
00000140: 3dde b9e8 d4fb dabf ff2a 7889 2d18 d0bf
00000150: 9b3f e623 6756 e0bf 4bcb 3663 82cf b8bf
00000160: eaa9 1ddb 6542 ec3f 7d78 1759 043d e4bf
00000170: 7d25 7551 1a46 c1bf c586 2ec7 405c f03f
00000180: 5ae4 ece4 631a a63f f55a 85af 160e babf
00000190: 9904 eedd 0c08 e23f 31b0 7c92 7927 c33f
000001a0: 6ee5 e499 975c d7bf cf52 97ad 1f4b ff3f
000001b0: e156 e30d 1b0b c6bf 35f2 4e92 f8a9 d0bf
000001c0: c9a5 0b76 2842 d6bf 8453 aaa7 10f6 b0bf
000001d0: 2dfa 54db 509b dcbf e71f 5b26 94fa 95bf
000001e0: 02e3 cb31 02a9 f03f 984d 1353 2ca2 f0bf
000001f0: 817a 8c52 0abe c93f 6fac 435f 3604 f13f
0.7231452899682336 -0.36184087745380084 -0.5724129743795606 1.3521717029941511 -0.09497214779108894 -0.1296287747197349 -0.11577224377205919 -0.16837416745942144
-0.17211786145758767 -0.5221866251392958 0.13662097841880277 0.07001965956868832 1.6991105112881606 -0.6677813203033832 -0.018856924291861046 -0.6555292591978298
0.719505583039964 -0.24697934451281928 -0.5096537008700941 1.2950129806663961 -0.127210529835119 -0.03222573987863792 -0.010342180630102556 -0.14409354852437928
-0.10364073056846604 -0.5242732429725959 0.15827499841457215 0.13989755995410252 1.8661006743233088 -0.4825071895472042 0.11596994906235106 -0.5970810610046632
-0.08038815647329697 -0.09534031559636473 0.45859949197063465 0.08454685689239062 -0.6146051975378766 1.631186212894854 -0.4224516346486904 -0.43109700142302415
-0.4216205857005411 -0.25147570061442076 -0.5105472279701532 -0.09691634103982698 0.8831052093130982 -0.6324483623573226 -0.13495186784193072 1.0225227146660683
0.04317009133814827 -0.10177747521570864 0.563482697922285 0.1496421780842652 -0.3650263789055178 1.9558407574560766 -0.1722139184773175 -0.2603742054741674
-0.3477879669941016 -0.0662546548213197 -0.4469797269738674 -0.021463694420873394 1.0412618584798001 -1.0395930523999137 0.20111207037640003 1.0635284158004443

arr_3 f8 [36]
00000000: 4321 db1d e0b0 d0bf 0fab 728d 3ce9 ebbf
00000010: ef7a 0063 7d5a cabf 3823 68fb e254 d33f
00000020: 5c5a 1710 676b e03f 7e31 d883 60aa d43f
00000030: 7079 d990 396f d0bf d45a 3808 c532 edbf
00000040: 6a4a c0af e468 d3bf 4677 1414 e186 f7bf
00000050: 813a 3460 9c4c d1bf 49d5 2555 9693 db3f
00000060: 58af 01e1 f484 f33f 3a67 7815 6500 fe3f
00000070: c2f9 1828 46cd f33f 3b38 d796 56e2 db3f
00000080: ccb5 7832 9998 d2bf ed8c 1570 166f f8bf
00000090: 8697 a900 ca98 f7bf 9539 9df1 c1b9 cbbf
000000a0: 0e11 a226 50de de3f c5cd 45f6 8041 f43f
000000b0: 8c93 80a6 8b7e fe3f c75e 6902 53b1 f33f
000000c0: 91d9 f941 85fe db3f d979 ed3f b57b d1bf
000000d0: 51d9 b66f 0e4b f8bf ae1d 712f d456 d1bf
000000e0: 95d5 30a3 3990 edbf 4cf3 d700 3c03 cebf
000000f0: af39 b83c c37e d33f 6898 d62e d9d2 de3f
00000100: d62d 1478 6e7a d23f 4f69 9014 ca58 c9bf
00000110: e563 cb14 a50a eebf 2a7d ba4b fd36 d4bf
-0.26079562106726345 -0.8722212565092792 -0.2058865292937848 0.30205606986469347 0.5131106676370325 0.3228989875358578 -0.25678862710437667 -0.9124474678563623
-0.30327717936703513 -1.4704294952748156 -0.2703009547703133 0.43088301005567026 1.2199600972480393 1.8750964010891509 1.2376157347022034 0.43568958979165345
-0.2905638687978722 -1.5271210077560753 -1.4748020196798008 -0.21660637185636902 0.4823189141536809 1.2659921283746922 1.9058948997492022 1.2307920545771809
0.4374097008034364 -0.2731755375188221 -1.5183243144834544 -0.2709246123599439 -0.9238556086844932 -0.2344737056845595 0.3046119778599871 0.48161916326569676
0.28872262693832107 -0.19802213672739774 -0.9387994199888651 -0.31585628886564854

arr_1 f8 [2]
00000000: 22ad 97a1 38ca 95bf 617a f5a7 a3b7 cbbf
-0.02127922521860371 -0.21654172612302872
