results/params_0.npz (npz, 49918 bytes, 4 tensors)

arr_2 f8 [168, 36]
00000000: 7649 4474 5db8 b03f d827 b4a8 dbcc b13f
00000010: 1ed0 b3b9 7557 c2bf 5935 3965 6309 bbbf
00000020: c49b 31c5 29d8 bc3f a3e2 f83f 3d10 b2bf
00000030: 8ced 5d30 3fde c1bf e638 1472 7c14 b7bf
00000040: 68f8 68e4 1cc1 993f b0d3 68aa c14c b73f
00000050: ce7b 7a7e d5e0 c13f 60dc 9cb9 b6f9 b93f
00000060: a41c f7f3 8a00 c2bf 98c5 8e2c 8328 b23f
00000070: e054 7d32 4535 aa3f 3640 9b32 65fd c0bf
00000080: 9240 ddb0 44ee b6bf 24e9 bbd7 7c5c a4bf
00000090: a540 b15d 00ef c0bf d467 7bfc 5973 c23f
000000a0: dd61 507b 8c57 c5bf 3c4e a261 a593 a13f
000000b0: 224d 9d9d 160f b3bf 4edb c7bc e99f afbf
000000c0: d422 65b3 b4d5 a53f 9ae8 2028 05ad aebf
000000d0: 68cb a56d 7a21 993f 1cb5 0159 45a2 bf3f
000000e0: f14e 6d3b d39d b6bf d8f7 ec53 0f0e c43f
000000f0: fcaa f9e5 2eb4 c13f 4868 254d 084f a9bf
00000100: b090 bbd8 67eb c03f 2a98 0a87 4491 adbf
00000110: 3092 6668 d3d6 bc3f 280c b729 1440 ae3f
00000120: a8b3 51b4 dd8f 9a3f b9ac f20d 35a1 b7bf
00000130: e3eb 11df fede c3bf ece8 693f b418 b53f
00000140: c05c a733 b7b3 80bf 17c2 643d 5d0f b8bf
00000150: 44f6 db93 29e4 bf3f 5c36 1659 4004 a1bf
00000160: a879 0e43 630e c33f 1c5f a75c d475 a23f
00000170: 74dd 6899 8abc bbbf 4053 c954 9673 a3bf
00000180: 683a 3db6 c819 9e3f be07 9c23 1eb9 c0bf
00000190: 5051 135d 2a57 9cbf acc2 d731 c5fa a93f
000001a0: da91 e09c 248a a9bf 884e 0cf9 fc93 bf3f
000001b0: 10cc 8c72 a633 a73f c8cc d887 31f2 993f
000001c0: 8ca0 903c e66e a33f 740f 98ff af22 bc3f
000001d0: 6a43 d2f9 9109 b4bf e889 692a eb2a 98bf
000001e0: 741f cb5c 17e5 be3f 7465 ab1d ba38 c0bf
000001f0: 1270 77e5 8cab a9bf 3239 144c 8c1f c13f
00000200: a915 22bc f3b9 c5bf 1c81 816e c0e4 c33f
00000210: 58a0 5058 cbb5 acbf 6f82 3086 1f80 b5bf
00000220: 882a 954c 436f 913f f09f ad48 78f6 923f
00000230: 60b8 af95 92c8 c1bf 24d5 64cf bd81 c13f
00000240: 9b69 5d2b 6ea2 a5bf 5f11 cbae 9cf7 bf3f
00000250: c223 b36c a563 ba3f dede defb f6d1 b1bf
00000260: 6de2 3545 20b1 b53f c5e5 8a9b 3212 c23f
00000270: d9c1 4922 c255 c0bf 427e 51df 9e4b c33f
00000280: bc79 2a55 1417 c4bf fd79 739a e6b5 b73f
00000290: 0a79 7dab e47f b33f acb6 a3f1 eebf c33f
000002a0: 4dc9 1a18 6470 c1bf 7f8f 3d7c bcd3 97bf
000002b0: c57f f9c4 5713 c0bf 7bac 4d71 f9a0 c33f
000002c0: 4b71 7832 1e52 c4bf f17c e66d bde3 b23f
000002d0: a52d 4187 2688 b13f d131 5139 7bfb a7bf
000002e0: d171 d2d5 238e b1bf 7d8c bbd0 c87b b13f
000002f0: 63fa f4aa 5644 b4bf c16f 486d bc35 b73f
00000300: 525c 9838 8776 983f fa06 06d1 cd7e c53f
00000310: 629a 98ff 3734 b73f c06f 5539 9b2d b5bf
00000320: 116c 85fe 4d6a a6bf fa72 bd21 59f7 b13f
00000330: d9e2 35fb 58c9 c03f a184 6e82 c7b8 a73f
00000340: 5f3d fcaa 3413 9d3f 8f6a 6907 a62f c1bf
00000350: ec4e 947f 90ce c2bf 170d 3dfe b501 c53f
00000360: b394 17ee 842c a8bf 63b3 5e72 6d48 a33f
00000370: 11fe ae70 eec9 bd3f 8bd5 5076 cd72 b1bf
00000380: 42a2 b748 3895 adbf ead0 791f 870e b63f
00000390: a1da d369 04fe 25bf 2f0a 8003 960b c43f
000003a0: 0e9b 83eb 8e20 a83f ee45 9dae 395c a0bf
000003b0: 7940 7532 e116 a03f 3cf5 c5f6 f6a3 b13f
000003c0: a725 aa2e 94a3 8a3f f266 0c98 1594 a33f
000003d0: d2b2 e5a7 413b c03f 9aa2 3c01 0ddd 94bf
000003e0: 29df 6a7b d68d bcbf b923 59b3 227a afbf
000003f0: e5e2 b184 13d8 bc3f e968 f208 20a5 96bf
00000400: 4111 2505 e7b5 90bf 35c1 56ae b354 c0bf
00000410: 6cce 867a b402 c03f e0bc c886 ffcf b1bf
00000420: a319 ddf9 5073 b7bf 6a2e dfb8 66f7 c3bf
00000430: 3df3 07c6 137e b83f 1cd7 b189 4636 953f
00000440: c320 5f8d 5825 84bf b053 3473 ca27 c4bf
00000450: 4061 cf8c 89a1 b63f 49dd 20ba 8b41 b73f
00000460: 4fe4 6a91 0d7d bfbf adfb c96b 1055 bc3f
00000470: d6d7 1baa 479b bb3f 5b69 47ec cbc4 a0bf
00000480: 37fe 4df0 15a3 c23f 4a54 8d13 9143 c0bf
00000490: 3cd3 1ccb 5682 b3bf e90e 0bef c77a a03f
000004a0: 5d56 43fa 5f30 bd3f 7000 823c 3a60 b2bf
000004b0: ca1d e2b7 469f a13f 0ff3 1774 1b47 b3bf
000004c0: 4bc4 b22f 2e20 c5bf 9402 1561 7104 bebf
000004d0: 7905 8cd3 b564 a43f 4abb e89f f170 bdbf
000004e0: 8284 41ff f790 bbbf c09f 3b42 fbaa 873f
000004f0: 2ba8 cb40 5474 c4bf a74e 9014 6833 a0bf
00000500: 4710 a609 edc4 a03f 59f0 6caa 3822 9a3f
00000510: 4934 ccf4 d18d 783f ed31 37a8 e6d4 943f
00000520: a5de c015 0fa3 b03f df65 a0f3 48b5 a1bf
00000530: ddaf c426 8a5e bc3f 3ef3 1f97 4d48 be3f
00000540: ca77 2f58 6aac c13f 374d a864 1454 c53f
00000550: f4cd 5acf 022b c1bf 80b7 b35b 6126 c1bf
00000560: fb86 4aee dd0e b33f af19 94f4 5a0c a9bf
00000570: 4a35 5d3c 7d7b a1bf 875a a7a3 67ff c4bf
00000580: aa06 dacb 94d1 c13f a3eb 6878 a44b 943f
00000590: 1874 5d77 2a67 be3f c87d 696d 8b22 983f
000005a0: 54bc 8ce9 ee01 b2bf 492c 2c8f 8b0f b53f
000005b0: 5d51 ed1e 9b2c c0bf 74e4 e2c2 7b9e a23f
000005c0: 7119 93ba c529 b43f a6a7 06e1 1ff6 b23f
000005d0: 0289 922f b93a bd3f bfe7 2880 40bc b9bf
000005e0: 0b18 fc61 cddd c13f 7f2f 0db3 b622 c0bf
000005f0: 7577 37ee d121 ae3f 462f 1a02 fcf0 b23f
00000600: f8e7 6458 a7bd c43f f2a4 db03 8fd0 b93f
00000610: 3424 e9e2 0a7f b03f 87a1 64e3 ac98 c4bf
00000620: e67a c4b0 ec66 a2bf 0106 b6ee c4c3 a7bf
00000630: 0f5b 20fa decd b5bf d41c c060 ffa0 c33f
00000640: e01e b2b5 6058 bbbf d15d 4ac2 d833 b13f
00000650: 7c62 a78f cc8c bcbf dab9 9ae3 039c a3bf
00000660: f0b9 2855 0ca4 b43f 2634 1067 cf20 c1bf
00000670: e2ce 595a 57cc b6bf e108 65dc ba7c 6ebf
00000680: 30b7 963c 07b7 a3bf 3f44 0a74 d80c c4bf
00000690: ba6b f393 1533 b4bf 12ee c849 fddc b9bf
000006a0: 51aa ad94 81f3 bfbf 8b7e 649b f5e1 97bf
000006b0: 4cc4 63fe 1966 b73f 5c42 af6a ec5a a33f
000006c0: 3f5c 5991 84b9 b2bf 14f7 814b 5551 b83f
000006d0: 57c4 060f 0c64 c2bf e15b adbf 80ad bdbf
000006e0: 572d f2a8 2909 b73f 41e0 b5c2 6633 8d3f
000006f0: acdd 4935 781a b13f 60fd 1b47 e079 bfbf
00000700: 5fee c433 5504 b33f f4ee 66c8 5471 b3bf
00000710: 0771 97fc 2d99 c2bf 43d0 baec 8d7f bb3f
00000720: b320 7e3d 5c01 943f 4649 9b68 04a2 bebf
00000730: effa 5fd1 75a4 babf c968 69b7 af75 c0bf
00000740: 41ed c6f1 044d b73f bf5b 0e4b 3a21 a03f
00000750: cfe5 5b69 cbcb bfbf 240c ea77 1182 813f
00000760: 2f32 920c f20a 7a3f 4afd a40a d494 b13f
00000770: 4f0e cc5e 9419 b7bf b333 9c88 b7db b43f
00000780: 7166 f91f 476a c53f e88b 9a38 0bc1 c33f
00000790: c7da 65cf 036e b1bf d2ef 31d4 3e16 913f
000007a0: e440 37a7 07e9 98bf c0bb d2de 0071 a13f
000007b0: 900b 683e 8490 a33f 20e5 e8e1 73c9 84bf
000007c0: 8bb7 48fe 0575 abbf 65b6 bb80 f76b c2bf
000007d0: cae0 9540 8a55 a3bf bce6 60ff 4dbe c23f
000007e0: 10a1 5e30 891c babf 954e 919d 6fa7 ae3f
000007f0: 9730 d1b8 6778 b9bf 6709 e133 2af7 b63f
0.0653131874899254 0.06953213566535454 -0.14329406325816846 -0.105612003529321 0.11267338814069122 -0.07056029140302171 -0.13959493505158738 -0.09015634331828756
0.025150729599993232 0.09101496134174059 0.1396738879747929 0.1014665797382448 -0.1406415644871447 0.07093067014536414 0.05118767014816128 -0.1327330109693336
-0.08957318609214074 -0.03976812489959716 -0.13229374480079517 0.14414524868226286 -0.16673427601996496 0.03432957474538198 -0.07444897983559831 -0.06176691464854987
0.04264607133751999 -0.05991378893709616 0.02454177183376363 0.12356980727209471 -0.08834572029928346 0.15667907331402264 0.1383112547803974 -0.049431094567538525
0.13218401034021587 -0.05774892948583983 0.11265298174709737 0.05908263215271631 0.025939430361564014 -0.09230357733274532 -0.15524278537836186 0.08240820453821457
-0.008155280364844919 -0.09398443936220989 0.12457523212284466 -0.03323556029782246 0.14887657903905205 0.036055218038823805 -0.10834566350319169 -0.03799123558989104
0.02939523327159535 -0.13064934481377394 -0.0276762599285843 0.05074135049279013 -0.04988207259183115 0.1233518703486941 0.04531593464198391 0.025337957302508568
0.03795546998327479 0.10990428915107292 -0.07827102994111859 -0.023601221526755284 0.12068315520730072 -0.12673117111880183 -0.05013695050340074 0.13377526964945613
-0.1697373074168074 0.15541844745440236 -0.05607448056281389 -0.08398625398741343 0.017025996731983045 0.018518332897116296 -0.13893348988443943 0.13677189470914997
-0.04225487021786308 0.1248720099202436 0.10308298019221154 -0.06961005829986841 0.08473397912701737 0.14118034930088022 -0.12761713670944522 0.15074525741782635
-0.15695432814113797 0.09261933584955524 0.07617024599810321 0.15429484175495156 -0.13624240090355003 -0.023268647273098516 -0.12559029691601445 0.15335004837411134
-0.1587560411870846 0.07378753598321787 0.06848374178041768 -0.04684052538559381 -0.06857513399376748 0.06829505058299108 -0.07916776345971636 0.09066369693795108
0.023889649228376726 0.16793225008228047 0.09064054479731845 -0.08272714757680344 -0.04377979022930146 0.07018048356753673 0.13114464059960687 0.046331629440154794
0.028393576561083985 -0.13426661836532047 -0.1469288466402 0.16411471284855203 -0.0472146549835001 0.03766195317380185 0.11636247874320584 -0.06815799845283814
-0.057779082180620125 0.0861591770024607 -0.0001677875888288121 0.15660357638269448 0.04712339997222702 -0.03195362335703665 0.03142455807631079 0.06890815281618229
0.013007314371196467 0.038239168940163895 0.12680836389644995 -0.020374491882793146 -0.11153927338716287 -0.06147869529065226 0.11267206182118235 -0.022114277406765224
-0.01631890267278036 -0.1275848962081995 0.1250825498842575 -0.06958004990223143 -0.09160333728968921 -0.15598758723205047 0.0956737860178238 0.02071485724851306
-0.009836856664961485 -0.15746431946959438 0.08840236366029774 0.09084389967107599 -0.12300190735085546 0.11067297584121034 0.10783813384099913 -0.032751438706059864
0.145601980530033 -0.12706197218600074 -0.07620756586841265 0.032186744623258275 0.11401939258515754 -0.07178081490747146 0.0344183062998656 -0.075303760378983
-0.1650445683385747 -0.1172552930847906 0.03983085830078443 -0.11500463632613137 -0.10768079740366157 0.01155659004093923 -0.1598000828155944 -0.03164220095655184
0.032752425601785755 0.02552116909213029 0.005994625226560643 0.020343402878824014 0.06498808175171662 -0.034586219539231904 0.11081756063930422 0.1182907575566334
0.13807420068672932 0.1666284076205586 -0.134125090835013 -0.13398377397191652 0.0744456011548457 -0.04892238841607665 -0.034145272844947686 -0.16404433718590303
0.13920841172880688 0.019819803094133125 0.11876168646036012 0.023569277337058187 -0.07034199907205735 0.08226845021651842 -0.1263612652788976 0.036365382709342337
0.07876239590686908 0.07406806224631043 0.11417729770122167 -0.10052874688054113 0.13958136829768394 -0.126059377124303 0.058851776436980176 0.0739896302349595
0.16203777137872044 0.10083860248746015 0.0644385150891516 -0.16090928176096161 -0.03594150216871643 -0.046415475978403016 -0.08517259222604089 0.15335075592176983
-0.10681728778774469 0.06719736808223976 -0.11152342326330172 -0.03829967645048145 0.08062817648963239 -0.13381378681552397 -0.08905549960928341 -0.003721585238197198
-0.03850576986893228 -0.1566420141794271 -0.07890448438722233 -0.1010282807482599 -0.12480935935824645 -0.02332290421429532 0.09140169583021523 0.037803066275618774
-0.07314327763138893 0.0949910458893693 -0.14367819532120293 -0.11592869453066569 0.08998356222780522 0.014258196656314339 0.06681014348020281 -0.12295343147342441
0.07428486360452656 -0.07594804661396976 -0.1452996714932697 0.10741507558378864 0.0195364391834409 -0.11965968660232304 -0.10407196389858674 -0.1285915036740504
0.09101897146949957 0.03150350729190831 -0.12420340845337495 0.008548866722099709 0.006358094696349555 0.06867718944430581 -0.09023406328565751 0.08147761426171378
0.16730584202996426 0.1543287302384606 -0.06808494389938878 0.016686422063216196 -0.02432643850426154 0.03406527252206315 0.03821194898411939 -0.01014986546680291
-0.05362719277432778 -0.14391988549998583 -0.03776199377438301 0.14643263787893612 -0.10199792319201983 0.05987118528778727 -0.09949348699700732 0.0897089363725506

arr_0 f8 [2, 2, 4, 4]
00000000: 49de fc91 7cae b23f 2163 2bbc 1494 a9bf
00000010: 4597 b8b0 35b5 b7bf da2e bb76 8d49 bbbf
00000020: 30b4 8318 995d 923f 6efb 6e1a bde7 bf3f
00000030: e57c 915b d5cb b8bf 3716 e822 3833 b9bf
00000040: f388 ae01 9724 cf3f 88ed 918b c6e4 d5bf
00000050: 8517 30cf c605 0140 4dee fa4f c11c fb3f
00000060: c8e3 191b 982b c03f 3be3 9a82 e306 bf3f
00000070: ec9a 3c86 651b b1bf b2a8 b96c 213d d3bf
00000080: 768b 955c 3760 c13f 5d9e 28e8 4568 93bf
00000090: 361d cc08 5571 9ebf 3309 859f 09fb cabf
000000a0: 36bf f19b 2360 443f 8ef2 a838 f132 c43f
000000b0: 5b17 3f1a edc6 b0bf eba4 3be6 15db 8cbf
000000c0: 79d8 7905 bc67 d53f 02bb a5dc 77e2 e5bf
000000d0: 3b9c c0ce c4d2 0240 365f f2c4 cbfc fc3f
000000e0: b5d4 9bbb f5a2 b83f 2fa6 ad90 7002 c33f
000000f0: d94f 3793 4f04 9bbf 6240 2ebc 6c9c cebf
00000100: 886c 92ec b106 b5bf 6648 c377 b6ae d13f
00000110: 8d56 b349 276a e3bf 5705 355d 10ed f03f
00000120: ff4e 3f0d 1ac9 d5bf 6669 646f 1643 cf3f
00000130: 3f00 fcbf 6293 c9bf 0128 d83d 3879 cbbf
00000140: 101c 8598 da15 d33f 28b9 7ab4 132f d3bf
00000150: c55c 5a41 dc5e c5bf 65b1 493b ecb3 d7bf
00000160: f3e5 e4e9 263e d1bf 323b 8e56 d1c0 e6bf
00000170: 292a 603e a5ae 0040 2088 d498 e9e5 e5bf
00000180: 658c f3f3 4539 853f fb25 221d 2369 d93f
00000190: 0ee3 8bdd df1b e5bf 28b2 db9d 8d4e f23f
000001a0: 2c8b 46fc 6af5 d1bf 1e80 90ed da31 d43f
000001b0: a6e8 fdc7 b819 b4bf 1c05 0b07 ffff c2bf
000001c0: 2a50 6958 3a66 d83f dbc9 a2a4 164c d0bf
000001d0: afa9 4927 1cf8 c4bf 44f5 80ca 8f87 d3bf
000001e0: 7970 7daa 8842 af3f 7aa6 2cda 83a0 e1bf
000001f0: 7242 55f9 62d1 0140 6e1d e54f 5ebd e1bf
0.07297495426325286 -0.04995789334288348 -0.09260879101256332 -0.10659107350073374 0.017935173150295636 0.12462980170583446 -0.09686025128893368 -0.0984377942296185
0.2433041341983607 -0.34208835248838243 2.127820604949138 1.6945202945925246 0.1263303882913347 0.12119886339759216 -0.06682428862823614 -0.3006061136026218
0.13574878712378408 -0.01895245770916031 -0.029729202901788564 -0.2107860592751166 0.0006218122361030035 0.1578046347293775 -0.06553537264616464 -0.01408974751344024
0.33445644888650566 -0.6838950452346071 2.352914443257331 1.8117177670701046 0.0962365706471527 0.14851195396777103 -0.02638363204989944 -0.23914870441922448
-0.08213340783770395 0.2762886209067176 -0.6067081870521221 1.0578769341376153 -0.3403992776268154 0.24423485220979585 -0.19981035589444393 -0.21463683147186433
0.29820885557677546 -0.299748350381281 -0.16695740881980306 -0.37035661496954325 -0.2694184574243927 -0.7110373201884157 2.085276114759172 -0.6843154892887959
0.01036314631205055 0.39704206318910423 -0.6596526457861687 1.1441780248961866 -0.28060412060055984 0.3155429191556339 -0.07851748354542795 -0.14843738407038465
0.38123949655460143 -0.2546440704128636 -0.16382171552988953 -0.3051490285468683 0.06105448800255515 -0.5508441220492408 2.227239559091964 -0.5543662605713686

arr_3 f8 [36]
00000000: 9e37 a928 d9e8 d6bf f1ff b0c3 bbb1 e6bf
00000010: 72e9 b74f 0315 b1bf 28f3 e5df 0a20 d53f
00000020: ea42 b789 09ed e23f d309 b547 f0cf d53f
00000030: a2d7 4e72 82e1 a8bf b00c 1e2f fc3c e5bf
00000040: 3e4b 00ce 91c3 d5bf 313e 3a44 8b26 fabf
00000050: 7851 a65d 22ab d9bf 5b4f f4e5 3ad3 da3f
00000060: 543a b198 888b f33f 0d90 14fb 70e1 fd3f
00000070: 65ea af43 8733 f33f 6583 0506 4176 d93f
00000080: bb09 8e35 2e76 dabf ac1f ba69 f03e fabf
00000090: 9d4b 3e45 bdde f9bf 65ea 72be 2ec5 d9bf
000000a0: 3792 c622 6e10 d93f bfc4 3efe 3029 f33f
000000b0: 2afa 40be 3db4 fd3f c26d bbdf c188 f33f
000000c0: 1b47 bf47 611b da3f c852 68dd e7d6 dabf
000000d0: 2c87 4f05 4d4c fabf c18d 6bea 32c5 d7bf
000000e0: 30c5 8cfe 8191 e6bf 8538 ef75 3417 b6bf
000000f0: 4d40 5c23 e3dd d43f 1682 3339 ddd2 e23f
00000100: 35bc d602 d9b2 d43f 024a efe9 a902 b5bf
00000110: bf95 ce1d becd e6bf 6aff 342e a05b d7bf
-0.3579619309501768 -0.7091959783647309 -0.06672688194513457 0.33008071770727776 0.5914352121127113 0.34081656458525095 -0.04859550137864167 -0.6636944694768285
-0.34006161801623935 -1.634410158647267 -0.4010702051685011 0.419142460408002 1.2215658154051612 1.867539387495529 1.2000801700620738 0.39784265125313417
-0.4134631655689664 -1.6403659944498754 -1.6168797211473482 -0.4026600704052384 0.39162782093106635 1.1975564891293258 1.8565041953840002 1.2208880176102501
0.40792114264069007 -0.41936680433108764 -1.6436281402060997 -0.3714110650309657 -0.7052621814420146 -0.08629157904872116 0.326042923480604 0.5882402531825075
0.32341599728801224 -0.08207189523026417 -0.7126150686423712 -0.36496738922504923

arr_1 f8 [2]
00000000: 6032 5d3e a739 02c0 fd4e d05f b281 83bf
-2.27815102312006 -0.009524720715524898
