results/params_3.npz (npz, 49918 bytes, 4 tensors)

arr_2 f8 [168, 36]
000000 ff fa 88 fa 73 d3 e7 bf 64 c4 8b 16 ea 16 b0 3f
       -0.7445621388686446 0.06284964609564408
000010 1e b5 4a 22 db 10 a1 3f bc 1e 41 4a cd 44 a8 bf
       0.03333172601319688 -0.047399916948561466
000020 c9 5a a6 87 fe f2 ab bf 94 7b ff d2 f9 f5 be bf
       -0.05458827405816675 -0.12094079400365693
000030 b3 4e 66 0c 16 e9 b5 bf cd 00 98 44 51 5c 91 3f
       -0.08558786204076334 0.016953725635176654
000040 f7 a3 9f 74 b2 fa ad 3f a7 88 e2 07 93 b7 c4 3f
       0.05855329202297093 0.16185224423413055
000050 b4 32 30 b9 e3 dc bd 3f 46 7b 73 14 34 94 b8 bf
       0.11665175696561897 -0.09601140498442104
000060 54 e9 5e b9 b3 a8 aa bf 17 95 dd 41 1b c4 b2 bf
       -0.05206834447695266 -0.07330484731717878
000070 73 a5 3d 41 99 2d ac bf 24 58 bf cd 52 82 b1 bf
       -0.05503539010426097 -0.06839482806330516
000080 10 8b 25 6d 2e e1 91 3f 9d 14 db 3c b8 20 bd 3f
       0.01746056119135192 0.11378051267372986
000090 7b 6e d0 f2 14 ed c4 3f dd a3 54 e4 d7 48 ab bf
       0.16348516327058235 -0.05329012548674659
0000a0 fc 2c a6 ca 66 91 a4 bf c2 90 dc 36 7f aa ac bf
       -0.04017182563537777 -0.055988288351984675
0000b0 7a 64 06 24 29 eb 98 bf 4e 91 de 1d 03 74 be bf
       -0.0243345669019601 -0.11895770529969704
0000c0 42 9d f2 89 35 3d 90 bf df 65 df 93 21 33 aa 3f
       -0.015858494324360047 0.05117134981237447
0000d0 a9 95 54 0b 34 b7 bc 3f 04 1a 7c a0 94 60 bd 3f
       0.11217046047803216 0.11475495260319951
0000e0 d4 59 97 d2 4d ad b1 3f da dc cf d5 48 77 b1 bf
       0.0690506590975482 -0.06822638721483845
0000f0 ec 79 b6 70 b9 93 a7 bf 3b b2 1c 69 0f 6b a0 bf
       -0.04604892254723211 -0.032066804486337884
000100 c4 bc 1d bd ad 43 a6 bf c6 80 f7 a6 b5 3d b0 bf
       -0.043485097251385635 -0.06344161344850638
000110 03 59 34 d3 ca e5 b5 3f e9 ed 35 a7 3a 37 b0 3f
       0.0855376020084329 0.06334272939960041
000120 d5 a7 78 9d 7f 9f d7 3f 5e e8 69 3f 75 c7 e0 bf
       0.3691100156598826 -0.524347900252234
000130 42 e5 17 e2 7e 78 bc 3f a7 a4 d7 fc b8 f3 a0 bf
       0.11121361751420003 -0.03310945593313735
000140 0a 90 ed 0c ce 35 a1 3f 52 26 83 2f d1 b6 9b 3f
       0.033613623693582964 0.027064579510613314
000150 5c 71 4b 56 0d 4b 7c 3f fe 15 aa cd da 02 8e bf
       0.006907512758257486 -0.014653882409457527
000160 ad a9 1e 49 49 d6 b1 3f 10 2c 72 9a 86 cb d0 3f
       0.06967599902296824 0.26242222864738185
000170 fb ae 97 d5 27 f5 c6 3f fb 5b 1e 4c ad f2 98 bf
       0.1793565552646824 -0.02436323906985292
000180 de ef 33 86 1d 51 a4 bf 52 e8 78 77 b7 84 c2 bf
       -0.03968136084765182 -0.14467519124611045
000190 7b 93 c7 0a 0e 1c b5 bf d3 d7 84 13 86 54 a1 bf
       -0.0824593330685967 -0.0338479899241261
0001a0 d9 f1 4b 0a 25 a9 9a 3f 30 08 4f f9 d5 e8 c0 bf
       0.026035860780199236 -0.1321055857970932
0001b0 fa b1 fa e6 61 ca ce 3f f8 32 10 a7 d3 8b d0 3f
       0.24055122164044446 0.25853434862874236
0001c0 a4 94 06 9e c4 42 ab 3f 43 ae 43 e3 f7 22 b6 bf
       0.05324377469086386 -0.08647107408949588
0001d0 30 2a 5d 70 94 31 b6 bf 46 3b 30 7c 53 c9 bd bf
       -0.08669402831325423 -0.116353242701945
0001e0 f4 a7 82 c8 87 d2 a5 3f e5 4f d6 c1 84 f9 b2 3f
       0.042621844507564705 0.07411985142090279
0001f0 c4 66 33 7a ba ae ad bf 17 27 ef 91 6b b4 cc 3f
       -0.05797369710644554 0.2242559874123848
000200 84 f1 40 95 bc 30 c6 3f 00 58 d7 66 31 f4 9f 3f
       0.17336232459809875 0.03120495977585591
000210 12 cc 8f 12 b3 15 af 3f 72 fb 80 21 8c df c1 3f
       0.06071242906173081 0.13963462482385186
000220 3e 2d 24 db 86 2f a8 bf 99 11 4b 10 30 6b b4 3f
       -0.04723760056557545 0.07976055524620164
000230 3c be 56 a4 4a da 85 3f 07 59 76 96 c7 80 c2 3f
       0.010670264377807041 0.14455504271308703
000240 2d 3d 1c 5f 92 10 b4 3f f5 b0 f6 7a 64 a5 db 3f
       0.07837786504773155 0.43196975715797176
000250 89 a9 44 75 d2 ba eb bf b7 82 5f f4 3d 35 b9 3f
       -0.8665554323572887 0.09846865860118724
000260 a4 57 e0 d5 e0 0b a5 bf 88 f5 c7 2e 8a d4 a8 3f
       -0.04110624895854123 0.04849654980715018
000270 9e 64 a8 0d 97 43 a6 3f ab d1 d0 9b 40 27 b1 bf
       0.04348442117424976 -0.06700519374937268
000280 30 81 0c 08 02 9e 93 3f bb 27 44 88 e4 7a c0 3f
       0.01915743993879565 0.12875038770317623
000290 b7 6b 95 30 3a 10 c4 3f 92 8e c9 63 73 9e bb 3f
       0.15674521801233052 0.10788651643957284
0002a0 21 ec 90 ed 45 e3 c4 bf 49 c2 3d 18 f1 22 cb bf
       -0.16318582630069137 -0.21200383838324147
0002b0 63 fd 1b a5 3f 8c b7 bf b6 07 e8 a5 d1 88 b2 bf
       -0.09198377400388362 -0.07240019131134443
0002c0 99 1b af 90 57 ee 99 3f 73 33 13 84 fc 08 b4 3f
       0.02532326527196069 0.07826212143409154
0002d0 6a fb fb 53 ff 4d c0 bf f0 b4 6d a8 de 71 c1 3f
       -0.12738029099270004 0.13628752922105702
0002e0 0a 03 4a e1 e7 ef a8 3f 89 6f 9b 56 a5 5e ae bf
       0.04870533585654442 -0.05931584055153311
0002f0 b6 b9 f0 bb 7b da c5 bf 58 60 d4 5b 64 51 c1 bf
       -0.17073008229040249 -0.13529638751856754
000300 71 fe 0c e8 7d 79 a1 bf bb 07 73 37 3a a8 bc bf
       -0.03413003404284332 -0.11194194654220173
000310 ba c6 25 83 f1 29 c1 bf 0f 05 9e b3 0e ed a5 3f
       -0.13409251121225002 0.04282422964662135
000320 34 32 fe da 64 ed bd 3f 6c 72 c9 8b 44 a5 c3 3f
       0.11690359446056037 0.15348107171566328
000330 10 aa 3e a3 c8 1c b2 3f 69 e4 a9 e2 6e 76 59 bf
       0.07075170503109285 -0.0015541155686647162
000340 f2 28 89 63 df 77 a7 3f f7 7b 9f 3b b9 b1 b4 bf
       0.04583643045460119 -0.08083684640540399
000350 2f 0b 46 c5 07 b7 93 bf 00 85 a3 f0 5f 77 99 3f
       -0.019252892890573022 0.024869441091941447
000360 9d 5c b9 26 ac f2 d4 bf ef 80 ad 11 0c 9b a5 3f
       -0.3273115518727055 0.0421985408381732
000370 c1 57 0a 75 9a 8a b6 3f b2 02 85 f8 7a e6 b7 bf
       0.08805241925651243 -0.0933606011140096
000380 83 ac 32 d5 3a 0a 59 bf 20 ba 7b ab 33 4a 69 3f
       -0.0015283178843599483 0.0030871400048149283
000390 df 8c 9e 75 62 4d 86 3f 27 b0 10 4f a3 b9 7c 3f
       0.010889786924798304 0.007012975621403717
0003a0 f2 cb 32 bb 78 8f 9c 3f da 3c 57 24 7b 34 a9 3f
       0.02789105074471005 0.049228523431901386
0003b0 a5 3b 34 d4 40 50 ac 3f b7 4f 50 e3 44 92 7d 3f
       0.05529978361493385 0.0072195712027855385
0003c0 55 19 8a df 49 04 88 bf 6d ac a0 8f 59 c6 96 bf
       -0.01172692979276905 -0.022241019622168446
0003d0 2c 70 47 bc ee c4 8a bf 3d 4c f6 55 36 33 72 3f
       -0.013070931549855024 0.0044433710567260394
0003e0 12 5b fa 6b 58 be 91 3f df 02 59 b8 2f 31 90 3f
       0.017327672567797832 0.01581263125104015
0003f0 7b fe 99 de 44 d9 ab 3f 87 a0 62 45 11 05 73 3f
       0.05439200608543345 0.004643504586205555
000400 f8 e1 74 8f 64 ad 83 bf ed 80 c6 3b f7 ba 81 bf
       -0.009608064296672034 -0.00865739012880381
000410 ee 9d 97 d1 8f d9 94 bf 2f 06 7d 7b b6 32 92 3f
       -0.02036118237256617 0.017771579062588024
000420 c7 f3 fd 4b d9 6b 8e bf fe 7c 2d ed 28 40 a3 3f
       -0.014854142791358783 0.03759887595401244
000430 13 c7 25 41 ce 98 a1 3f db 62 92 2e 60 ab ad 3f
       0.03436893983133706 0.05794811790946649
000440 c2 b2 fb 78 1a ee a4 3f 35 1f eb 7a fe 35 6a bf
       0.04087908484311732 -0.0031995745006020656
000450 82 33 f0 1c 76 a7 96 3f e0 64 7e 97 8c 4c 82 3f
       0.022123189464810185 0.008935068486425057
000460 b0 a8 cf aa 62 bf 08 bf 84 93 2b 7f 1c ab 9e 3f
       -4.7202299675878716e-05 0.029949612867216327
000470 a1 c6 ab 63 02 e7 97 3f da 62 8c ef 66 8f 91 3f
       0.02334216817229751 0.017148598070977218
000480 5b e5 71 a2 1b 57 a1 3f 9e 03 5c 0b 52 95 df bf
       0.03386770589799922 -0.4934887991840301
000490 72 85 b1 88 75 be b3 3f 84 16 cb ea 70 1d bd 3f
       0.07712492549173591 0.11373048527010537
0004a0 21 a1 c9 1d 29 df b0 bf 61 e9 bf 8d 08 20 a4 3f
       -0.06590516068684284 0.03930689554541079
0004b0 9e be 35 71 3c 1c 8c 3f ed de 49 8e de 7c a7 3f
       0.01372573109139746 0.04587455260201332
0004c0 5a 54 53 a7 c7 6d a4 3f 38 30 c3 28 b2 37 b8 3f
       0.039900054145314015 0.09459985251595604
0004d0 26 94 17 89 2d 80 af 3f 90 c4 18 14 0a 17 74 3f
       0.06152479456412889 0.004904784554626521
0004e0 46 32 93 61 ff f1 92 3f ba af 2a 5f 18 46 7a bf
       0.018501272516731747 -0.00641450424397399
0004f0 1f c5 53 60 72 df 8e bf 76 f0 6b ad d7 70 8f 3f
       -0.015074628414796508 0.015351948718937285
000500 f7 25 35 9e 8a 0d ad 3f 51 b8 4f 4b 44 17 b3 3f
       0.05674393826718565 0.0745737727990854
000510 b9 41 75 85 6a ba b8 3f 23 64 9e ae 9f b8 b3 3f
       0.09659448393109117 0.0770358849826072
000520 0e 89 34 65 43 ae a2 3f 4e 56 c3 90 52 dd 99 3f
       0.0364857731858753 0.025258340917238713
000530 f3 27 a0 22 d4 df 74 3f cd 47 51 c6 69 b5 81 bf
       0.005096272137970803 -0.00864679943530069
000540 5c 05 69 56 bd 5e a3 3f e2 95 91 7d 56 98 90 3f
       0.037832180784344444 0.01620612279329759
000550 67 71 c0 42 1e 51 a3 3f 19 d8 b1 27 f2 18 b2 3f
       0.037728257797627056 0.07069314450367904
000560 24 9f a9 6f eb 88 a9 3f 00 7e 7c 48 a1 66 a0 3f
       0.049872739201246824 0.03203300485460758
000570 7d db 9b 7c ea 6f 58 bf 1e 8f bd c1 48 49 68 3f
       -0.001491526595086972 0.0029646321326469846
000580 aa e5 52 7d fc 4c 9a 3f 76 d4 7c ec 98 59 a0 3f
       0.025684304379614588 0.03193357359706621
000590 52 5d 2d 04 a1 6b b5 3f 05 69 3e 7e 30 08 ac 3f
       0.08367353775007771 0.05474998036443605
0005a0 e0 c9 e5 4a 00 3c 78 3f a7 47 4a 20 a7 29 a4 3f
       0.00591659654888807 0.03938028592268888
0005b0 cf 63 62 10 30 80 e3 bf 04 eb 25 f4 2b f4 83 3f
       -0.6093979187017967 0.00974306429701733
0005c0 4e 4f 9c 6f 25 0d ad 3f fa 13 18 c9 21 55 a0 bf
       0.05674092280801678 -0.03189950542222415
0005d0 34 da 30 9e bb 14 98 bf 88 86 1e f9 48 96 7c 3f
       -0.023516589670373914 0.006979260493524493
0005e0 1e eb d8 3a 10 8d 63 bf 44 be d1 06 21 71 a1 3f
       -0.0023866002072997624 0.03406623085254215
0005f0 cf c1 62 d1 64 a0 8d bf de 71 d8 f9 32 99 a5 bf
       -0.014466083183237636 -0.042184441565243466
000600 75 06 68 87 10 51 a0 bf f5 05 cf 4c f2 20 a4 bf
       -0.031868473557563094 -0.039313861728725565
000610 71 9c e3 9a ff 4d a5 bf ec 41 bc 83 ba 75 a2 bf
       -0.04161070600258022 -0.03605444772813712
000620 86 94 29 b5 08 1e a4 bf 12 96 6b d3 8f 9f 8f 3f
       -0.039291641344598324 0.01544105876878191
000630 d0 a9 aa 1d ac e4 8b 3f dd 5b b2 4e 66 d9 95 bf
       0.013619751601557178 -0.021337126305834054
000640 a8 38 e4 31 85 28 8f bf b1 8a 92 72 35 0c a0 bf
       -0.015214005074565343 -0.031343145595447715
000650 1d 0a a7 03 00 6b 98 bf 3e aa af 8f 07 e6 a0 bf
       -0.023845672820025244 -0.03300498608571843
000660 e3 f2 15 3b 4b d0 8b bf c9 b1 e8 d8 3a 56 88 3f
       -0.013580882778791053 0.011883220428978174
000670 f4 96 b0 2b 36 d3 6a 3f e1 32 5c 11 75 77 96 3f
       0.0032745416661040753 0.02194006842096286
000680 c1 ae 63 d5 df 60 87 3f a1 05 bd f0 9a 54 62 3f
       0.011415241908671605 0.0022376085452441995
000690 f0 2a f0 0b 77 5f 89 3f 33 d6 98 fa a6 72 a0 bf
       0.012389116336654266 -0.032124727335411406
0006a0 61 d2 e9 79 6e be 77 bf a3 1b 04 1f e6 fd 97 bf
       -0.005796844051122991 -0.02342948498064924
0006b0 ab 7c a1 c9 8f 2a 82 bf c1 bc c5 0c 67 90 a8 3f
       -0.008870242443832351 0.04797670393861032
0006c0 50 14 fd 80 e2 ee 90 3f 62 01 07 0c a1 73 a8 3f
       0.016536273119772738 0.04775717994516772
0006d0 7f 6b 23 72 b0 ec a2 3f 9a 27 a0 a5 cf 33 e3 bf
       0.03696204560556903 -0.6000745997309764
0006e0 0f 65 98 b6 c6 fb 92 3f 1c 29 64 0c ab d9 b2 3f
       0.0185385750720331 0.07363385250588234
0006f0 65 ea a0 17 7b 48 9e bf 42 8d 1e c1 c8 5b 89 3f
       -0.029573367421316017 0.012382095712217937
000700 9a 87 f2 1d 77 b2 7b 3f d5 66 94 6d 67 8d 61 bf
       0.006761994648657588 -0.002142622001554221
000710 f8 6c fb c0 09 7f 98 3f 9d f3 64 57 5e ca 73 bf
       0.02392211189622359 -0.004831665535957178
000720 a3 5b f6 d9 fd 67 91 bf eb ea c1 28 e6 fc aa bf
       -0.01699825899921915 -0.05271071670082058
000730 e5 85 c7 c0 b8 49 a5 bf 5b 82 4a 7c ee a5 90 3f
       -0.041578076870574944 0.016257978759883645
000740 ee 34 e4 7d 4f 93 97 bf ae 37 32 de 75 6d 8e bf
       -0.023022882517627012 -0.014857216685665833
000750 87 27 b0 aa 93 ef 8d 3f b7 b3 6a 58 5e 1b 7d bf
       0.01461711277626755 -0.007106178795464871
000760 73 34 84 0e 12 0c 97 3f 7f 23 5e 04 34 ad 68 bf
       0.02250698293305615 -0.0030122772176963126
000770 1e e2 58 fd 72 cf a2 bf 13 57 67 58 52 1d 81 3f
       -0.0367389616262168 0.008356707880846003
000780 10 e9 ae 16 04 3e 9a bf 62 b2 d7 07 59 55 78 3f
       -0.025627197155452086 0.005940768981855445
000790 2b ed fb 45 d0 8b a1 3f d0 75 3d 58 30 3a a0 3f
       0.03426981787012048 0.031693945666784296
0007a0 70 3a 1b 59 a5 e7 9c 3f 92 12 fb dc c6 c8 93 bf
       0.028227408946629173 -0.01932059024581407
0007b0 e0 2b 52 a5 0b 9a 84 bf c0 2e 0f cc 94 62 79 bf
       -0.010059443457313522 -0.006197530020425723
0007c0 ea 1a 1d f3 0b 55 9d bf 92 25 7c 56 a3 bc a6 3f
       -0.0286447398314306 0.04440794401859728
0007d0 e8 f8 c0 1b de 54 90 3f eb db f9 6b 53 c5 99 3f
       0.015948744243581198 0.025166800942738304
0007e0 8d d1 cf 52 27 0c 9b 3f 70 ab 9c aa b3 bd a7 3f
       0.026413549832754724 0.04636918504396348
0007f0 d4 62 91 e3 ff 51 a0 3f 74 cd 8f cd 36 d6 91 3f
       0.03187560704163209 0.01741872434281562

arr_0 f8 [2, 2, 4, 4]
000000 80 f0 3f 3e 67 42 df 3f 31 e8 27 dd e1 0f ef bf
       0.48842793540075746 -0.9706887549830353
000010 75 b3 45 4e 4c f7 ce bf 09 71 0f f2 c9 e7 fc 3f
       -0.24192193815124666 1.806589074657554
000020 a3 a3 a0 23 f3 1a c6 3f 7e 5d e0 4d f7 33 bb bf
       0.1726974414789569 -0.10626168872146555
000030 9b e1 5f 40 b2 64 b6 bf 8f 86 95 0a 9d df cf bf
       -0.08747400352138472 -0.24901164070893286
000040 c0 7a cb 10 cd 06 95 3f 95 5b 8f fd 2c 79 98 bf
       0.020533756399226943 -0.023899748779367142
000050 64 51 fc 03 72 94 bc bf b7 b5 7a 90 2c 33 b5 3f
       -0.11164009663872815 0.08281210448577424
000060 a2 54 ab 9c 71 d0 d6 bf 4f e3 b3 fa 29 08 cf 3f
       -0.3564723997090572 0.24243664494840764
000070 3d 7f fa c7 75 42 f1 bf ac 5a 57 9a 3e 9c db 3f
       -1.0787256061230004 0.43141141006837347
000080 2d ce 03 5e 42 a9 e1 3f 4d a7 1d df 9b 93 ec bf
       0.5519115291812732 -0.8930186612826475
000090 03 91 6e 32 5f 20 b7 bf c5 32 e9 e0 75 50 fd 3f
       -0.09033770543334545 1.8321436677535285
0000a0 65 f5 de bd e6 e9 a2 3f 2d 35 8f 6c 82 0c b5 bf
       0.036940775563816065 -0.08222212934852698
0000b0 f2 ee 6f f0 86 74 b3 bf 3e 0e 2e 0d 41 a2 d2 bf
       -0.0759968125348072 -0.2911532047948845
0000c0 fb f2 e1 1e ef c5 ac 3f d9 09 d3 fc aa 8c a0 bf
       0.05619761707291634 -0.03232321106181119
0000d0 89 52 42 6f 52 37 81 3f 76 8d 84 80 70 f0 82 3f
       0.0084062996104788 0.009247664377261638
0000e0 b1 b5 5d c8 9f 94 a1 3f 53 96 f7 e5 43 e0 e5 3f
       0.03433703728556326 0.6836261264367728
0000f0 3d a2 36 03 34 58 f0 bf 23 3f b4 39 8e f1 e2 3f
       -1.0215339780353496 0.5919867636712052
000100 00 58 54 78 0f 26 ce bf 37 34 e3 d2 92 57 e2 bf
       -0.23553651214086813 -0.5731901282212054
000110 db 1b 24 f2 e5 29 f9 3f 65 06 bd 68 a9 19 c1 bf
       1.5727290590891616 -0.1335956345956674
000120 75 77 73 73 b3 5f e4 3f c2 6a 85 38 21 e8 c4 bf
       0.6366822485831408 -0.16333403835127142
000130 f4 55 a3 4e 34 96 d1 bf ac d7 3d cb 78 2f d4 bf
       -0.2747927444409861 -0.3153974518567064
000140 09 fc a1 6c ed 50 cd bf 6f cd 65 1c e1 d3 db bf
       -0.22903220943769068 -0.4348070885964352
000150 ea fe 96 31 9a 2f cd bf 6c 0c 6d 8c 81 6c 73 3f
       -0.22801520749452858 0.004742151307087199
000160 20 65 ff 03 e8 97 ca bf 76 ac 4b 49 77 c2 9d bf
       -0.20776081271359548 -0.029062141274078766
000170 6d 26 20 7e 44 6f f9 3f 5c 57 18 53 c0 15 da bf
       1.5896649290829388 -0.40757759203676414
000180 cc 04 c1 57 60 6e b6 bf 97 c2 75 2f e1 18 e1 bf
       -0.08762170927458895 -0.5342870642617353
000190 19 bd 11 24 8f f4 f9 3f 0a 71 c6 40 a7 06 6b bf
       1.6222068222958284 -0.003299070993490476
0001a0 6b c6 a1 84 86 5f e6 3f 06 51 4e 44 fe 5c ba bf
       0.6991608229129275 -0.10298146407723516
0001b0 58 47 88 83 c0 d5 d3 bf d1 8e 21 67 16 67 d1 bf
       -0.30992138714747375 -0.27191696235079826
0001c0 46 8d f0 bd 9d b4 c8 bf 8f 2a 57 89 1b 3a dc bf
       -0.19301196836850404 -0.4410466042724374
0001d0 8b d5 d3 70 8d 8a cc bf af d1 2a 60 d6 7f a4 3f
       -0.22297828683046492 0.040037821997802474
0001e0 70 88 83 bb 5b b7 c7 bf 46 e8 b9 70 99 f0 aa 3f
       -0.1852831521601419 0.05261687756588222
0001f0 2a 20 e6 8a 70 0c f9 3f 7c a3 23 d7 1a cc d7 bf
       1.5655370164622675 -0.3718325711220627

arr_3 f8 [36]
000000 c3 7c 39 9a 00 48 d2 bf 42 6f 05 b0 54 81 ee bf
       -0.28564467488281425 -0.9532874524988773
000010 bc 4f 52 dc a5 27 d4 bf 87 2b ab 98 73 a3 d4 3f
       -0.31491991534971553 0.32247629078909096
000020 15 94 ca b3 eb 2a e1 3f 4c 0d e7 c7 1c 4e d5 3f
       0.5364893447446116 0.33289260408146926
000030 77 83 7f 82 7d bb d1 bf 47 ca a5 54 d0 ec e9 bf
       -0.27706849807696393 -0.8101579335473809
000040 af 9d a2 5b ba 8d cd bf 94 b7 82 5d 35 78 f5 bf
       -0.23088769411445528 -1.3418477680929515
000050 00 04 03 f0 d8 e3 dd bf 75 b7 e1 50 77 a2 dc 3f
       -0.4670317024102246 0.44741614245037137
000060 71 ed 79 91 3a 1e f3 3f c0 d5 fa 21 3b b7 fe 3f
       1.1948800738017236 1.919734127744377
000070 9b e9 b6 84 bc 3f f3 3f 0f 91 22 44 eb ae de 3f
       1.2030606445465313 0.4794262090092766
000080 19 0c c4 b7 23 03 db bf fb 7b 92 f0 09 2f f5 bf
       -0.4220666212642655 -1.3239840886451464
000090 51 08 86 e9 31 02 f6 bf 25 3f a9 4b 00 e4 dd bf
       -1.3755358812345728 -0.46704108608990885
0000a0 01 53 d4 ac 9c 25 dd 3f d3 cf 1c 00 57 34 f3 3f
       0.45542065503950374 1.2002782825847944
0000b0 11 e9 40 69 88 db fe 3f 9d 2e da 8b 6a 06 f3 3f
       1.9285968886820835 1.1890664542178577
0000c0 d3 f2 41 b4 fe 24 dd 3f f4 53 0e 26 c3 9f db bf
       0.4553829918220746 -0.4316261169090574
0000d0 fa c5 05 6c 54 d5 f4 bf d1 2c 0c da da 27 d0 bf
       -1.3020824641829436 -0.25243254941660803
0000e0 e4 d2 34 78 b0 d5 ed bf b0 c7 90 e1 1e 60 d3 bf
       -0.9323351238041053 -0.302741737631659
0000f0 7a 87 88 ed 62 71 d3 3f 69 74 a3 0d d9 14 e1 3f
       0.3037955588971425 0.5337949053170067
000100 23 57 d0 cc 52 7e d4 3f f0 04 f0 09 85 bb d1 bf
       0.32021017075872943 -0.27707029314485876
000110 f7 1f 4e 70 5b 52 eb bf 55 e5 4e b5 0b c6 c9 bf
       -0.8538033669910864 -0.20135637619913874

arr_1 f8 [2]
000000 aa 66 74 37 9d bb bc bf 68 51 61 54 1e d7 67 bf
       -0.11223776439546876 -0.002910193669814532
